GCN/results250/gcn-epoch-6-val_loss-1.166.pt (torch, 104335 bytes, 23 tensors)

node_encoder.node_type_embedding.weight f4 [3, 3]
-0.25908515 0.058285777 -0.3306678 0.88142514 0.8537507 0.06514508 -0.0029501757 -0.3187664
-0.6524573
00000000: cfa6 84be 11bd 6e3d 4a4d a9be 14a5 613f
00000010: 688f 5a3f c96a 853d bc57 41bb 5935 a3be
00000020: 7107 27bf

synth_encoder.synth_emb.weight f4 [7, 3]
0.80898774 0.07524692 0.15410407 -0.41531432 -0.13729669 -0.23110111 0.4333869 -0.92428285
0.44691128 -0.92009294 -1.0528762 0.3364636 -0.016321583 0.24194649 -0.868342 0.78407305
0.21924153 -0.74231166 1.0093055 0.090871766 -0.14172171
00000000: d219 4f3f 0f1b 9a3d 75cd 1d3e 14a4 d4be
00000010: 8197 0cbe c5a5 6cbe e3e4 dd3e cd9d 6cbf
00000020: 8ed1 e43e 368b 6bbf a6c4 86bf f544 ac3e
00000030: d7b4 85bc d2c0 773e a94b 5ebf 03b9 483f
00000040: da80 603e 2308 3ebf ec30 813f fa1a ba3d
00000050: 7f1f 11be

gnn.gnn_node.node_encoder.node_type_embedding.weight f4 [3, 3]
-0.25908515 0.058285777 -0.3306678 0.88142514 0.8537507 0.06514508 -0.0029501757 -0.3187664
-0.6524573
00000000: cfa6 84be 11bd 6e3d 4a4d a9be 14a5 613f
00000010: 688f 5a3f c96a 853d bc57 41bb 5935 a3be
00000020: 7107 27bf

gnn.gnn_node.convs.0.linear.weight f4 [128, 4]
-0.14784344 -0.44277316 -0.26869497 -0.12811893 0.18103878 0.034903955 -0.29264045 -0.5384555
0.17181547 0.3978051 0.15082921 0.38925323 -0.1980387 0.02223255 -0.31133392 0.25539732
-0.023780458 -0.37308103 0.40661594 0.44322744 -0.042248484 -0.44824058 0.2769717 -0.2900775
-0.044464797 0.34739515 -0.18443234 0.48413548 -0.42830497 0.29037446 -0.34749994 0.18360457
0.27090815 0.14120938 -0.3714918 0.387821 0.15252975 -0.21304762 0.2157269 -0.42856064
-0.44932956 0.4409788 0.26081538 -0.14749853 -0.39360932 -0.18143421 -0.42080864 -0.4648021
0.0883806 0.024561767 -0.1981015 -0.02248722 0.35419664 0.08822993 0.45021793 0.2635909
-0.14724602 -0.09846728 -0.11008443 0.16380282 0.093642004 0.24537785 -0.39245272 -0.3119638
0.5008714 0.33315846 0.26842883 0.41967285 -0.13127781 0.2467628 0.0135754775 -0.38616672
-0.51059794 0.42017493 0.17765613 -0.16707537 0.35737637 -0.060624324 -0.03918209 -0.08037445
-0.24939723 -0.4891729 -0.18084744 -0.38463566 -0.50052905 -0.29483715 0.17707261 -0.41213435
0.17910281 0.20111842 0.2725592 0.42311734 -0.49764416 -0.40683454 -0.48759475 -0.34218308
0.3185242 -0.22712979 0.10814846 -0.01926495 0.05231627 0.44440937 -0.4452772 0.055719063
-0.4832671 0.40024704 0.32346594 -0.14549968 0.04676853 0.39624155 0.4745838 -0.45769727
-0.3278497 -0.41761193 0.53632694 -0.46814057 0.4465611 0.53441817 -0.0011387639 -0.10549122
0.256526 -0.46685922 -0.37575802 0.44369206 0.042530313 0.21105613 0.3465252 -0.23435228
0.1644739 -0.22236778 -0.41383716 -0.15463021 -0.39560762 0.24326609 0.39510116 -0.36672124
0.4945025 0.061463997 -0.33646795 0.34884036 -0.27783164 -0.27963164 0.45982093 0.47280142
0.15816575 -0.0980901 -0.33924603 -0.2596709 0.44742516 0.22070818 0.2923879 -0.316185
-0.08029515 0.29636782 0.08879073 -0.2613649 -0.17016211 0.050496142 -0.37139982 0.42464268
0.098353215 -0.28024384 0.36543676 0.029678782 0.11646876 0.08710737 0.4716169 0.05854141
-0.23396198 -0.3307621 -0.13628136 0.45221335 0.39954606 -0.27176067 -0.31542647 0.2397939
-0.26780778 0.004058575 -0.276314 -0.18925542 0.28172895 -0.14002699 -0.58398914 -0.038629893
-0.0033925776 0.098533675 0.07395838 -0.11258805 -0.154073 0.40154913 -0.0033639492 -0.45768535
-0.35924122 0.11641218 -0.3489484 -0.156058 0.0032314805 0.3795489 -0.32357937 -0.082353696
0.36278927 0.46716788 0.17635301 0.31201845 -0.20802495 -0.40474945 -0.38417086 0.27864093
0.085151814 0.41257378 -0.08455641 -0.37675917 0.15828654 0.33312204 0.04765503 -0.4495748
0.13254449 0.46744803 -0.27677873 0.12575704 -0.04538186 -0.43503103 0.3537815 -0.32410103
0.089680865 0.16713771 -0.20582366 0.05824467 -0.47620124 -0.3445536 0.3270798 -0.17836615
-0.019510683 0.18787341 0.29341125 -0.06144605 0.1450117 0.33033657 -0.12870565 -0.032614388
-0.26221657 0.39036772 0.15765044 0.078630604 -0.4100141 0.23882781 -0.4200786 0.49945155
0.18777464 0.378583 -0.4864791 0.42745316 -0.28067142 -0.026334962 -0.23419829 -0.45856136
00000000: 4564 17be 2ab3 e2be 6392 89be 9c31 03be
00000010: 3b62 393e 73f7 0e3d f8d4 95be 38d8 09bf
00000020: 65f0 2f3e 1cad cb3e f972 1a3e 334c c73e
00000030: a8ca 4abe 0921 b63c 2967 9fbe 70c3 823e
00000040: 3ccf c2bc 7a04 bfbe f72f d03e b5ee e23e
00000050: bf0c 2dbd ca7f e5be 3ccf 8d3e 0a85 94be
00000060: b820 36bd c7dd b13e d5db 3cbe 9be0 f73e
00000070: ca4a dbbe f6ab 943e 83eb b1be d602 3c3e
00000080: 79b4 8a3e 3199 103e 2c34 bebe 7990 c63e
00000090: c230 1c3e 2829 5abe 83e7 5c3e 4d6c dbbe
000000a0: 860e e6be f9c7 e13e 9889 853e db09 17be
000000b0: 2987 c9be e4c9 39be 3b74 d7be 8afa edbe
000000c0: e300 b53d c235 c93c 1fdb 4abe 1e37 b8bc
000000d0: 4359 b53e e5b1 b43d f782 e63e 63f5 863e
000000e0: a9c7 16be 37a9 c9bd f273 e1bd edbb 273e
000000f0: 61c7 bf3d 5544 7b3e 90ef c8be b8b9 9fbe
00000100: 1c39 003f bf93 aa3e 816f 893e 5cdf d63e
00000110: b16d 06be 63af 7c3e ae6b 5e3c a5b7 c5be
00000120: 8cb6 02bf 2b21 d73e 7deb 353e ce15 2bbe
00000130: 09fa b63e 3651 78bd 667d 20bd 5c9b a4bd
00000140: fd61 7fbe df74 fabe 1230 39be f7ee c4be
00000150: ac22 00bf e5f4 96be 8652 353e 4603 d3be
00000160: ba66 373e fdf1 4d3e e18c 8b3e d6a2 d83e
00000170: 37cb febe 9e4c d0be 05a6 f9be 9f32 afbe
00000180: 9b15 a33e b694 68be f17c dd3d 87d1 9dbc
00000190: 9649 563d a089 e33e 60fb e3be ac39 643d
000001a0: c96e f7be 2eed cc3e 549d a53e defd 14be
000001b0: 5c90 3f3d 2ce0 ca3e a6fc f23e 4c57 eabe
000001c0: eadb a7be 3bd1 d5be b94c 093f 1fb0 efbe
000001d0: a8a3 e43e a1cf 083f 9342 95ba c80b d8bd
000001e0: 6057 833e 2c08 efbe 5b63 c0be 9b2b e33e
000001f0: 4434 2e3d 191f 583e c06b b13e 0bfa 6fbe
00000200: d96b 283e 61b4 63be 77e2 d3be 6257 1ebe
00000210: 158d cabe bf1a 793e b34a ca3e e3c2 bbbe
00000220: 6f2f fd3e acc1 7b3d 8745 acbe 349b b23e
00000230: f33f 8ebe e12b 8fbe a66d eb3e 0713 f23e
00000240: 34f6 213e 76e3 c8bd a8b1 adbe 96f3 84be
00000250: e914 e53e 5301 623e deb3 953e 00e3 a1be
00000260: c971 a4bd 86bd 973e ead7 b53d 9fd1 85be
00000270: fa3e 2ebe 0bd5 4e3d 1e28 bebe c46a d93e
00000280: 696d c93d 1f7c 8fbe 871a bb3e eb20 f33c
00000290: 2c87 ee3d 5965 b23d c577 f13e 1ec9 6f3d
000002a0: bb93 6fbe a659 a9be 578d 0bbe 8288 e73e
000002b0: 4d91 cc3e 3724 8bbe 947f a1be 888c 753e
000002c0: 1a1e 89be cbfd 843b 0779 8dbe 2ccc 41be
000002d0: c73e 903e 3c63 0fbe 5080 15bf 613a 1ebd
000002e0: 0256 5ebb 06cc c93d 7e77 973d 9094 e6bd
000002f0: 50c5 1dbe d997 cd3e b475 5cbb bc55 eabe
00000300: 77ee b7be 8269 ee3d 5da9 b2be abcd 1fbe
00000310: 3fc7 533b 3c54 c23e 32ac a5be 0ea9 a8bd
00000320: 84bf b93e a130 ef3e e295 343e e2c0 9f3e
00000330: 7e04 55be 523b cfbe 0bb2 c4be 06aa 8e3e
00000340: 1364 ae3d df3c d33e e92b adbd 94e6 c0be
00000350: de15 223e f98e aa3e ec31 433d ab2e e6be
00000360: beb9 073e 5955 ef3e f1b5 8dbe 74c6 003e
00000370: 54e2 39bd 63bc debe d922 b53e 92f0 a5be
00000380: 9aaa b73d 2626 2b3e 70c3 52be f791 6e3d
00000390: a6d0 f3be 5469 b0be 0177 a73e 9ea5 36be
000003a0: ded4 9fbc e361 403e 003a 963e daae 7bbd
000003b0: f27d 143e e021 a93e 6acb 03be aa96 05bd
000003c0: 4041 86be 47de c73e 1e6f 213e 1509 a13d
000003d0: 5eed d1be 478f 743e 8b14 d7be 1db8 ff3e
000003e0: ff47 403e a2d5 c13e ca13 f9be 24db da3e
000003f0: 2ab4 8fbe 6bbc d7bc add1 6fbe 8ec8 eabe

gnn.gnn_node.convs.0.linear.bias f4 [128]
0.50462765 -0.027782459 -0.36101332 0.13194472 -0.4182503 0.47353113 0.0038895241 0.41582075
0.50893813 0.17007962 -0.031653527 0.025221828 -0.54570735 -0.40024865 0.423578 0.3656399
0.4699477 0.058620907 0.49832875 0.45518056 -0.045313537 0.17740226 -0.12094321 -0.3913221
0.14228079 0.09237454 0.3864781 0.19407958 0.33119172 -0.44266137 -0.1442687 0.30955485
0.5027947 -0.06709 0.44267228 -0.10609741 0.4499132 0.25379863 -0.37721655 -0.055923782
0.27041316 0.11254238 -0.4076931 -0.3019338 -0.05955167 -0.28395694 -0.23731263 -0.13060017
0.08389321 -0.108327866 0.25146648 0.044999108 0.0820962 0.08004053 -0.43002474 -0.16621014
-0.277481 0.16401838 -0.4652572 0.19878969 -0.44714814 -0.09839545 0.038624234 0.34945613
-0.22896945 0.34982884 0.45630658 -0.15853302 -0.056650467 -0.025686687 -0.25574964 0.4870741
-0.34692997 0.3374178 -0.19644105 -0.03305946 0.051677447 0.14522527 -0.011238764 -0.0051916065
-0.4427152 -0.4238903 -0.3101336 0.20160335 0.31886774 0.45816287 0.23052973 0.05167997
-0.012637032 0.30973643 0.25913063 -0.019507566 -0.19104257 0.022241859 0.34687975 0.3704097
-0.44938895 -0.4514802 0.3378052 0.16962175 -0.18303908 -0.15347932 0.022188492 -0.34490258
-0.44811943 -0.048658337 0.1585919 -0.22217882 -0.34743327 -0.29517463 -0.27626592 0.5448961
-0.37756336 -0.33532646 -0.47912344 -0.11253952 0.033113293 0.4862391 0.4179478 -0.42144695
0.4105468 0.012269423 -0.22980857 -0.070343964 -0.18834479 0.011824157 0.32339936 -0.2706244
00000000: 472f 013f 0a98 e3bc bdd6 b8be 841c 073e
00000010: e724 d6be ac72 f23e 63e7 7e3b 75e6 d43e
00000020: c549 023f 5a29 2e3e 21a7 01bd 029e ce3c
00000030: 7ab3 0bbf 64ed ccbe 37df d83e 2735 bb3e
00000040: fc9c f03e 7a1c 703d f224 ff3e 6d0d e93e
00000050: b09a 39bd f0a8 353e 13b1 f7bd 5f5b c8be
00000060: 0eb2 113e dd2e bd3d 75e0 c53e ccbc 463e
00000070: f691 a93e 83a4 e2be 2dbb 13be f97d 9e3e
00000080: 27b7 003f 7b66 89bd f1a5 e23e 9949 d9bd
00000090: 065b e63e e5f1 813e 8722 c1be 5610 65bd
000000a0: 9873 8a3e 9f7c e63d 26bd d0be 1197 9abe
000000b0: 74ec 73bd ce62 91be 1502 73be 0dbc 05be
000000c0: 34d0 ab3d 00db ddbd 37c0 803e fc50 383d
000000d0: 0d22 a83d 4aec a33d 342c dcbe fe32 2abe
000000e0: fd11 8ebe 6ff4 273e 3136 eebe 868f 4b3e
000000f0: 9af0 e4be 8e83 c9bd 7234 1e3d eaeb b23e
00000100: f876 6abe c41c b33e 04a1 e93e 7b56 22be
00000110: 520a 68bd e36c d2bc 9ef1 82be c761 f93e
00000120: cea0 b1be 07c2 ac3e d827 49be 5b69 07bd
00000130: bbab 533d efb5 143e cb22 38bc 5a1e aabb
00000140: 91ab e2be 2608 d9be d5c9 9ebe 1c71 4e3e
00000150: a242 a33e 5394 ea3e fc0f 6c3e 60ae 533d
00000160: 8e0b 4fbc c695 9e3e c5ac 843e 55ce 9fbc
00000170: aaa0 43be 8f34 b63c 399a b13e 57a6 bd3e
00000180: 4f16 e6be 6a28 e7be cef4 ac3e 53b1 2d3e
00000190: 996e 3bbe af29 1dbe a4c4 b53c 1297 b0be
000001a0: e96f e5be f74d 47bd ea65 223e d882 63be
000001b0: c6e2 b1be 2121 97be ba72 8dbe 507e 0b3f
000001c0: fc4f c1be e9af abbe ab4f f5be 1f7b e6bd
000001d0: cea1 073d 55f4 f83e 41fd d53e e5c7 d7be
000001e0: 3133 d23e b105 493c f052 6bbe 7f10 90bd
000001f0: 75dd 40be 1cba 413c 9a94 a53e 488f 8abe

gnn.gnn_node.convs.1.linear.weight f4 [128, 128]
0.015785247 -0.040514126 -0.040411767 0.0040875045 -0.090557516 0.0118531985 -0.09584627 -0.032664202
-0.14147212 0.07239184 0.021689344 0.023497382 -0.019620368 -0.014712728 -0.077254616 0.045589138
-0.0987226 -0.055643167 0.037930794 0.05185578 -0.04914821 0.03865856 -0.0018142461 -0.057447456
-0.054104228 -0.11828701 -0.014801918 -0.04048898 0.07169876 -0.011270379 -0.008729266 0.050108723
-0.043853316 0.07507213 -0.11091552 -0.035519376 0.07557533 -0.03760747 -0.02193509 -0.05845931
0.018214101 -0.09330779 -0.066565804 0.029520066 -0.036880735 -0.11469889 -0.065518424 -0.030131586
0.012449654 -0.018548539 0.010716469 0.029640885 0.03673613 -0.05372389 0.021331953 0.033098433
-0.08467885 -0.05552746 0.011631049 0.020231783 0.042179048 -0.027072243 -0.04083039 -0.04809388
0.045622922 0.057547033 0.012223458 0.015976869 0.023768073 0.005366737 -0.03573196 -0.084987186
0.027649596 -0.017215813 -0.0988234 -0.13074405 -0.06304035 0.07330509 -0.050744995 0.021210732
-0.09412943 -0.11062237 -0.023208786 -0.006839133 -0.06990047 -0.07600294 -0.046887156 -0.041096214
0.02746634 0.027157199 -0.015278998 -0.08619775 -0.13449109 -0.08037709 -0.035117347 -0.05636413
0.056142803 -0.0965413 -0.13474752 -0.05532552 0.0560063 -0.0034900822 -0.036174484 -0.04314135
-0.009832504 -0.014248876 -0.061645515 -0.115420304 0.063733265 -0.026079668 -0.0051454105 0.06746443
-0.049312342 -0.08957872 0.07016945 -0.043090854 -0.099496715 0.07010212 -0.0912474 0.021428984
0.008052353 0.011449533 0.04008805 -0.086961485 -0.07181422 0.06638655 -0.088055834 -0.09317994
0.072491996 0.079124875 0.012539039 -0.017137712 0.038402863 -0.082249664 0.113229774 0.0005750433
0.053151764 -0.06298515 0.06356559 -0.04835189 0.08632363 -0.039756373 0.10433493 -0.029128116
0.13003343 -0.030542018 -0.08450206 -0.040840875 -0.014116626 -0.04120312 0.06696645 0.06323768
0.015549226 0.050559845 0.09903384 -0.012464047 -0.058646157 -0.050094016 0.10011982 0.08311286
0.046823747 0.05392161 0.010254517 0.06031963 0.072107956 0.07879783 0.0032906067 0.0059957383
-0.06280864 0.007897801 0.008323296 0.08482351 0.05695091 -0.04490081 0.019563278 -0.012717773
0.01589991 0.027997913 0.04020114 0.08560654 0.074568875 0.058155183 0.034675766 0.07965921
-0.10073288 0.033974074 0.054721396 -0.013555955 0.045069516 0.10155206 0.09141334 0.029309819
0.06458024 0.07718796 0.078623205 -0.03788612 0.05768042 0.044816945 -0.00874157 0.025569426
0.089292616 0.04428962 0.000440749 0.07610168 0.021360572 -0.036493998 -0.06165855 -0.021863043
-0.051976 0.06994657 0.082655124 0.050525296 0.006195705 0.10557377 0.004578402 0.009570111
0.10258211 0.0060851355 0.024134623 0.091862425 0.11969793 -0.030015223 0.04710735 0.022575526
0.045200475 -0.04913438 -0.036174715 -0.010907842 0.020017223 0.01733076 0.10514151 0.091999575
0.041270357 -0.03817237 -0.079760864 -0.0259618 0.0012259868 -0.02485834 0.015026383 0.023189815
0.034542233 -0.049008366 -0.06820482 -0.06831016 0.051596466 0.081463054 0.06348955 -0.017591994
0.008033879 0.017575609 -0.049415156 0.077009015 -0.028709028 0.046476673 -0.030786008 0.0013750346
00000000: 1050 813c 24f2 25bd cf86 25bd 79f0 853b
00000010: 3876 b9bd eb33 423c 0d4b c4bd e6ca 05bd
00000020: 11de 10be 2c42 943d daad b13c 957d c03c
00000030: e5ba a0bc a70d 71bc ab37 9ebd adbb 3a3d
00000040: 132f cabd 17ea 63bd 525d 1b3d ba66 543d
00000050: a24f 49bd 7058 1e3d ffcb edba 064e 6bbd
00000060: 659c 5dbd 7640 f2bd be83 72bc c6d7 25bd
00000070: cdd6 923d 65a7 38bc 3205 0fbc ce3e 4d3d
00000080: 899f 33bd 6bbf 993d ad27 e3bd c47c 11bd
00000090: 3dc7 9a3d 4a0a 1abd 38b1 b3bc 0873 6fbd
000000a0: bd35 953c 2818 bfbd a753 88bd 11d4 f13c
000000b0: 4110 17bd 40e7 eabd 862e 86bd 84d6 f6bc
000000c0: a2f9 4b3c 1bf3 97bc 2194 2f3c 71d1 f23c
000000d0: a078 163d 950d 5cbd 59c0 ae3c 3992 073d
000000e0: 1b6c adbd c370 63bd 2890 3e3c 20bd a53c
000000f0: f0c3 2c3d 9cc6 ddbc c43d 27bd 17fe 44bd
00000100: 1adf 3a3d 70b6 6b3d e644 483c ece1 823c
00000110: 43b5 c23c 74db af3b ad5b 12bd c30d aebd
00000120: 6881 e23c 2d08 8dbc ec63 cabd c5e1 05be
00000130: 4d1b 81bd fb20 963d fcd9 4fbd 21c2 ad3c
00000140: eec6 c0bd fb8d e2bd 5a20 bebc ce1a e0bb
00000150: fa27 8fbd 6ea7 9bbd bf0c 40bd 8154 28bd
00000160: 1701 e13c c678 de3c c354 7abc 7288 b0bd
00000170: 08b8 09be be9c a4bd 35d7 0fbd 13de 66bd
00000180: fff5 653d 72b7 c5bd 41fb 09be 039d 62bd
00000190: dd66 653d ddb9 64bb b22b 14bd fcb4 30bd
000001a0: 8318 21bc 1e74 69bc 0280 7cbd 7b61 ecbd
000001b0: 9686 823d 07a5 d5bc d59a a8bb cb2a 8a3d
000001c0: bdfb 49bd 0c75 b7bd 00b5 8f3d 0980 30bd
000001d0: efc4 cbbd b391 8f3d ebdf babd d68b af3c
000001e0: 04ee 033c d296 3b3c 5e33 243d dd18 b2bd
000001f0: 5513 93bd acf5 873d 9e56 b4bd 20d5 bebd
00000200: af76 943d 390c a23d 8b70 4d3c 6364 8cbc
00000210: 524c 1d3d 8372 a8bd 03e5 e73d 81be 163a
00000220: aab5 593d 5cfe 80bd ad2e 823d a20c 46bd
00000230: 71ca b03d 94d7 22bd 8dad d53d 169e eebc
00000240: 7c27 053e 4133 fabc 6b0f adbd c348 27bd
00000250: 6c49 67bc 9ac4 28bd b525 893d c282 813d
00000260: 2ec2 7e3c d717 4f3d 41d2 ca3d 0136 4cbc
00000270: f436 70bd 622f 4dbd 9f0b cd3d 1337 aa3d
00000280: 42ca 3f3d e8dc 5c3d 9002 283c b711 773d
00000290: 56ad 933d c260 a13d 38a7 573b e677 c43b
000002a0: d1a1 80bd c765 013c 6f5e 083c f3b7 ad3d
000002b0: 5b45 693d e9e9 37bd 2b43 a03c 355e 50bc
000002c0: 8740 823c e15b e53c f3a9 243d 7b52 af3d
000002d0: 91b7 983d 2134 6e3d 2d08 0e3d 5e24 a33d
000002e0: 0a4d cebd 6628 0b3d 8b23 603d cc19 5ebc
000002f0: d09a 383d 87fa cf3d eb36 bb3d 251b f03c
00000300: a542 843d b914 9e3d 3405 a13d 7a2e 1bbd
00000310: 4e42 6c3d f991 373d cd38 0fbc f976 d13c
00000320: 0cdf b63d 0869 353d 5414 e739 33db 9b3d
00000330: 5efc ae3c bb7a 15bd ad8d 7cbd 201a b3bc
00000340: c9e4 54bd 2640 8f3d 1747 a93d 9df3 4e3d
00000350: 5705 cb3b 1037 d83d 6b06 963b f4cb 1c3c
00000360: 9216 d23d d165 c73b f9b5 c53c 5e22 bc3d
00000370: 3024 f53d 7ce2 f5bc a3f3 403d 4ff0 b83c
00000380: 2224 393d 2241 49bd f02b 14bd ceb6 32bc
00000390: 29fb a33c 3df9 8d3c 6f54 d73d 466a bc3d
000003a0: 1b0b 293d a25a 1cbd aa59 a3bd d7ad d4bc
000003b0: 4ab1 a03a b8a3 cbbc 3831 763c 91f8 bd3c
000003c0: 287c 0d3d ffbc 48bd f8ae 8bbd 32e6 8bbd
000003d0: d156 533d 1ad6 a63d cf06 823d 161d 90bc
000003e0: 88a0 033c b9fa 8f3c 8c67 4abd e7b6 9d3d
000003f0: 322f ebbc 535e 3e3d f032 fcbc 813a b43a

gnn.gnn_node.convs.1.linear.bias f4 [128]
0.0020091515 0.018440584 0.0012693898 0.0859493 0.08101143 -0.016290268 0.008457702 -0.057602275
-0.069352776 -0.040875338 0.019912703 0.04285234 0.011866566 -0.0009528774 0.044587687 -0.0776832
0.07060367 -0.1131772 0.02600623 0.019263223 0.03212555 0.1092624 0.058263198 -0.112091355
0.020051723 -0.0824857 -0.015364586 -0.00020297893 0.05515925 -0.11973289 -0.017476564 0.0015815991
-0.037250597 -0.0149115 0.026003927 -0.10870098 0.001974895 0.097261004 -0.06796131 -0.05263237
0.00492887 -0.0973937 0.057540588 0.15265383 0.061320275 -0.058468975 -0.013460176 0.019881722
-0.036829483 0.068726994 -0.032543443 -0.027485073 0.0011690402 -0.066121586 0.05657944 -0.10943855
-0.10367988 0.03713403 0.06858708 -0.040745012 0.07727896 -0.10032005 0.09828855 0.08191452
0.082565546 0.06437299 -0.071254626 0.03479207 -0.033080358 0.06564205 -0.10461674 -0.114877366
0.007667682 0.023041751 0.004756052 -0.067321904 0.04681457 -0.06539462 -0.07386609 0.064829186
0.023244629 0.023149595 -0.09450826 -0.00019827776 -0.076693505 -0.04539732 -0.019022388 -0.06103284
-0.09577278 0.07542377 0.048875507 -0.017506963 -0.065140076 -0.058917657 -0.014960652 0.0036634617
-0.056975815 -0.15968885 0.015404881 -0.05398737 -0.06293903 0.08729583 0.08988646 -0.06659574
0.009421678 -0.04223419 0.03091181 0.06008305 -0.015271013 0.001975478 -0.0064754887 0.032143768
-0.10987571 0.03701809 0.039926182 0.06751325 -0.03633106 -0.1032357 0.011375355 -0.009064111
-0.053857446 0.007219067 0.003773242 0.026859084 -0.0002470111 -0.012402682 -0.06531643 -0.07957296
00000000: f8ab 033b b510 973c a761 a63a 3006 b03d
00000010: 52e9 a53d 2b73 85bc 2c92 0a3c 5df0 6bbd
00000020: d408 8ebd e66c 27bd f71f a33c ef85 2f3d
00000030: fc6b 423c 85ca 79ba 94a1 363d 5f18 9fbd
00000040: a898 903d 73c9 e7bd 040b d53c e8cd 9d3c
00000050: 1596 033d f7c4 df3d 64a5 6e3d 2790 e5bd
00000060: 8343 a43c 43ee a8bd bfbb 7bbc bed6 54b9
00000070: aaee 613d 8436 f5bd 032b 8fbc a94d cf3a
00000080: 1594 18bd 5d4f 74bc 3006 d53c 9f9e debd
00000090: 3d6d 013b c730 c73d 4d2f 8bbd 0a95 57bd
000000a0: 5c82 a13b 5976 c7bd aeaf 6b3d 4951 1c3e
000000b0: f82a 7b3d 2a7d 6fbd 1288 5cbc fede a23c
000000c0: 83da 16bd bdc0 8c3d 464c 05bd 6028 e1bc
000000d0: 7b3a 993a c16a 87bd d8bf 673d 5221 e0bd
000000e0: 1e56 d4bd da19 183d 6277 8c3d 3ee4 26bd
000000f0: 6e44 9e3d 9974 cdbd 824b c93d cdc2 a73d
00000100: 2018 a93d fcd5 833d f2ed 91bd 2182 0e3d
00000110: 457f 07bd 576f 863d 4d41 d6bd d344 ebbd
00000120: 2e41 fb3b 0ec2 bc3c a8d8 9b3b 11e0 89bd
00000130: a2c0 3f3d 9ded 85bd 1b47 97bd 2ac5 843d
00000140: 856b be3c 38a4 bd3c 8c8d c1bd c8e8 4fb9
00000150: 7c11 9dbd 8af2 39bd d7d4 9bbc 92fd 79bd
00000160: 8524 c4bd c777 9a3d af31 483d c36a 8fbc
00000170: 2968 85bd a453 71bd 861d 75bc b016 703b
00000180: 795f 69bd 7985 23be c164 7c3c dc21 5dbd
00000190: 2ee6 80bd 28c8 b23d 6416 b83d 5963 88bd
000001a0: 625d 1a3c c2fd 2cbd c43a fd3c a519 763d
000001b0: 4533 7abc 0577 013b 5630 d4bb 2fa9 033d
000001c0: 8406 e1bd 48a0 173d a389 233d 6344 8a3d
000001d0: e1cf 14bd 3d6d d3bd b25f 3a3c a381 14bc
000001e0: a099 5cbd ec8d ec3b 7f48 773b 9507 dc3c
000001f0: 4581 81b9 9e34 4bbc 9fc4 85bd 26f7 a2bd

gnn.gnn_node.batch_norms.0.weight f4 [128]
0.98831415 0.91089475 0.9911542 1.0183845 0.9744919 0.9881475 1.0335041 0.98611194
1.0289016 0.97022945 1.0245835 0.9980749 1.0398911 0.9414475 0.9951601 0.9766749
1.0586257 1.0323039 0.96318215 0.9959663 0.9887682 0.96311206 1.0159314 1.0272425
0.9837712 1.0029631 0.99113333 0.99286985 0.9726862 1.0177816 0.9818961 0.9986887
1.0082844 0.9557084 1.0212085 1.0519457 0.98822165 0.96718764 1.0422671 0.9984548
1.0052503 1.0046508 1.0057342 1.0095621 0.95438707 1.0472122 1.0083814 1.0154643
0.99428946 0.9388501 1.0008609 1.0337303 0.9621941 0.9792187 0.94641465 0.9917519
0.9165798 1.0008929 0.9943456 0.9954359 1.006004 0.99712247 1.0327644 1.0068729
0.9680064 0.9875711 0.985016 1.0344577 0.96628064 0.96488404 1.007197 1.0266153
1.0128167 1.0074226 0.93759376 0.97046083 1.0471464 0.98330253 0.9900574 1.0098352
0.9650984 0.995696 0.97034353 1.0098066 0.9933996 1.0210791 1.0270846 0.9554409
1.0015045 1.0142229 0.99170506 1.0175705 1.0254872 1.0150732 1.0630068 0.9787864
1.0176303 1.013971 1.0162946 1.0569218 0.98599 0.9364744 1.0142148 1.0170307
1.0192235 0.9523754 0.9746335 0.98365015 1.0044888 1.0352268 0.9718489 0.9818959
0.9627993 1.0022081 0.9759756 1.0407683 1.0376142 1.0155473 1.017676 1.015209
0.9896365 1.0371076 1.0091865 1.0124288 0.9624829 0.9623815 0.9871148 0.99204
00000000: 2802 7d3f 6630 693f 48bc 7d3f 6c5a 823f
00000010: 4d78 793f 3cf7 7c3f dd49 843f d571 7c3f
00000020: 0cb3 833f f560 783f 8d25 833f d681 7f3f
00000030: 271b 853f b402 713f d0c2 7e3f 5e07 7a3f
00000040: 0c81 873f 8922 843f 1b93 763f a6f7 7e3f
00000050: ea1f 7d3f 838e 763f 0a0a 823f af7c 833f
00000060: 6ed8 7b3f 1861 803f eaba 7d3f b82c 7e3f
00000070: f601 793f ab46 823f 8b5d 7b3f 10aa 7f3f
00000080: 770f 813f 4ea9 743f f6b6 823f 28a6 863f
00000090: 18fc 7c3f 9c99 773f 0269 853f bc9a 7f3f
000000a0: 0bac 803f 6698 803f e6bb 803f 5539 813f
000000b0: b652 743f 0d0b 863f a412 813f bcfa 813f
000000c0: c189 7e3f 7b58 703f 361c 803f 4651 843f
000000d0: 5a52 763f 14ae 7a3f 3b48 723f 74e3 7d3f
000000e0: f9a4 6a3f 421d 803f 6f8d 7e3f e3d4 7e3f
000000f0: bdc4 803f 6b43 7f3f a031 843f 36e1 803f
00000100: 44cf 773f 76d1 7c3f 022a 7c3f 1c69 843f
00000110: 2b5e 773f a402 773f d5eb 803f 2168 833f
00000120: faa3 813f 39f3 803f 2506 703f 1f70 783f
00000130: e508 863f b7b9 7b3f 6774 7d3f 4842 813f
00000140: b010 773f efe5 7e3f 6f68 783f 5841 813f
00000150: 704f 7e3f b8b2 823f 8277 833f c697 743f
00000160: 4d31 803f 0ed2 813f 62e0 7d3f c03f 823f
00000170: 2a43 833f ebed 813f 9b10 883f bf91 7a3f
00000180: b641 823f cdc9 813f f115 823f 3749 873f
00000190: d769 7c3f c9bc 6f3f cad1 813f 102e 823f
000001a0: ea75 823f e0ce 733f 9581 793f 7fd0 7b3f
000001b0: 1793 803f 5082 843f 17cb 783f 885d 7b3f
000001c0: 047a 763f 5b48 803f 89d9 793f e537 853f
000001d0: 8bd0 843f 74fd 813f 3543 823f 5ef2 813f
000001e0: d158 7d3f f1bf 843f 062d 813f 4497 813f
000001f0: 4865 763f a25e 763f 8eb3 7c3f 55f6 7d3f

gnn.gnn_node.batch_norms.0.bias f4 [128]
-0.015391222 -0.048060235 -0.002627167 0.0030859443 3.3846416e-05 -0.05352216 0.049385585 -0.021857884
-0.007558919 0.0014107871 0.015256578 -0.011338054 0.028566897 -0.02332335 -0.027812755 -0.08615982
-0.0029561662 0.02288761 -0.036015566 -0.056136478 -0.040267717 -0.012466547 -0.00071681745 0.011544728
-0.03231799 -0.058923546 -0.021844434 0.009487273 -0.010250231 0.003170165 0.00014629314 0.052554794
-0.04346193 -0.062291123 -0.038099796 0.067622475 -0.045044396 -0.00763448 0.03845896 0.020623622
-0.060365427 0.0070984834 -0.0038169606 0.011922171 -0.0035134668 0.019476363 0.008235992 0.008697809
-0.029512312 0.0029995216 -0.01508653 -0.0073701693 0.023858665 0.016865537 -0.03329859 0.0079381615
-0.06916656 -0.0024879165 -0.0008801983 -0.06846745 0.009659883 -0.0021453532 0.005403401 -0.019655116
-0.010582411 -0.1262802 -0.06036539 0.036060628 -0.03416103 -0.016943853 0.0063366797 -0.008954061
0.037877627 0.0052624345 -0.030934436 -0.03432485 -0.007451315 -0.0018227147 0.026289538 -0.0010770984
-0.024733743 0.0020368514 -0.0083651785 0.03988183 -0.03214458 0.013204978 -0.0046820347 -0.059378024
-0.016958594 -0.008356566 0.0021396936 0.06302527 0.007303325 0.023164751 -0.0065523875 0.000624327
0.0047925413 0.018796504 -0.0047312947 0.077829875 -0.012600185 -0.03952191 0.051924225 0.017645406
0.018231979 -0.031262446 -0.031852853 -0.008645915 0.023432389 0.02249211 -0.020672 -0.06049539
-0.009282804 0.018508308 -0.01487672 0.027232973 0.020680882 -0.044988353 0.0032581838 0.022448836
-0.03540225 0.014563463 0.0025560362 0.065402456 -0.03678704 -0.02291716 -0.057872266 -0.010422375
00000000: 772b 7cbc cfda 44bd 8c2c 2cbb 8e3d 4a3b
00000010: 50f6 0d38 0d3a 5bbd 8a48 4a3d 4e0f b3bc
00000020: cfb0 f7bb 29ea b83a baf6 793c 3fc3 39bc
00000030: 2005 ea3c 9c10 bfbc 93d7 e3bc 8f74 b0bd
00000040: 3dbc 41bb cc7e bb3c 0f85 13bd 5def 65bd
00000050: c3ef 24bd 7d40 4cbc cee8 3bba 1926 3d3c
00000060: de5f 04bd d159 71bd 19f3 b2bc 8270 1b3c
00000070: 96f0 27bc 8bc2 4f3b 4466 1939 b243 573d
00000080: 2305 32bd fa24 7fbd 880e 1cbd a77d 8a3d
00000090: 7980 38bd a92a fabb 2487 1d3d dff2 a83c
000000a0: bd41 77bd 659a e83b f925 7abb 3655 433c
000000b0: 3142 66bb e58c 9f3c 41f0 063c 4181 0e3c
000000c0: cec3 f1bc 9f93 443b 7e2d 77bc 7681 f1bb
000000d0: 3f73 c33c 9829 8a3c 1a64 08bd 100f 023c
000000e0: 33a7 8dbd 500c 23bb 1cbd 66ba aa38 8cbd
000000f0: 7c44 1e3c 0e99 0cbb 030f b13b c403 a1bc
00000100: d961 2dbc 994f 01be b341 77bd 4fb4 133d
00000110: 70ec 0bbd d6cd 8abc eca3 cf3b 0eb4 12bc
00000120: 9225 1b3d 8070 ac3b 376a fdbc 3798 0cbd
00000130: 292a f4bb 28e8 eeba 285d d73c 6d2d 8dba
00000140: 6b9e cabc b27c 053b 1a0e 09bc 215b 233d
00000150: 09aa 03bd b159 583c c16b 99bb 5f36 73bd
00000160: c0ec 8abc fae9 08bc 1a3a 0c3b 6513 813d
00000170: bb50 ef3b 01c4 bd3c 69b5 d6bb e0a9 233a
00000180: c00a 9d3b 20fb 993c fa08 9bbb 4565 9f3d
00000190: 0271 4ebc bae1 21bd 7fae 543d 198d 903c
000001a0: 3b5b 953c 0d0d 00bd 2378 02bd 99a7 0dbc
000001b0: 48f5 bf3c 6041 b83c 5358 a9bc 04ca 77bd
000001c0: e716 18bc bc9e 973c 7cbd 73bc af17 df3c
000001d0: f46a a93c b545 38bd 4187 553b 9fe6 b73c
000001e0: f301 11bd 979b 6e3c 2c83 273b b9f1 853d
000001f0: 02ae 16bd c5bc bbbc 780b 6dbd 9cc2 2abc

gnn.gnn_node.batch_norms.0.running_mean f4 [128]
0.47643653 -0.30249366 -0.10648189 0.42503154 -0.09600524 0.08879354 0.39467752 0.54989505
0.8322628 -0.25425082 -0.3408533 -0.12785017 -0.34496543 -0.30822375 0.5083416 0.17542261
0.5166276 -0.3025649 0.08524299 0.32184377 -0.1711101 -0.22262298 0.080131695 -0.28559285
0.09246699 0.2376652 -0.046671845 -0.4809888 -0.28402793 -0.49452075 0.4837111 -0.13563444
0.49071962 -0.5600418 0.75614464 0.11259955 0.31576905 -0.20657572 -0.57825804 0.4345215
0.114889845 -0.0918552 0.14601862 0.15210244 -0.074326 0.04764788 -0.3161043 -0.5199257
0.07040551 -0.06689915 0.28567034 0.48171324 -0.25690654 -0.35751688 -0.1815309 -0.45846108
-0.10010604 -0.11265473 -0.5636876 0.13140042 -0.42287394 0.44227737 0.5140637 0.016039968
-0.25593308 0.21345127 0.10332314 -0.4325396 -0.1749919 -0.14144342 -0.6253821 0.54245955
0.030517543 0.43407556 -0.692425 0.40448418 0.18567716 -0.23716012 0.18086815 -0.24675702
-0.74723184 -0.6318296 -0.014682359 -0.012212424 0.046233915 0.3503026 0.5155351 -0.14005338
0.16949192 0.22565134 0.48651263 0.3692756 0.100629 -0.2317565 0.35695523 -0.21487226
-0.618223 -0.36483353 0.71154714 0.27589726 -0.25941113 -0.46882197 0.4314935 0.11592366
0.020798303 -0.19615093 0.07039724 0.17914486 -0.16540372 0.04497431 -0.19810617 0.31262663
-0.34950835 -0.097950384 -0.6733353 0.03653898 -0.16748728 0.27771538 0.6046411 -0.54798925
0.42932102 0.42539892 0.03318004 -0.1461067 -0.033368483 -0.21001583 0.5541659 -0.20016146
00000000: 7def f33e 73e0 9abe 2d13 dabd bc9d d93e
00000010: 659e c4bd 63d9 b53d 2c13 ca3e ecc5 0c3f
00000020: 2d0f 553f 2a2d 82be 5384 aebe 28eb 02be
00000030: 4f9f b0be 81cf 9dbe ad22 023f fca1 333e
00000040: b541 043f c9e9 9abe e093 ae3d b5c8 a43e
00000050: 7c37 2fbe 47f7 63be 161c a43d 3a39 92be
00000060: 555f bd3d 825e 733e fa2a 3fbd 2a44 f6be
00000070: 1c6c 91be d331 fdbe fba8 f73e c1e3 0abe
00000080: 9a3f fb3e e65e 0fbf b292 413f 989a e63d
00000090: 7bac a13e 9688 53be b808 14bf 9a79 de3e
000000a0: 5e4b eb3d 941e bcbd e885 153e bec0 1b3e
000000b0: 3b38 98bd 6c2a 433d 6cd8 a1be da19 05bf
000000c0: c430 903d 6c02 89bd 6243 923e 1ea3 f63e
000000d0: 4189 83be 740c b7be 3ce3 39be 69bb eabe
000000e0: 6504 cdbd 86b7 e6bd d54d 10bf d58d 063e
000000f0: ef82 d8be 2e72 e23e ae99 033f 4066 833c
00000100: a909 83be f892 5a3e 159b d33d d575 ddbe
00000110: 1431 33be 8bd6 10be 0b19 20bf a1de 0a3f
00000120: edff f93c 273f de3e c442 31bf 8d18 cf3e
00000130: 2722 3e3e 1ada 72be 8035 393e dfad 7cbe
00000140: 964a 3fbf 96bf 21bf 478e 70bc 9e16 48bc
00000150: c65f 3d3d dd5a b33e 1cfa 033f 276a 0fbe
00000160: 4a8f 2d3e 2511 673e 2f18 f93e b111 bd3e
00000170: 9416 ce3d 9351 6dbe d6c2 b63e 7907 5cbe
00000180: dd43 1ebf 76cb babe f427 363f 6842 8d3e
00000190: 89d1 84be 6f09 f0be b7ec dc3e 6269 ed3d
000001a0: 3461 aa3c cadb 48be 6e2c 903d c071 373e
000001b0: 985f 29be fb36 383d 58dc 4abe 9910 a03e
000001c0: c2f2 b2be 369a c8bd b45f 2cbf e6a9 153d
000001d0: c981 2bbe b630 8e3e c2c9 1a3f 0649 0cbf
000001e0: f7cf db3e e3cd d93e cbe7 073d ff9c 15be
000001f0: 64ad 08bd 640e 57be d1dd 0d3f 20f7 4cbe

gnn.gnn_node.batch_norms.0.running_var f4 [128]
25.625986 6.434334 5.0923657 14.559444 3.8925638 2.8006933 9.991263 24.297716
52.09809 4.6222506 10.565993 1.9504517 9.6774 13.529109 21.563438 5.1137767
15.168695 6.956434 0.92357194 9.353253 1.6307702 2.9691489 1.6383604 3.3574283
0.806273 4.0409627 0.445237 20.131674 5.257989 24.129778 19.698202 1.9927274
25.687212 24.931843 42.71759 2.1657367 12.629542 4.3511786 27.450243 14.436341
1.0381794 1.5603007 2.925312 2.1248226 0.3697323 0.60841954 8.276645 20.927378
1.3385333 0.43265948 3.7737079 21.394032 5.648177 10.467897 4.5012484 14.055699
1.1450529 0.60790527 28.890356 1.1309018 18.375183 14.527417 17.979733 2.9213197
3.285853 4.6781187 4.3167157 12.6055565 1.9912479 1.2061905 37.68548 18.084818
0.8057166 14.225863 37.735607 12.050456 2.1928654 3.3228793 2.2200847 4.347405
43.70499 29.120327 0.262255 0.75597435 1.7486556 9.809781 18.91585 1.9532807
2.3983648 3.2939198 15.408395 12.326885 0.8143099 4.7771606 6.5103593 4.336562
32.27119 10.140453 35.388206 5.0849905 5.538392 15.353241 12.774266 1.1924958
0.8720139 2.6376283 1.3986914 2.3590422 5.577313 0.71912783 7.157884 14.15143
10.534859 2.8657413 33.053833 1.1849686 2.9974918 13.1394615 28.203842 18.955149
16.92871 14.794289 0.32948703 1.7464863 0.045514073 5.697119 20.073301 3.7330866
00000000: 0502 cd41 10e6 cd40 a9f4 a240 7cf3 6841
00000010: c41f 7940 8f3e 3340 37dc 1f41 b961 c241
00000020: 7264 5042 7ae9 9340 4f0e 2941 67a8 f93f
00000030: a1d6 1a41 3b77 5841 ec81 ac41 0fa4 a340
00000040: fab2 7241 1b9b de40 366f 6c3f eda6 1541
00000050: 14bd d03f 8906 3e40 cbb5 d13f 1be0 5640
00000060: e867 4e3f 914f 8140 1bf6 e33e ab0d a141
00000070: 7241 a840 c909 c141 eb95 9d41 b111 ff3f
00000080: 697f cd41 6a74 c741 d0de 2a42 6e9b 0a40
00000090: 9b12 4a41 db3c 8b40 199a db41 41fb 6641
000000a0: 10e3 843f efb7 c73f 5038 3b40 18fd 0740
000000b0: 8d4d bd3e 62c1 1b3f 236d 0441 456b a741
000000c0: 0f55 ab3f 8b85 dd3e 6e84 7140 fa26 ab41
000000d0: debd b440 827c 2741 3a0a 9040 25e4 6041
000000e0: 1891 923f ae9f 1b3f 731f e741 64c1 903f
000000f0: 6000 9341 4d70 6841 7ed6 8f41 e7f6 3a40
00000100: 6a4b 5240 26b3 9540 8922 8a40 5cb0 4941
00000110: 36e1 fe3f 7364 9a3f eebd 1642 b5ad 9041
00000120: 7143 4e3f 239d 6341 43f1 1642 abce 4041
00000130: e857 0c40 0eaa 5440 de15 0e40 f11d 8b40
00000140: e9d1 2e42 6ef6 e841 4a46 863e 8987 413f
00000150: f2d3 df3f ddf4 1c41 a953 9741 1a05 fa3f
00000160: cf7e 1940 95cf 5240 c988 7641 ec3a 4541
00000170: 9d76 503f 80de 9840 dd54 d040 1ec5 8a40
00000180: b315 0142 4c3f 2241 868d 0d42 3eb8 a240
00000190: 823a b140 e0a6 7541 6563 4c41 b4a3 983f
000001a0: 4e3c 5f3f e7ce 2840 5208 b33f 8cfa 1640
000001b0: 5979 b240 c318 383f 630d e540 426c 6241
000001c0: c88e 2841 4e68 3740 2037 0442 0dad 973f
000001d0: e8d6 3f40 3c3b 5241 78a1 e141 25a4 9741
000001e0: 006e 8741 68b5 6c41 86b2 a83e dd8c df3f
000001f0: f76c 3a3d cd4e b640 1f96 a041 e4ea 6e40

gnn.gnn_node.batch_norms.1.weight f4 [128]
1.005965 0.997439 0.98060894 0.949725 0.9934953 0.9406106 0.9942326 1.0167563
0.9897033 1.0116957 1.0034143 1.001758 0.9966905 1.0029333 1.000687 0.9992904
0.99593365 0.9861763 0.9087522 0.99330336 0.9950687 0.9050403 0.9418835 1.0238365
0.9230649 1.0129585 0.99289095 0.9943824 0.9739288 1.0436157 1.0422294 0.99024546
1.0601065 0.8203282 0.9997117 1.0240663 1.0151999 0.9442461 0.9930067 0.9749598
0.9917783 0.98650974 0.9918515 0.960754 1.0002445 0.98352367 0.9811937 1.0079423
0.9842356 0.9980331 0.9195051 0.9937282 0.9747053 0.96809256 0.98956805 1.0330356
0.9623634 0.98725015 0.97740906 0.98975015 0.9063191 0.96170646 0.9414705 0.96829826
1.0116695 1.0300207 0.92020833 0.9839785 0.98174447 1.0160286 0.9923443 1.0139948
0.92869854 0.9903716 0.9893878 0.98706794 0.9742951 1.0048994 0.98391336 0.9516202
0.99348086 1.0362207 0.9610047 0.9680637 0.9775993 0.9498214 0.93929756 0.98035026
0.94615626 0.9632175 0.9874055 0.9957894 0.9577019 0.9620416 0.97079754 0.9921781
0.972748 0.9627518 0.9775725 1.0099716 1.0180149 1.0145215 0.9262665 0.97022027
0.99073195 0.98725283 0.9129821 0.9970614 1.0331781 0.9847018 0.9426992 0.98346776
1.0000743 0.9996201 0.9440799 0.99901 1.000328 0.9713755 0.9827075 1.008276
0.9788329 0.97586185 0.99852407 0.9547474 0.973717 0.98831904 0.99786997 0.98783976
00000000: 76c3 803f 2a58 7f3f 3009 7b3f 2d21 733f
00000010: b555 7e3f dbcb 703f 0786 7e3f 1225 823f
00000020: 325d 7d3f 3f7f 813f e16f 803f 9b39 803f
00000030: 1c27 7f3f 1e60 803f 8316 803f 7fd1 7f3f
00000040: 82f5 7e3f 0d76 7c3f fca3 683f 2149 7e3f
00000050: d3bc 7e3f b9b0 673f 471f 713f 130d 833f
00000060: fb4d 6c3f a0a8 813f 1a2e 7e3f d88f 7e3f
00000070: 6653 793f 3395 853f c667 853f ba80 7d3f
00000080: 92b1 873f 0701 523f 1bed 7f3f 9b14 833f
00000090: 12f2 813f 1dba 713f b035 7e3f f796 793f
000000a0: 2fe5 7d3f e78b 7c3f fbe9 7d3f f9f3 753f
000000b0: 0308 803f 35c8 7b3f 832f 7b3f 4104 813f
000000c0: ddf6 7b3f 197f 7f3f b064 6b3f f964 7e3f
000000d0: 4986 793f ead4 773f 5554 7d3f 833a 843f
000000e0: 735d 763f 6dbc 7c3f 7b37 7a3f 4460 7d3f
000000f0: 8704 683f 6532 763f 3604 713f 65e2 773f
00000100: 637e 813f b8d7 833f c692 6b3f 04e6 7b3f
00000110: 9b53 7b3f 3a0d 823f 470a 7e3f 95ca 813f
00000120: 30bf 6d3f fe88 7d3f 8548 7d3f 7cb0 7c3f
00000130: 676b 793f 8ba0 803f bfe1 7b3f 629d 733f
00000140: c354 7e3f e1a2 843f 6704 763f 06d3 773f
00000150: f343 7a3f 7f27 733f ce75 703f 3cf8 7a3f
00000160: 4c37 723f 6c95 763f 9bc6 7c3f 0eec 7e3f
00000170: f42b 753f 5c48 763f 3086 783f 62ff 7d3f
00000180: 0306 793f e776 763f 3142 7a3f c046 813f
00000190: 504e 823f d7db 813f cd1f 6d3f 5b60 783f
000001a0: 9ca0 7d3f 9abc 7c3f 32b9 693f 6a3f 7f3f
000001b0: 2e3f 843f 6b15 7c3f bc54 713f 8bc4 7b3f
000001c0: 6f02 803f 1ae7 7f3f 38af 713f 1fbf 7f3f
000001d0: bf0a 803f 11ac 783f b892 7b3f 300f 813f
000001e0: cb94 7a3f 15d2 793f 469f 7f3f 536a 743f
000001f0: 8445 793f 7a02 7d3f 6874 7f3f 11e3 7c3f

gnn.gnn_node.batch_norms.1.bias f4 [128]
-0.011584319 -0.007864784 -0.010353751 -0.0031147965 0.0020500827 -0.003691784 -0.0039330544 -0.01802225
0.059157163 -0.018538173 -0.010213413 -0.05444092 -0.075485095 0.03811144 -0.015360359 -0.024741348
0.0015698543 -0.0037744567 -0.0018027226 0.005872478 -0.045368925 0.00751145 0.047232226 0.031710792
-0.0072941626 -0.008650485 0.0687946 -0.031044347 0.061749995 -0.012761364 -0.016040951 -0.009256287
-0.0035163616 0.003339488 -0.026024997 0.0023348157 -0.006482142 -0.024551377 -0.048828043 0.008842543
-0.00032882017 0.030046683 0.0065104743 -0.06655311 0.013447045 -0.022725018 -0.004122352 -0.018941604
-0.01774873 -0.08180071 -0.01824453 -0.016955806 -0.018456131 -0.019700566 -0.0028786103 -0.019841762
-0.059251525 -0.05355301 -0.027959771 -0.025119383 0.05926961 -0.044451017 -0.011070965 0.008912044
-0.057616033 -0.02076291 -0.024052523 -0.0010721609 -0.019195177 -0.041432958 -0.01188025 -0.022246337
-0.0043671485 -0.0033418902 0.03752974 -0.010875615 -0.019055111 -0.008574362 -0.037080497 0.027808396
-0.042089842 -0.022184242 -0.012839546 -0.017980842 -0.023088405 -0.010609655 0.011050702 -0.008345672
0.06474007 -0.07276951 -0.013549974 -0.010435155 -0.00864157 -0.053761594 0.02207076 -0.04570257
0.059601896 0.047585372 0.029275645 -0.01667922 -0.018789848 -0.0062027564 -0.045083728 -0.022735305
0.0485792 0.06903912 -0.057927947 -0.0025325345 0.0022235548 -0.006512093 -0.018281015 -0.015378534
-0.026248313 -0.009446641 -0.014895135 -0.04750551 -0.038676664 -0.010147636 -0.009293512 -0.014258035
-0.0007495247 0.0036511575 0.051993158 0.020110093 -0.003804125 -0.006612438 -0.043151353 0.036004376
00000000: 28cc 3dbc 4cdb 00bc c7a2 29bc 9d21 4cbb
00000010: ae5a 063b dcf1 71bb dae0 80bb 66a3 93bc
00000020: c84e 723d 5edd 97bc 2956 27bc 71fd 5ebd
00000030: ee97 9abd be1a 1c3d 04aa 7bbc 5eae cabc
00000040: 92c3 cd3a e05c 77bb 5549 ecba ea6d c03b
00000050: c4d4 39bd 9c22 f63b 9476 413d 2de3 013d
00000060: df03 efbb c4ba 0dbc 2fe4 8c3d b750 febc
00000070: 90ed 7c3d 0a15 51bc 5068 83bc aea7 17bc
00000080: c272 66bb 50db 5a3b 6032 d5bc b503 193b
00000090: 2668 d4bb f81f c9bc eaff 47bd 50e0 103c
000000a0: 7f65 acb9 7624 f63c d155 d53b ff4c 88bd
000000b0: ff50 5c3c d129 babc cc14 87bb 6c2b 9bbc
000000c0: c965 91bc 2187 a7bd 8d75 95bc e7e6 8abc
000000d0: 5031 97bc 1563 a1bc 11a7 3cbb 318b a2bc
000000e0: bab1 72bd 675a 5bbd e40b e5bc 2ac7 cdbc
000000f0: b1c4 723d 4512 36bd fe62 35bc d203 123c
00000100: cafe 6bbd fa16 aabc cc09 c5bc c087 8cba
00000110: 343f 9dbc 9bb5 29bd 61a5 42bc f33d b6bc
00000120: 4c1a 8fbb 9d03 5bbb c9b8 193d a32f 32bc
00000130: 7719 9cbc 7b7b 0cbc b8e1 17bd 6fce e33c
00000140: 6666 2cbd babb b5bc f65c 52bc 8f4c 93bc
00000150: e523 bdbc 1ed4 2dbc 010e 353c 49bc 08bc
00000160: 7196 843d 2e08 95bd b600 5ebc 36f8 2abc
00000170: 5f95 0dbc 1e35 5cbd bdcd b43c 9e32 3bbd
00000180: 1e21 743d e1e8 423d 7ad3 ef3c dca2 88bc
00000190: 2bed 99bc 7e40 cbbb b7a9 38bd 643f babc
000001a0: fcfa 463d 6264 8d3d db45 6dbd e1f8 25bb
000001b0: 0fb9 113b 6563 d5bb 11c2 95bc 3ff6 7bbc
000001c0: b406 d7bc 16c6 1abc b90a 74bc 2395 42bd
000001d0: 6c6b 1ebd 4542 26bc d143 18bc 899a 69bc
000001e0: c07b 44ba 4248 6f3b c7f6 543d ecbd a43c
000001f0: a04e 79bb 26ad d8bb 79bf 30bd 5379 133d

gnn.gnn_node.batch_norms.1.running_mean f4 [128]
-0.12092307 0.13300622 0.010643789 0.1898034 0.15683477 0.058298934 -0.10431583 0.08558233
-0.1881862 -0.28828 -0.1738431 0.18100755 0.0996299 -0.05382687 -0.05968179 -0.106642246
0.13730177 -0.16465233 0.14965269 -0.07867542 0.1228845 0.3381457 0.14118734 -0.3022629
0.11912994 -0.19728824 -0.14442076 0.06424175 -0.04832801 -0.2553113 -0.21807116 -0.11303917
-0.36531454 0.13164882 0.104236715 -0.18431324 0.08356579 0.1637277 -0.14047311 -0.08245803
-0.064798705 -0.22897552 0.13066067 0.23161472 -0.08244496 -0.10294131 0.06570105 0.08547195
-0.16744143 0.1735752 -0.09303276 -0.0536704 -0.17741318 -0.17316888 -0.07890394 -0.3996715
-0.12752883 0.23558854 0.14762348 -0.07986523 0.05735478 -0.10395271 0.17965016 0.1201138
0.20826386 0.21501023 -0.21606705 -0.11721672 -0.13579851 0.21468423 -0.14029372 -0.37861446
0.3013119 -0.088445306 -0.20258078 -0.23273301 0.12475391 -0.34826553 -0.34233174 0.11438418
-0.07382105 0.17650807 -0.2105756 -0.17745799 -0.08963264 0.12713248 0.08841094 0.04937933
-0.2583387 0.17926249 -0.08523323 -0.053548697 -0.13073808 -0.13905095 0.15012115 -0.059296105
-0.18479532 -0.30192745 0.19910592 -0.2946387 -0.29632768 0.25202093 0.14647032 -0.112500675
0.13817924 -0.16764802 0.080938295 0.16510601 -0.09188105 0.06968597 0.059104037 -0.03623768
-0.23305391 -0.0802586 0.08231718 0.23015922 -0.34285524 -0.18814032 0.09975379 -0.036922928
0.008766644 0.21153922 -0.10204375 -0.045921084 0.091863185 -0.09741327 -0.12961878 -0.1040867
00000000: 84a6 f7bd c832 083e 4963 2e3c d35b 423e
00000010: 4b99 203e ddca 6e3d 8aa3 d5bd ca45 af3d
00000020: e2b3 40be 7099 93be ed03 32be 0b5a 393e
00000030: c30a cc3d 9079 5cbd e574 74bd 4067 dabd
00000040: d698 0c3e 9f9a 28be 8e3e 193e 9420 a1bd
00000050: deaa fb3d 6f21 ad3e 6a93 103e 34c2 9abe
00000060: 66fa f33d ee05 4abe 09e3 13be 2e91 833d
00000070: 97f3 45bd 2ab8 82be 0c4e 5fbe 1581 e7bd
00000080: 820a bbbe f3ce 063e 0f7a d53d 9cbc 3cbe
00000090: 8a24 ab3d 3ca8 273e 2fd8 0fbe c1df a8bd
000000a0: 2fb5 84bd 8f78 6abe e9cb 053e 692c 6d3e
000000b0: e7d8 a8bd e5d2 d2bd 468e 863d eb0b af3d
000000c0: c475 2bbe b2bd 313e f687 bebd 7ed5 5bbd
000000d0: cdab 35be 2f53 31be 6498 a1bd bea1 ccbe
000000e0: eb96 02be 1f3e 713e 9c2a 173e 6290 a3bd
000000f0: d9ec 6a3d 29e5 d4bd 36f6 373e 39fe f53d
00000100: 1f43 553e a42b 5c3e ae40 5dbe 520f f0bd
00000110: c40e 0bbe 2fd6 5b3e 28a9 0fbe c1d9 c1be
00000120: 8e45 9a3e d022 b5bd 5671 4fbe 9051 6ebe
00000130: fa7e ff3d dc4f b2be 1b46 afbe 4142 ea3d
00000140: 7e2f 97bd 88be 343e 21a1 57be 8cb7 35be
00000150: 5191 b7bd 042f 023e cb10 b53d fb41 4a3d
00000160: f844 84be 9690 373e c28e aebd e155 5bbd
00000170: 34e0 05be 5f63 0ebe 5cb9 193e 79e0 72bd
00000180: fc3a 3dbe 3c96 9abe 6ce2 4b3e e2da 96be
00000190: 43b8 97be e308 813e 51fc 153e c166 e6bd
000001a0: dc7e 0d3e ecab 2bbe fac2 a53d 8d11 293e
000001b0: 222c bcbd 85b7 8e3d 1317 723d f66d 14bd
000001c0: afa5 6ebe 9f5e a4bd e995 a83d dcae 6b3e
000001d0: b98a afbe dba7 40be b74b cc3d 7f3c 17bd
000001e0: f8a1 0f3c bd9d 583e 50fc d0bd bf17 3cbd
000001f0: c422 bc3d 9c80 c7bd c9ba 04be 682b d5bd

gnn.gnn_node.batch_norms.1.running_var f4 [128]
2.1707642 2.3067954 0.24632809 4.37997 5.014423 0.6969635 1.3086057 1.5995051
3.523486 5.1769075 5.4585977 4.9876537 1.7028081 0.42946306 0.74408394 0.7703732
4.9042664 2.9629803 3.179803 0.68398243 1.210603 11.272771 1.4870234 6.2098284
1.238088 2.76932 0.98278004 0.9056018 0.44199312 7.589023 3.807146 1.8559163
7.401531 4.4169855 2.2197025 4.057577 0.5070015 3.5292635 1.186308 0.69839203
0.45698452 4.052279 2.9312692 3.656679 2.3099115 1.6234299 0.353382 1.4641552
1.8398361 4.04406 1.3158236 0.2540363 4.082142 4.548696 1.0918429 10.400876
1.3863094 6.4040694 2.769626 0.3827943 0.30658874 1.0920178 4.370842 2.113996
5.0872574 8.585562 5.2776446 1.4661651 1.2232828 7.1207805 1.541263 10.000537
12.433905 0.5242392 5.023253 4.107752 1.205629 5.997849 6.262789 1.3252325
0.5566284 3.2016137 3.888905 2.2044578 0.69170034 2.1862278 0.526196 2.6414618
5.70029 3.5946276 1.0543705 0.14823149 4.542655 1.5843066 1.785999 0.14831519
3.3277106 6.769954 4.6539187 7.823453 6.1992917 5.436039 4.292627 1.459246
2.8422174 2.690242 0.9921074 2.7168794 0.8043724 0.48644865 0.6654349 0.537757
3.541519 1.0826912 0.7990963 7.0214443 4.5098705 2.752031 0.82960105 0.23154172
1.5697432 6.2011795 1.0233579 1.4921817 0.7429928 0.9797755 1.3213952 1.2710063
00000000: cded 0a40 89a2 1340 6e3d 7c3e b728 8c40
00000010: 2776 a040 336c 323f 6480 a73f 95bc cc3f
00000020: cb80 6140 3aa9 a540 d5ac ae40 dc9a 9f40
00000030: 9ef5 d93f 95e2 db3e 497c 3e3f 2e37 453f
00000040: c0ef 9c40 78a1 3d40 e481 4b40 7919 2f3f
00000050: 0af5 9a3f 455d 3441 c856 be3f eab6 c640
00000060: ab79 9e3f 8a3c 3140 7997 7b3f 85d5 673f
00000070: ec4c e23e 47d9 f240 48a8 7340 aa8e ed3f
00000080: 58d9 ec40 f257 8d40 9b0f 0e40 acd7 8140
00000090: daca 013f 74df 6140 f1d8 973f d2c9 323f
000000a0: e0f9 e93e 45ac 8140 ea99 3b40 0707 6a40
000000b0: 97d5 1340 8dcc cf3f 7cee b43e 7069 bb3f
000000c0: c07f eb3f f168 8140 e86c a83f 0c11 823e
000000d0: e8a0 8240 eb8e 9140 82c1 8b3f fd69 2641
000000e0: 9672 b13f 23ee cc40 8d41 3140 9dfd c33e
000000f0: 33f9 9c3e 3dc7 8b3f f0dd 8b40 b64b 0740
00000100: d0ca a240 765e 0941 77e2 a840 4cab bb3f
00000110: 8894 9c3f 6fdd e340 1b48 c53f 3302 2041
00000120: 46f1 4641 8a34 063f 7dbe a040 b472 8340
00000130: 0d52 9a3f 61ee bf40 c468 c840 38a1 a93f
00000140: 337f 0e3f 3de7 4c40 d2e3 7840 d615 0d40
00000150: 4613 313f 28eb 0b40 c8b4 063f b60d 2940
00000160: c768 b640 610e 6640 9df5 863f ffc9 173e
00000170: 6e5d 9140 8fca ca3f 9d9b e43f f0df 173e
00000180: 36f9 5440 77a3 d840 e7ec 9440 ba59 fa40
00000190: 9960 c640 08f4 ad40 335d 8940 93c8 ba3f
000001a0: e4e6 3540 ed2c 2c40 c0fa 7d3f 5ae1 2d40
000001b0: 59eb 4d3f cc0f f93e f159 2a3f 71aa 093f
000001c0: 3fa8 6240 a095 8a3f 9391 4c3f acaf e040
000001d0: dc50 9040 4721 3040 bc60 543f 4619 6d3e
000001e0: 58ed c83f 1070 c640 64fd 823f cfff be3f
000001f0: c734 3e3f 91d2 7a3f 7a23 a93f 56b0 a23f

synth_conv1.conv1d.weight f4 [1, 1, 6]
-0.51531243 -0.4483044 0.38502008 -0.37939253 -0.16790079 0.12083532
00000000: 84eb 03bf 2888 e5be 5a21 c53e bd3f c2be
00000010: 2fee 2bbe 8278 f73d

synth_conv2.conv1d.weight f4 [1, 1, 9]
-0.37282118 -0.29958758 -0.11068451 -0.36646333 -0.16665381 0.19557877 -0.44226304 -0.6391342
0.46071586
00000000: 6be2 bebe 8b63 99be 8fae e2bd 15a1 bbbe
00000010: 4ca7 2abe cd45 483e 4d70 e2be 4d9e 23bf
00000020: f3e2 eb3e

synth_conv3.conv1d.weight f4 [1, 1, 12]
0.52606815 0.11164058 -0.5666543 0.5499829 0.34971893 0.11367195 0.24465416 0.5033866
0.008504014 0.24946009 0.41083947 -0.46599764
00000000: 67ac 063f d1a3 e43d 4210 11bf aecb 0c3f
00000010: 5c0e b33e d7cc e83d 9f86 7a3e f2dd 003f
00000020: 6c54 0b3c 7772 7f3e 8d59 d23e 3e97 eebe
