GCN/results250/gcn-epoch-8-val_loss-1.122.pt (torch, 104335 bytes, 23 tensors)

node_encoder.node_type_embedding.weight f4 [3, 3]
00000000: 4e85 3abe ff5b 3c3e 4a9a 9cbe c701 6a3f
00000010: d275 523f 5a20 923c 5d3e 363d 13df 89be
00000020: 4fcf 42bf
-0.18214914 0.18394469 -0.30586463 0.9140896 0.8221103 0.017837692 0.044493068 -0.26928005
-0.7609758

synth_encoder.synth_emb.weight f4 [7, 3]
00000000: ab5a 333f 775b 49bc 222d 7d3e 9ba5 06bf
00000010: 8f1f 6cbe 7071 12be 3922 b73e 2cae 7fbf
00000020: bc83 0b3f 8182 8dbf 5ea3 9fbf 813d 053f
00000030: e1c7 3abc 3e48 823e c264 5dbf bb26 493f
00000040: 9e29 723e e64a 42bf 6291 8a3f e4f7 123e
00000050: dda8 41be
0.70060223 -0.012289873 0.24724248 -0.52596444 -0.23058914 -0.14301085 0.35768297 -0.9987514
0.54497886 -1.1055452 -1.2471731 0.5204697 -0.011400194 0.2544574 -0.8648187 0.78574723
0.23648688 -0.75895536 1.0825617 0.14352375 -0.18912072

gnn.gnn_node.node_encoder.node_type_embedding.weight f4 [3, 3]
00000000: 4e85 3abe ff5b 3c3e 4a9a 9cbe c701 6a3f
00000010: d275 523f 5a20 923c 5d3e 363d 13df 89be
00000020: 4fcf 42bf
-0.18214914 0.18394469 -0.30586463 0.9140896 0.8221103 0.017837692 0.044493068 -0.26928005
-0.7609758

gnn.gnn_node.convs.0.linear.weight f4 [128, 4]
00000000: 33d3 59be 7472 a5be 7083 1dbe 175f 75be
00000010: 0a30 0f3e 97ec 63bd a8f2 cabe 3bfa e7be
00000020: 3a2f 033e ef6d d53e 0f21 4d3e 170e af3e
00000030: 481b 70be f3e3 c7bd 2229 e0be c2ed e43d
00000040: d21d dbbd 89a2 bebe ad4f e53e 2d6c c93e
00000050: cb7e 6ebd b672 d8be 8c19 a83e 28db b0be
00000060: 9bb3 3bbe 2a24 813e 2ffd 83be 3095 063f
00000070: 6358 eabe 9d33 4f3e 3152 e2be e5bb c73d
00000080: b59b 8b3e abdb 4a3d 68ea f8be cc18 813e
00000090: 4e7d fc3d 2581 8bbe c9b3 4a3e 52d4 debe
000000a0: 0338 07bf c7ce b53e 98dc 633e 29c6 35be
000000b0: dd53 cabe 9af8 46be ecce d8be 38c0 f0be
000000c0: 6e73 313d 3139 0dbd 17b4 83be 07bf d5bc
000000d0: a23c a53e 9d45 933d b822 fe3e 9a1d 5b3e
000000e0: 9574 4cbe 3b54 4fbe 6d14 74be 15e2 8d3c
000000f0: cc89 c83d af66 753e 826b ccbe 5f60 9ebe
00000100: cf27 e63e 7cfb 5a3e a319 223e fba8 b83e
00000110: caa5 28be 87b3 4b3e 293c ab3a c5a7 e8be
00000120: d925 01bf 8b94 cf3e d98f 2f3e cb22 2abe
00000130: e34e c03e 385f 073e b9fd 523e 8680 8ebe
00000140: f815 80be dabf 0dbf 1d62 81be f349 aabe
00000150: bd37 01bf 360a a1be e2ae 1a3e cf0f dcbe
00000160: d38e d93d aae2 923e 5ccb bf3e c29d a53e
00000170: 8ddb 16bf 0f8a f9be 6cec 07bf 87f7 85be
00000180: 67b3 a03e 4f01 6cbe a12d d93d e60a debc
00000190: 2e3c 343c f8d1 ed3e 77ad e2be 06da 6fbd
000001a0: 0313 06bf 670a c93e 8351 ba3e c018 51be
000001b0: 3e06 89bc 062a b93e c470 013f ae70 f9be
000001c0: f9cd b4be 9839 02bf 9c20 f43e 1fb4 d2be
000001d0: 2d0f d93e e83d 053f ce83 3e3c a7f5 1abe
000001e0: 5c02 ed3d 78d5 15bf 8b0a efbe 0343 ad3e
000001f0: 0111 abbc d69c 3c3e b052 c03e 549e a0be
00000200: 8b52 f13d c374 dbbd f806 9abe 56ad 89be
00000210: eba7 d5be 6d00 663e 1ed3 d43e 0033 adbe
00000220: bf29 1d3f 77ef 8bbd 0d3d fabe 02a6 363e
00000230: 7e13 bcbe 0f31 4cbe 9310 153f aee1 a83e
00000240: 5871 4b3e 88f1 1bbd 45b1 8fbe 8560 a2be
00000250: 6771 c93e 1a2d 703e 2901 b73e 0ca9 bbbe
00000260: 09e2 02be a0e4 633e 813a 5a3d 90db 85be
00000270: 095a 83be cdb7 0cbd 73da debe 64f6 bb3e
00000280: af1c b73d 0545 62be a9b7 ea3e ce11 b8bd
00000290: 9c3f bc3d f341 ea3d ac9d 043f 62ab 7bbc
000002a0: bf1f 82be a027 d4be c5ab 4abe 068a f13e
000002b0: af87 ae3e 929d b1be 1c68 c6be 4b12 423e
000002c0: 99ac 83be 2686 1c3a 0087 90be 42b5 56be
000002d0: 4546 693e 3411 18be d963 12bf 1bcf 8dbd
000002e0: 9e86 5bbd 5ead 043d 56ed 343c e2a3 0abe
000002f0: 1b92 5fbe 94e1 b73e ee30 283d 8149 dcbe
00000300: 12e4 bdbe 8d35 073e 5bef a3be c70a 42be
00000310: 2dcc 22bd ff08 c93e b9d9 94be afd7 05be
00000320: 708a 963e 063b b63e 4bf7 793d 3882 a33e
00000330: c10f 15be 22b6 01bf 31ac ffbe 8bad 1a3e
00000340: 26a8 013d 4878 d33e 1cea 26bd 5e19 e2be
00000350: 1ca0 963d aabc 963e fe8d d63d a703 05bf
00000360: 74a7 d13d 5d77 ea3e 1391 64be 3955 ac3d
00000370: c1e0 cabd 5f65 01bf 09db 953e e58a 92be
00000380: b12b 953d e477 043e 71be 60be a579 8e3d
00000390: 7118 fbbe 1c8d acbe d694 a63e 9aad 3ebe
000003a0: 51fc 8abd 8495 0a3e 4a69 613e 930d a0bd
000003b0: 62e0 ee3d 015f a13e e942 10be ec80 26bd
000003c0: 605d 9abe 94cd ac3e 1736 e53d a842 9f3d
000003d0: ccfc febe f1ba 243e ccb7 e9be 2829 e93e
000003e0: f9d7 dd3d e159 913e f569 11bf 4576 bb3e
000003f0: 7a48 8bbe 55dc 28bc cc3f 62be 48c1 f1be
-0.21271972 -0.32313883 -0.1538217 -0.23962055 0.13983169 -0.05564555 -0.39638257 -0.45308098
0.12810984 0.41685435 0.20032142 0.34190437 -0.23447907 -0.09760275 -0.43781382 0.11178161
-0.10699047 -0.3723338 0.4478735 0.39340344 -0.058226388 -0.42275017 0.3283199 -0.34542203
-0.18330233 0.25222903 -0.257791 0.5257139 -0.4577056 0.20234533 -0.44203332 0.09752635
0.27267233 0.049525898 -0.48616338 0.2521423 0.123285875 -0.27246967 0.19795145 -0.43521363
-0.5281984 0.3550932 0.22252119 -0.17751373 -0.39517108 -0.19430771 -0.4234537 -0.4702165
0.043322973 -0.03447837 -0.25723335 -0.026092065 0.32272822 0.07191012 0.49635863 0.21398011
-0.19966348 -0.20246975 -0.23835917 0.017319718 0.09791908 0.23964952 -0.39925772 -0.309329
0.44952247 0.21384996 0.15830092 0.36066422 -0.16469494 0.19892703 0.0013064194 -0.45440498
-0.50448376 0.40543017 0.17144717 -0.16614835 0.37560186 0.13219917 0.206046 -0.2783243
-0.2501676 -0.5537087 -0.25270167 -0.33259544 -0.50475675 -0.31453103 0.15105775 -0.4298081
0.10622945 0.28688556 0.37459838 0.32346922 -0.5892876 -0.48738143 -0.53095126 -0.2616541
0.31386873 -0.23047374 0.10604406 -0.027104806 0.011000676 0.46449256 -0.44272968 -0.058557533
-0.5237276 0.3926575 0.36390314 -0.20419598 -0.01672661 0.36164874 0.5056269 -0.4871878
-0.35313395 -0.5086913 0.4768113 -0.41153046 0.4239439 0.52047586 0.011628104 -0.15132771
0.11572716 -0.5852885 -0.4668773 0.33840188 -0.020882132 0.18419203 0.37563086 -0.31370795
0.11783322 -0.1071563 -0.30083442 -0.26890057 -0.41729674 0.224611 0.4156732 -0.33827972
0.61391824 -0.06832784 -0.48874703 0.17836764 -0.3673362 -0.1994059 0.58228415 0.3298468
0.19867456 -0.03807214 -0.28064933 -0.31714264 0.39344332 0.23454705 0.35743073 -0.3665241
-0.12781538 0.22255182 0.05327845 -0.26144075 -0.2565463 -0.034354974 -0.4352604 0.3671142
0.08941018 -0.22096641 0.45843247 -0.08987771 0.0919182 0.1143836 0.5180309 -0.015360685
-0.25414845 -0.4143648 -0.19792087 0.47175616 0.34087893 -0.3469053 -0.38751304 0.1895229
-0.2571762 0.00059709174 -0.28227997 -0.20967582 0.22780712 -0.14850312 -0.57183605 -0.06924268
-0.053595178 0.0323919 0.011042913 -0.13539079 -0.21833079 0.3591429 0.041062288 -0.4302483
-0.37088066 0.13204022 -0.3201855 -0.18949424 -0.0397455 0.39264676 -0.2907236 -0.13070558
0.29402494 0.35591906 0.061026853 0.31935287 -0.14556791 -0.5066854 -0.4993606 0.15105264
0.0316545 0.41302705 -0.040750608 -0.4415998 0.07354757 0.29440814 0.104763016 -0.519587
0.10237017 0.45794192 -0.22320966 0.084146924 -0.0990615 -0.50545305 0.29268673 -0.28621593
0.07283724 0.1293636 -0.21947648 0.069567956 -0.49042085 -0.33701408 0.32535428 -0.18620911
-0.06786407 0.13533598 0.22012821 -0.07815089 0.116638914 0.31517795 -0.14088024 -0.040650293
-0.30149364 0.33750594 0.111919574 0.077763855 -0.49802244 0.16086937 -0.45648038 0.45539212
0.10832209 0.28388885 -0.568023 0.3661367 -0.27203733 -0.0103064375 -0.22094649 -0.47217774

gnn.gnn_node.convs.0.linear.bias f4 [128]
00000000: 118c cd3e 8f6c 773d 8410 d4be 43ab 7a3e
00000010: 7d8f efbe 1691 d43e 43c8 4c3d bc57 013f
00000020: c219 203f 7208 313e 945f a4bd d9a4 ca3c
00000030: df44 0cbf a603 eebe 41ac 0d3f c49e be3e
00000040: 50e2 113f 1b70 5e3d 2190 013f ac99 4f3e
00000050: a50d 093b 1849 563e 6b04 65be b507 c5be
00000060: 17e1 123e 95bf d63d d3c3 af3e 0cc7 0c3e
00000070: b16d ba3e baeb e8be 1e7a c2bd 12d3 8a3e
00000080: aa77 cc3e 4da5 b6bd 27d4 183f d36d 6fbe
00000090: ccd3 cb3e 58d4 473e 1fbf d0be 0e27 82bc
000000a0: 90e9 2c3e d761 bc3d 6037 b9be 4608 76be
000000b0: c79d 62bd d9e4 9abe 7cd0 8ebe 26cb 49be
000000c0: 163a 4d3d 7e76 1cbe 566e b93e 2217 1e3e
000000d0: afc1 f73c 5dd9 18ba 15e1 fdbe cbe8 3ebe
000000e0: e159 96be 191b 123e 2818 01bf 3bbf 533e
000000f0: 1682 09bf f632 b9bd f1f5 d93d 6220 b13e
00000100: 1a54 42be 5d97 a13e cbda de3e 854b 3ebe
00000110: 5c29 0dbd 8ab9 efbc 0736 9dbe e0f2 1d3f
00000120: 8dca f7be b88f e33e c97b 84be a500 b73d
00000130: 0889 dc3d 1fc1 393e aa86 873d 53c6 4abd
00000140: 63ab e7be de4b e1be b53f 67be 3cd2 023e
00000150: 1e78 ac3e f306 1a3f 0653 883e 007b bc3d
00000160: d9ee a33d f03e b93e e8e8 a83e 023f 543d
00000170: fb5f f8bd 65a0 ddbb 2e85 de3e 640a f43e
00000180: 4552 e9be 496f e1be 9204 f93e 59f5 953e
00000190: 25e8 47be 3d69 32be 2584 a63d e033 86be
000001a0: 3ba7 e4be 5bed 97bd 19ad 303e 0876 38be
000001b0: 9187 d5be 9e5f d2be fc18 bfbe 1b49 053f
000001c0: 893f d9be c599 8fbe abdd ffbe 5c58 40be
000001d0: e14f 37bb 428a ed3e 35fb f73e 4f4b dbbe
000001e0: 0bb6 fa3e 54f2 7e3d f021 1ebe 133e a6bd
000001f0: bb0a 59be e312 203c cab3 df3e 90a9 adbe
0.40145925 0.060406264 -0.4141885 0.24479394 -0.4678916 0.41516942 0.049995672 0.505245
0.62539303 0.17288378 -0.080260426 0.024736809 -0.5479259 -0.4648716 0.55340964 0.37230504
0.5698595 0.05430613 0.5061055 0.20273465 0.0020912674 0.2092632 -0.22364967 -0.38482442
0.14343677 0.1048576 0.3432909 0.13747805 0.36411813 -0.45492345 -0.09495948 0.2711416
0.39935046 -0.08918247 0.5969872 -0.23381738 0.39810026 0.19514596 -0.40770814 -0.015887763
0.16885972 0.09198349 -0.3617506 -0.24026594 -0.05532625 -0.30252722 -0.27893436 -0.19706401
0.050104223 -0.15279576 0.36216992 0.15438512 0.030243723 -0.00058307295 -0.49585786 -0.18643491
-0.29365447 0.1426815 -0.50427485 0.20678417 -0.5371412 -0.09042923 0.10642613 0.3459502
-0.18977395 0.31560794 0.435263 -0.18583496 -0.03446327 -0.029263277 -0.30705282 0.6169872
-0.4839672 0.44445586 -0.2587569 0.0893567 0.10768324 0.18140076 0.06617482 -0.049505543
-0.45247945 -0.44003195 -0.22582896 0.1277551 0.33685392 0.60166854 0.26625842 0.09203148
0.08004541 0.3618083 0.32990193 0.0518179 -0.12127682 -0.0067635053 0.43460983 0.47664177
-0.4557058 -0.44030216 0.486363 0.29288748 -0.1952215 -0.17422958 0.08130673 -0.26211452
-0.44658837 -0.07418319 0.17253532 -0.18013775 -0.4170499 -0.41088575 -0.3732375 0.52064675
-0.42431286 -0.28047004 -0.49973807 -0.18783706 -0.0027971196 0.46394545 0.48433843 -0.42830893
0.48967013 0.06224282 -0.15442634 -0.081173085 -0.211955 0.009770128 0.43691856 -0.33918428

gnn.gnn_node.convs.1.linear.weight f4 [128, 128]
00000000: 8121 213c ce36 20bd 6e85 28bd 8df5 bdba
00000010: 81ec b3bd c66f 263c ebf5 c1bd 9c63 19bd
00000020: 45de 14be 4c18 923d 54e4 963c c311 b53c
00000030: a6a1 b5bc 11fb 79bc d689 a7bd f98a 233d
00000040: 4da3 cebd e3c5 63bd 84c9 103d 1608 443d
00000050: 2cef 66bd c771 1f3d 8a1c dcba 4b41 a3bd
00000060: 7ffd 64bd 7c38 ffbd c5de 2cbc 357b 34bd
00000070: abdf 943d be58 8cbc 96bc 2dbc 36d7 443d
00000080: 04ba 4fbd e836 963d 37e1 ebbd e98f 0dbd
00000090: bbfc 8e3d 76c7 19bd 1e70 eebc 0b99 74bd
000000a0: d73a ac3c ccc3 c4bd aec8 82bd 6ed0 f53c
000000b0: d558 1fbd a21c 01be 1b5c 91bd 2090 07bd
000000c0: 0b84 293c 3ca1 9bbc c292 1c3c 97ed d03c
000000d0: c659 143d 3fcf 64bd d85d 9f3c 5a37 e43c
000000e0: bb89 abbd e3ae 73bd 428a ed3b 65d4 963c
000000f0: ff7d 243d 5cee d8bc 6ec1 2ebd 73f1 4cbd
00000100: a4b8 353d 763d 523d 38f6 293c f7d4 d03b
00000110: 357f c33c 5fa0 3b3b 5d6f 27bd 3115 b3bd
00000120: 66c6 ee3c e725 babc 3c17 d1bd 24e1 07be
00000130: 4e17 7cbd 0668 963d a34e 41bd 3456 973c
00000140: 2e0c c8bd 1fe0 f5bd c9b6 bdbc 568a 20bc
00000150: f0f3 8ebd 67c5 a4bd 1c52 43bd b64c 24bd
00000160: 3988 ea3c b010 ef3c 60da 81bc 8922 bcbd
00000170: a7ab 0abe 2360 aabd c748 09bd 57af 58bd
00000180: 3f4c 513d 7101 c7bd 2429 0dbe 6fcb 77bd
00000190: 922a 543d 72ed 11bc b447 18bd 4da3 26bd
000001a0: 967c 6dbb 03fd 9abc 11f3 87bd 10bb e7bd
000001b0: d671 853d 73da c9bc cf39 8dbb 5b00 823d
000001c0: 5109 5dbd a7fa a1bd 1042 853d 0d17 2cbd
000001d0: e679 cebd 19b1 833d 6948 c0bd 0e10 543c
000001e0: 66b3 253b 7a0d ef3b 20be 2f3d 9f11 bcbd
000001f0: 77a4 97bd b8ba 813d 9750 bbbd 5a39 afbd
00000200: 474a a63c 686f 8b3d 10d1 a7bc a124 d6bd
00000210: 929d 813c 9e49 c4bd e1dc c93b 4582 8cbd
00000220: abc5 d9bc a528 94bd 95f2 8a3d 2d5b 81bd
00000230: bde8 ab3d ecb5 a8bd a93f 113d 6405 50bd
00000240: 6725 ea3c bdbd 9dbc de49 e5bd c673 c8bd
00000250: b839 28bd 8896 9dbd ee5d d23c 553a 363d
00000260: 0f62 d1bc a679 8ebc 1297 da3d 1b38 82bc
00000270: c0ab 8ebd d095 20bd 1cd1 08bc c212 c43d
00000280: e997 2cbb 53d1 403d 640a 89bd 4463 01bc
00000290: 7046 203d 8e40 b23d e19d 9c3c 759e dfbd
000002a0: 48c3 00be 6702 06bc dc2b 8fbd 7077 afbc
000002b0: 61af 043d b2ea e7bd aeff 413c 4a73 52bc
000002c0: 3c51 09bc 209d 003d ef3f aebd a52b ce3b
000002d0: 85ee a43d 8e19 7f3d 7915 5bbc 79c0 a83d
000002e0: faaf 11be ffee 763b e913 193d deb1 54bd
000002f0: 2a24 013d 9020 88bc 768f 89bc b2fc a33c
00000300: 961d 353d 0249 373d fbb4 8b3d 3606 b9bc
00000310: b81d 183d 5dfa 1f3c f40f f2bb 7373 9abd
00000320: 3c1c 953d c8be d6bc 3640 a2bc fcc9 e4bc
00000330: f1a4 bfbd 7b22 89bd 40b3 0ebe 1a64 abbc
00000340: 8016 6fbd 0bc9 9e3d e3dc b5bb 6cb5 513d
00000350: 354d 203a 67a3 d23c 37b7 e4bd 9ec5 aa39
00000360: a22c 8d3c 43d6 d2bd d6b6 afbd 1360 b73b
00000370: 9e14 2c3c c2f3 9bbc cbc1 85bd 5e1a b13c
00000380: b62f 4b3d a958 67bd 41f5 00be f5a0 c8bd
00000390: c52c ee3c 88d7 063a 3de4 7d3a 204a 413c
000003a0: 2929 ae3c c2c3 32bd fa98 c7bd f97f e6bd
000003b0: 92d9 33bc 9fc3 b8bd 0517 bcbc c9b7 07bc
000003c0: d8ff ad3c f010 91bd 1e7e a6bd 8f73 00be
000003d0: cc64 8d3d 066b 5a3d 1c2b f9bc 89f6 d3bb
000003e0: 8ded 71bd 6901 99bd 6733 13be 8f46 ca3d
000003f0: 39e6 5fbd c79d 283d f965 f5bd ca41 cbbc
0.009834648 -0.039114766 -0.041142873 -0.0014492735 -0.08785344 0.010158485 -0.09470733 -0.03744851
-0.14537914 0.071335405 0.018419422 0.022103196 -0.022171807 -0.015257613 -0.08180587 0.039927457
-0.10089741 -0.05560864 0.03534843 0.047859274 -0.056380436 0.038926866 -0.0016793173 -0.07971438
-0.055905815 -0.124619454 -0.010551159 -0.044062812 0.07269224 -0.01713216 -0.010604044 0.048056804
-0.050714508 0.07334691 -0.11517566 -0.03456107 0.06981798 -0.037543736 -0.029106196 -0.059716266
0.02102415 -0.09607658 -0.06385933 0.030006614 -0.038903076 -0.12608579 -0.07097646 -0.033096433
0.010346423 -0.018997781 0.009556474 0.025503917 0.036218427 -0.055861708 0.019453928 0.027858425
-0.083758794 -0.059492957 0.0072491476 0.018411824 0.04015922 -0.026480846 -0.042664938 -0.05003495
0.04436554 0.051328145 0.0103736445 0.0063730436 0.023864368 0.0028629524 -0.04087769 -0.08744276
0.029147338 -0.022723151 -0.1020951 -0.13269478 -0.061545663 0.0734406 -0.047194134 0.018473722
-0.09767948 -0.12005638 -0.023158448 -0.009798607 -0.06980121 -0.08045464 -0.047685727 -0.04011222
0.02862941 0.029182762 -0.0158512 -0.091862746 -0.13542043 -0.08319118 -0.03351667 -0.052901592
0.051098105 -0.09717072 -0.13785225 -0.060496744 0.05179841 -0.008906709 -0.037177756 -0.04068308
-0.003623759 -0.018919474 -0.06638158 -0.11314976 0.06515853 -0.024640298 -0.00430987 0.06347724
-0.053963963 -0.07909136 0.06506741 -0.04201417 -0.10081844 0.06430263 -0.09388811 0.012943281
0.0025283932 0.0072953077 0.042905927 -0.091830485 -0.07404416 0.06334442 -0.09146231 -0.08555861
0.02029909 0.068083584 -0.020485431 -0.10456205 0.015822206 -0.09584354 0.006160364 -0.068607844
-0.026583513 -0.07234315 0.0678455 -0.063162185 0.08394001 -0.08237824 0.0354611 -0.05078639
0.028582288 -0.019255513 -0.1119573 -0.09787707 -0.04107067 -0.07694727 0.025679555 0.044489224
-0.025559453 -0.01739199 0.106733456 -0.015895894 -0.069663525 -0.039205372 -0.008350637 0.0957389
-0.0026335663 0.047074627 -0.06691435 -0.007897202 0.039129674 0.08703719 0.019118251 -0.10918895
-0.12574494 -0.008179284 -0.069907874 -0.021419257 0.032393817 -0.113240615 0.011840744 -0.01284487
-0.008381184 0.031399846 -0.08508288 0.006291824 0.080533065 0.06228023 -0.013371819 0.08239836
-0.14227286 0.0037679074 0.037372503 -0.05192744 0.03152863 -0.01661709 -0.01679204 0.020017955
0.04421767 0.04474736 0.06821629 -0.02258597 0.037137717 0.009764281 -0.0073871557 -0.075415514
0.07280776 -0.026214018 -0.019806009 -0.027928345 -0.09357632 -0.0669603 -0.13935566 -0.020921756
-0.058371067 0.0775319 -0.0055500134 0.051198408 0.00061150204 0.025712682 -0.11167758 0.00032572163
0.017233197 -0.102947734 -0.08579795 0.0055961697 0.010502962 -0.019037131 -0.06531104 0.021619018
0.049606048 -0.056481037 -0.12593557 -0.09796325 0.029074082 0.0005143811 0.0009685194 0.011797458
0.021259861 -0.04364372 -0.09745975 -0.112548776 -0.010977166 -0.09021687 -0.022960195 -0.008283564
0.02124016 -0.07083309 -0.08129524 -0.12544082 0.06903991 0.05332472 -0.030416064 -0.0064685983
-0.059064437 -0.07470972 -0.14375077 0.09876739 -0.054662917 0.041166093 -0.1198234 -0.024811644

gnn.gnn_node.convs.1.linear.bias f4 [128]
00000000: a6eb bab9 8867 163c 6349 f43c e375 113e
00000010: 5804 ad3d d2c5 03bd 82fa 093c 5eee d6bd
00000020: 8486 89bd 82bd 2fbd fb67 a23c 0af5 363e
00000030: 7c64 a83d 1e91 02bc 50e1 df3c 6395 a5bd
00000040: f0fa 383e 9524 f4bd eeb1 9b3c 610e 9c3c
00000050: c470 d43d 85d9 cf3d 8ce6 3b3d be7e 0ebe
00000060: f37a a93b 68ab aebd 2296 8bbd 0756 783c
00000070: 665a 653d a5c4 17be ebbd 83bc d644 0339
00000080: 7ad7 42bd c608 b4bc 3bbd df3d 4c5e 05be
00000090: e47e 6a3b fcc4 8a3d 6904 65bd 67c3 80bd
000000a0: 952e 963b 8a92 cbbd d8b5 0b3e 433b 343e
000000b0: 5de0 723d 868a 72bd 766b 75bd 922a 543d
000000c0: 538c 19bd 051f ca3c 17cb edbc 507f efbc
000000d0: 2c9d 043b 4d08 bdbd a068 673d acae efbd
000000e0: 1f19 f3bd f6fd 0f3e c637 ae3d 7125 27bd
000000f0: 12db f53d a707 dcbd 87f6 f33d 8a3a cb3d
00000100: 77e0 403e ab5d 163e 1daf a4bd 143b 1d3d
00000110: 9710 04bd 493a f63d 127d eabd 8120 09be
00000120: b05b 123c 8a94 b63c 1b2f 9b3b a035 89bd
00000130: 7c5c 4bb9 e271 97bd 404e a2bd 1b7a 993d
00000140: 010a b23c c5c7 173e 17f6 bdbd a1f1 9ab8
00000150: ac9e acbd f068 6abd 323f 0e3c 71eb 78bd
00000160: 7571 c4bd 68a9 213d da2c 483d 81f8 593c
00000170: 2954 9dbd dcf6 71bd 14b9 b4bc 753a 6a3d
00000180: 4880 6fbd 343e 28be c436 b63c bd40 5dbd
00000190: 31e1 88bd 85d3 623e 83cf 123e eabe 83bd
000001a0: 40af a33c f1df 29bd d0bd d43c 95f0 1d3e
000001b0: 41a6 84bc edc0 ff3c 5674 703c 8921 013d
000001c0: dbcf e8bd e153 243d 3fba a23d 4e28 493e
000001d0: 4ae7 5fbd 8b12 d0bd c772 db3a b0fd 15bc
000001e0: 92bb edbc 9823 f73b f311 b63a 21d3 b23c
000001f0: 769e 1b3c 636e 55bc 97eb 82bd 3fc6 a0bd
-0.00035652256 0.009179957 0.02982015 0.14205126 0.08448094 -0.032171078 0.008421542 -0.10494684
-0.0671511 -0.042905338 0.019824972 0.17866912 0.08222291 -0.007969169 0.027329117 -0.08085134
0.18064475 -0.1192104 0.019005742 0.019049825 0.10373071 0.101489104 0.045874164 -0.13915536
0.0051721274 -0.08528787 -0.06815745 0.015157229 0.055994414 -0.14821108 -0.01608177 0.00012518777
-0.047568776 -0.02197684 0.10924765 -0.13024253 0.00357812 0.06775853 -0.05591241 -0.0628727
0.0045831897 -0.099400595 0.13643587 0.17600732 0.059296 -0.059214137 -0.059916936 0.05179841
-0.03748734 0.024672994 -0.029027505 -0.029235512 0.0020235283 -0.09230099 0.056496263 -0.11703238
-0.11870026 0.14061722 0.08506732 -0.04080719 0.12004675 -0.10743647 0.11912256 0.09923275
0.18835627 0.14684169 -0.08041213 0.03838642 -0.032242384 0.12022836 -0.114496365 -0.13391306
0.008932993 0.022287626 0.00473584 -0.06699681 -0.00019394042 -0.07394768 -0.07925081 0.07493993
0.021733286 0.148223 -0.092754535 -7.388299e-05 -0.08428702 -0.057228982 0.008682059 -0.06077141
-0.09591953 0.0394682 0.0488709 0.013303877 -0.07682068 -0.059073314 -0.022060908 0.057184655
-0.058471948 -0.16429979 0.022242911 -0.054016817 -0.06683577 0.22151001 0.14336972 -0.06432898
0.019981027 -0.041473333 0.025969416 0.15423806 -0.016192557 0.031219924 0.014676174 0.031526122
-0.1136777 0.040119056 0.0794568 0.19644281 -0.054663934 -0.10159787 0.001674258 -0.009154722
-0.029020105 0.007542085 0.0013890847 0.02182919 0.009498229 -0.0130268065 -0.063925914 -0.078503124

gnn.gnn_node.batch_norms.0.weight f4 [128]
00000000: 9cc5 803f f44b 6b3f 17d0 733f eb19 7f3f
00000010: 02b8 793f f4c4 833f 5f91 833f 8a73 7b3f
00000020: 5336 793f 27cb 753f 581b 783f 6768 893f
00000030: fbc6 893f fef8 603f b940 6a3f d83c 813f
00000040: 6205 8c3f 9e9b 7e3f 1096 703f e1f8 673f
00000050: 944d 8c3f 98bd 813f c502 6f3f 26f2 8c3f
00000060: d3aa 673f bd5c 783f 0532 713f 6ae2 673f
00000070: 112a 813f d444 753f 4ebc 7a3f 49b7 753f
00000080: ee62 863f 5645 6f3f 4505 7a3f ccad 813f
00000090: ccfd 7c3f f67d 683f 94b3 843f bc0a 803f
000000a0: ba77 6a3f 7fea 653f 9f93 683f 3e4c 6e3f
000000b0: 9b9c 793f 81ca 903f d717 813f b0a1 7f3f
000000c0: 8c74 763f f443 653f c61f 7a3f 2583 873f
000000d0: 6829 653f 4a0f 623f a0ab 673f 5db4 853f
000000e0: cac3 6b3f 3678 853f 8019 7a3f faeb 843f
000000f0: d747 833f 3e42 803f 36ce 833f 0e83 843f
00000100: 4d4c 823f 57ba 863f 6d2d 823f ddd2 893f
00000110: fd75 803f 29bf 843f 10a9 6e3f 2fe4 7e3f
00000120: c336 803f 4e9d 6f3f 2f5d 633f f1d2 6f3f
00000130: 0c12 823f 0a6e 843f fea6 6f3f 1718 833f
00000140: 2fee 723f 9672 7f3f ef92 7d3f 5065 6a3f
00000150: 73b3 843f 862e 7d3f 24f0 863f 477f 773f
00000160: 397e 633f 0c0e 6f3f 1d96 713f c8c1 6c3f
00000170: 9c40 773f 70ff 7b3f bf7c 833f dd66 793f
00000180: 562d 823f f811 873f c943 823f e0d2 843f
00000190: 07a5 6c3f 1106 753f b09b 823f 1593 6b3f
000001a0: 7060 833f b5c4 6c3f 1c87 7f3f 2e6e 6b3f
000001b0: a114 843f 954f 883f 31c9 733f 3339 863f
000001c0: 3d9a 783f 8f59 853f e673 863f 57cd 813f
000001d0: 4c89 713f cb6b 863f 9e9f 843f 0951 8b3f
000001e0: f48b 863f b7ac 803f 2120 7c3f 0572 783f
000001f0: 1453 833f ef47 5a3f c344 793f 69c1 873f
1.0060306 0.9191277 0.95239395 0.9964892 0.975464 1.029448 1.0278739 0.98223174
0.9734852 0.9601311 0.96916723 1.0734986 1.0763849 0.8787993 0.9150501 1.0096693
1.0939143 0.99456203 0.9397898 0.90614134 1.0961175 1.0135984 0.933636 1.1011398
0.9049503 0.9701651 0.9421695 0.90579855 1.0090963 0.9580815 0.9794358 0.95982796
1.0498941 0.93465173 0.9766429 1.0131164 0.98824763 0.908172 1.0367303 1.0003276
0.9158894 0.8981094 0.9085025 0.93085086 0.97504586 1.1311799 1.00854 0.9985609
0.96271586 0.89556813 0.9770473 1.0586897 0.89516306 0.8830458 0.90496254 1.0445668
0.92095625 1.042731 0.9769516 1.0384514 1.0256299 1.0020216 1.0297306 1.0352495
1.0179535 1.0525616 1.0170113 1.0767475 1.0036007 1.0370837 0.9322672 0.9956693
1.0016712 0.935994 0.8881406 0.93681246 1.0161757 1.0346081 0.93614185 1.0241727
0.9489469 0.9978422 0.9905233 0.9156084 1.0367264 0.98899114 1.0542035 0.96678585
0.88864475 0.9338081 0.9436968 0.92483187 0.9658296 0.9843664 1.0272444 0.9742258
1.0170085 1.0552359 1.0176936 1.0376854 0.9243931 0.9571238 1.0203762 0.92021304
1.0263805 0.9248765 0.99815536 0.91964996 1.0318795 1.0649287 0.9522887 1.0486206
0.9711035 1.0417956 1.0504119 1.014079 0.94350123 1.0501646 1.0361211 1.0884105
1.051146 1.0052708 0.98486525 0.9704898 1.0259728 0.8526601 0.9737055 1.0605899

gnn.gnn_node.batch_norms.0.bias f4 [128]
00000000: 6515 09bd c101 acbd 9618 2f3d 3153 763d
00000010: d7fd f33c cded 4fbc 5196 fb3d 0844 b43c
00000020: dd44 c13a e0b3 6a3d 02ca ad3c fbdf e43c
00000030: 3087 983d 13ef 45bd 5a0e 153c 77ba b6bd
00000040: fab3 25bc ec47 83bb 5d18 cfbc eb9a eabd
00000050: 74ae 813c 41c5 a33d 7c2e 14bc 799c c83d
00000060: aa97 e3bc 700c 8abd 7c17 a0bd 9f99 b23c
00000070: 43b7 313d a340 2bbd 16bf 153e 0352 873d
00000080: 30ec 30bd 44b9 a3bd ea11 86bd f938 dc3d
00000090: cdff bebd 2285 88bd 32b4 b33d a32d f13d
000000a0: bd54 f4bd eed0 afbd 74db e53c 28eb 7e3d
000000b0: d57d b83c dbf8 b23d 3efa 453d cef4 1b3d
000000c0: 710d 4cbc a5da 153d e935 9cbd 3cc6 3bbc
000000d0: 485d 543d 35ad d33b ba28 edbc 872b 613d
000000e0: ea86 36bd a9c0 383d 4eab 073d 70e6 b8bd
000000f0: de06 3c3d fae4 643d 66a0 d93c 5c04 01bc
00000100: 8c0f 493d 70ac 24be 68e2 6cbd 6d7e d33d
00000110: 099d 76bc a89e 583d 572a ef3b 1a01 78bc
00000120: 2550 8b3d c906 b73c 95bc 8fbc e5b3 3ebc
00000130: 5555 f43c 5e35 933d d6f1 9a3b adbb f43c
00000140: 5946 10bd 3f90 703d 3301 92bd 2cad 693c
00000150: 4540 1bbd 4f60 04bc 0968 a43d d321 b1bd
00000160: e71a e9bb dd42 843c 3b9e 243d 157d 193e
00000170: 41c9 b03c 9aca 233d e94c da3c 247f 38bd
00000180: 3ba8 b33c 5aa0 7d3d 9ebc 643c d7be 1c3e
00000190: d21e 80bd 9128 c8bc 801d 023e 0732 293d
000001a0: e349 533d 52f1 35bd 5461 dbbc 223b 123c
000001b0: 0182 753d 44b4 a73d f6fc a03a 5b70 b9bd
000001c0: 94c2 d03c 7600 a93d 19ba 2b3d 672c 923d
000001d0: abf3 37bc 8d58 50bd 4fee 493d 19dc e03d
000001e0: 93c9 7b3c 25bd c73d d8ea 253d b1ca ae3d
000001f0: eaea 94bc 6a4b a2bd 6e56 24bd 21bc 1d3d
-0.03346767 -0.08398772 0.042748056 0.06013793 0.029784126 -0.0126909735 0.1228453 0.022005096
0.0014745254 0.05730045 0.021214489 0.027938833 0.0744766 -0.048323702 0.00909766 -0.08922284
-0.010113711 -0.0040063765 -0.025280172 -0.114553295 0.015830256 0.079966076 -0.009044286 0.0979547
-0.02778228 -0.067406535 -0.07816979 0.021801768 0.043387663 -0.04180969 0.14623675 0.06607439
-0.043193996 -0.07994321 -0.065463856 0.10753054 -0.09326134 -0.06666018 0.08774604 0.11776283
-0.11930225 -0.08584772 0.028058745 0.06223598 0.022520939 0.08738872 0.048334353 0.03807526
-0.012454377 0.03658547 -0.0762747 -0.011460837 0.051846772 0.006459857 -0.028950084 0.05497315
-0.044562258 0.04510561 0.033122353 -0.090283275 0.045904987 0.05588243 0.026565742 -0.0078745745
0.049087092 -0.16081405 -0.057833105 0.10326848 -0.015052089 0.05288568 0.0072987485 -0.015136981
0.06802396 0.022342103 -0.017545978 -0.01163957 0.029825846 0.07187913 0.004728536 0.029874647
-0.03522334 0.058731314 -0.07129135 0.014262479 -0.03790309 -0.008079602 0.08027656 -0.086490296
-0.0071138027 0.016145164 0.040189963 0.14989121 0.02158034 0.039988138 0.026648002 -0.045043126
0.021930804 0.0619205 0.0139609855 0.15307175 -0.062558785 -0.024433406 0.12706566 0.041307475
0.051584136 -0.044419594 -0.026779808 0.008925231 0.059938435 0.0818868 0.001228242 -0.09054633
0.025483407 0.08252041 0.041925523 0.07137375 -0.011227529 -0.0508657 0.049299534 0.1097948
0.015367883 0.09752873 0.040507168 0.08534754 -0.018178422 -0.0792454 -0.04012149 0.03850949

gnn.gnn_node.batch_norms.0.running_mean f4 [128]
00000000: 04cc 673e 9e20 b5bd fad0 49be 0084 003f
00000010: f9be 6fbe 5587 99bd 341f 0b3f 3fc4 223f
00000020: b083 703f b253 8bbe 5f49 ccbe fc6d 04be
00000030: d22a 96be 3498 ddbe c3ce 123f 8864 613e
00000040: df90 223f 412e b7be 8742 9e3d 036f 2cbe
00000050: 3d29 88bd 9ea7 7ebe 7d40 11be da37 44be
00000060: 65fb a63d 0419 4f3e dcfa 35be 9a85 18bf
00000070: 25e9 7fbe 3f21 04bf b514 073f c0ab 87be
00000080: 4e08 8a3e de0c 1cbf 5ada 653f 55e2 5dbe
00000090: 007d 5c3e a6a2 aabe e01e 15bf b9a9 fd3e
000000a0: 53b7 16be fe08 64be 2f9a 793e 89e4 743e
000000b0: 3192 98bd 97c1 473d da3f aabe 1e14 13bf
000000c0: 8a08 6b3c ec25 fdbd 6fa1 ee3e 8bcc 0e3f
000000d0: 8252 b8be fd93 00bf 471e 7fbe f153 eabe
000000e0: 05ca 88bd 78b0 45be 6222 15bf c232 263e
000000f0: 9b5e f0be c7e7 f43e e0d3 223f 0f4e 09bc
00000100: 0746 4cbe cec0 143e 6daa 293d ca3c e9be
00000110: 4aff 08be f9b0 01be 3503 39bf 79e2 1f3f
00000120: 6dad 82be 5f0e 043f 2b4a 42bf 2960 fa3e
00000130: 70e3 ab3e cb19 7abe 8790 c43e f4b3 8fbe
00000140: 1b1d 3ebf 0b3b 23bf 51d3 593e c417 2ebe
00000150: 01ea c23d 065b c43e 6b9a 0c3f b4d8 2dbd
00000160: 2546 823e db52 8b3e 5fe7 0e3f adfa c93e
00000170: 2a4f 303e 3586 84be af1b 143f 5a5e b9ba
00000180: c618 20bf a9eb a3be ca58 573f 5538 c73e
00000190: b9e0 8dbe 79ff 0dbf 2f27 ea3e 3091 af3e
000001a0: 5754 153d 0923 7bbe bd0b e53d 27b0 a43e
000001b0: c459 b7be d38f 54be 830e a2be dea7 843e
000001c0: 0539 aebe 2500 36bc 9884 2fbf 9c02 22be
000001d0: aa33 85be 9ba6 7d3e 28f2 1f3f a565 15bf
000001e0: 13a0 dd3e 8ebe fa3e eaaa 2a3e 4bbc 41be
000001f0: 61b1 8cbd 5b58 98be 0e65 2a3f 6bea 53be
0.2263642 -0.08844112 -0.19708624 0.50201416 -0.23412694 -0.07496516 0.5434449 0.635807
0.9395094 -0.27212292 -0.39899728 -0.1293258 -0.29329544 -0.43280184 0.57346743 0.22011006
0.63502306 -0.35777476 0.07727533 -0.16839223 -0.066484906 -0.24868628 -0.14184757 -0.1916193
0.081534185 0.20224386 -0.17771477 -0.5957886 -0.24991281 -0.5161323 0.5276597 -0.26498222
0.2695946 -0.60957134 0.89786303 -0.2166837 0.21532059 -0.33327216 -0.58250237 0.4954355
-0.1471837 -0.22269055 0.24375223 0.23915304 -0.07449759 0.048768606 -0.3325184 -0.5745257
0.014345298 -0.12360749 0.4660754 0.5578086 -0.36000448 -0.5022581 -0.24913894 -0.45767167
-0.06679157 -0.19305599 -0.5825559 0.162303 -0.46947178 0.47833082 0.63604546 -0.008380427
-0.19948588 0.14526674 0.041422296 -0.4555419 -0.13378635 -0.12665166 -0.7227052 0.62454945
-0.25522938 0.5158443 -0.7589442 0.4890149 0.3357196 -0.24423902 0.38391516 -0.2806698
-0.7426316 -0.6376197 0.21272017 -0.17001253 0.09517289 0.38350695 0.54923123 -0.042442992
0.2544414 0.2721165 0.55821794 0.39449063 0.17217699 -0.25883642 0.5785474 -0.0014142499
-0.625378 -0.32015732 0.84119856 0.38910165 -0.27710512 -0.55467945 0.4573302 0.34290457
0.036457386 -0.24525084 0.111838795 0.32165644 -0.35810673 -0.2075799 -0.31651697 0.25909323
-0.34027877 -0.011108433 -0.68561697 -0.15821308 -0.2601598 0.24770586 0.62478876 -0.5835822
0.4328619 0.48973507 0.16666761 -0.18919484 -0.0686977 -0.2975491 0.6656045 -0.20694892

gnn.gnn_node.batch_norms.0.running_var f4 [128]
00000000: 1d09 c440 b3a2 a93f 7bd2 c840 a90d 8a41
00000010: 5581 cd40 8634 463f 222e 7341 66d3 d141
00000020: 0a61 5442 7b70 6c40 8322 1e41 8a79 b73f
00000030: d6a3 9740 4824 8541 21fc b741 1d88 a940
00000040: 18ee 9941 97d2 d840 f007 1a3f 29f7 0140
00000050: 7303 593f 3d26 2940 f098 8740 bf20 433f
00000060: 5ddb f43e 5fcf 2840 72dc 0f40 674f b041
00000070: 968d 3340 dfe2 9441 400f 9741 9654 9040
00000080: 6934 ef40 f477 b041 4160 4542 4c7f b140
00000090: 867c b140 d51c ee40 08e7 9e41 7b57 6d41
000000a0: 144e b13f b120 8840 14f8 8b40 00ad 7f40
000000b0: 7d4a 9b3e cb30 1a3f 842d c840 c137 9541
000000c0: 9ec2 fd3e f3fe 683f edca 1a41 5b42 b741
000000d0: 7f89 f240 4fbc 6541 6880 a540 45eb 2141
000000e0: 3eef ce3e 4224 c33f eca4 af41 7479 ba3f
000000f0: 9183 7f41 cf8c 5341 6101 b441 3891 f63f
00000100: f07a c13f 3e61 fd3f 6460 0640 23d4 2241
00000110: 687c 873f 4cd3 193f 8366 0d42 6cb6 a141
00000120: c342 a040 49cf 8741 7f26 0642 a83a 7241
00000130: 5af3 b940 c909 2340 5d82 d040 8a46 8140
00000140: 716f f941 cb66 ac41 460c 1740 2811 6d40
00000150: a2ce 0240 fb9d 2141 6a65 8441 36d3 903f
00000160: 827d 8140 42cd 6e40 c61a 8341 c712 4541
00000170: 68ca 0840 359d 7b40 d95e 6f41 6174 913f
00000180: 00d4 bd41 f561 ad40 63d3 2342 07d4 1641
00000190: 7f1c 9040 b00a 8741 b96b 3e41 1d4d ce40
000001a0: 4f35 193f c3c0 5240 8750 e43f 60e3 b340
000001b0: 8067 3141 45f5 4740 303c 1c41 feb2 0441
000001c0: 9d3a de40 a333 a13f 6021 c941 4fd3 5340
000001d0: f4a2 8c40 6af1 0a41 9829 bc41 b73c 8041
000001e0: ac3f 6541 c031 8441 d116 0140 3ab3 f23f
000001f0: 1f8f 303e 285c e840 52d1 c041 5dcc 3940
6.1261125 1.3252777 6.2756934 17.25667 6.4220376 0.77423894 15.198763 26.228222
53.094765 3.6943653 9.883426 1.4333966 4.7387495 16.642715 22.99811 5.2978654
19.241257 6.775707 0.6016836 2.0307105 0.8477089 2.6429589 4.237419 0.7622184
0.4782361 2.637657 2.24783 22.03877 2.8055167 18.610777 18.882446 4.5103254
7.4751477 22.05857 49.343998 5.546789 5.5464506 7.4410195 19.862808 14.833858
1.3851953 4.2539907 4.374033 3.994934 0.30330268 0.602307 6.255556 18.652224
0.49562544 0.9101402 9.674542 22.9074 7.579284 14.358474 5.1719246 10.119939
0.40416902 1.524544 21.955528 1.4568315 15.969621 13.221877 22.500673 1.9263067
1.5115643 1.9795301 2.0996332 10.176791 1.0584841 0.6008804 35.35011 20.214073
5.0081496 16.976213 33.537594 15.13932 5.810956 2.5474722 6.5159135 4.0398607
31.179415 21.550192 2.360124 3.7041721 2.0438619 10.101069 16.549519 1.1314456
4.046571 3.731278 16.388073 12.317084 2.137354 3.9314702 14.960656 1.1363641
23.728516 5.4182076 40.956432 9.4267645 4.5034785 16.880219 11.901299 6.4469132
0.5984697 3.2930152 1.7837075 5.6215057 11.087769 3.124345 9.764694 8.293699
6.944655 1.2593883 25.141296 3.3097723 4.3948917 8.683939 23.52031 16.029646
14.328045 16.524292 2.0170176 1.8960946 0.17242096 7.2612495 24.102207 2.9030983

gnn.gnn_node.batch_norms.1.weight f4 [128]
00000000: 0132 803f 7a9a 793f 09a5 693f ba05 393f
00000010: f1d1 743f c52f 533f 2c81 7d3f 29e8 873f
00000020: d2a5 7b3f 1537 803f 8379 803f 2182 713f
00000030: 04ba 683f 81bb 7f3f 81b5 7d3f 17c8 743f
00000040: bf6a 6f3f d6cb 723f 0daa 633f 3bbd 7d3f
00000050: 8459 673f daeb 603f 5210 693f ed9c 7f3f
00000060: d3f7 683f c2af 7e3f a374 743f 8e0e 523f
00000070: 3e95 793f 61b1 843f 3d26 833f 5349 7c3f
00000080: 6ab8 853f 7a64 333f 77c2 623f a66c 803f
00000090: 0f21 603f c547 6a3f fdbe 6c3f e80a 763f
000000a0: 229e 7b3f 175b 793f 3d0e 643f 4e3b 673f
000000b0: a102 803f fd4a 683f 561b 523f 0d23 6e3f
000000c0: c1c2 7b3f 2765 703f 388d 543f 2a3f 793f
000000d0: 103a 753f 428c 753f e210 7d3f c74e 823f
000000e0: 614b 6a3f 8722 6e3f 7abb 493f eeb2 7b3f
000000f0: 7780 553f 3d4d 683f f919 593f 1018 633f
00000100: 7387 763f 9a5e 7e3f 8999 593f 5622 7c3f
00000110: 5ccc 7b3f a451 753f 4d6d 773f 68c9 7e3f
00000120: 5e41 6a3f a648 7d3f 4012 7d3f 755f 773f
00000130: 105a 5f3f 162e 7c3f 98d1 763f 54c3 553f
00000140: 05c0 7d3f 4bf5 793f 1260 6b3f f5d2 773f
00000150: 5924 663f 91a7 643f 53f1 423f bd3f 703f
00000160: c47a 713f 3c2d 733f 4631 7c3f 705b 6d3f
00000170: 54f0 733f 47d8 733f 6bae 6a3f de7b 783f
00000180: 73f7 773f bd85 723f 1ab2 763f fd95 7c3f
00000190: 1014 803f 70ad 723f 41d3 373f fec7 613f
000001a0: 4d99 753f 3026 743f d473 483f 51f7 723f
000001b0: 0822 843f 752d 643f f1cf 553f 6362 793f
000001c0: 9bda 753f c7c3 7f3f 8905 4b3f 939c 713f
000001d0: 62c4 7a3f 4569 733f 8404 7a3f c0e3 803f
000001e0: 4055 723f be50 763f 790d 7f3f 3b06 743f
000001f0: abb2 533f 5706 7d3f 28ba 7b3f 619c 6f3f
1.001526 0.9750134 0.9126745 0.72274363 0.95632845 0.82494766 0.99025226 1.0617725
0.98299897 1.001681 1.0037082 0.94339186 0.9090884 0.99895483 0.9910508 0.9561781
0.93522257 0.9484228 0.8893135 0.9911687 0.90370965 0.8785988 0.9104053 0.99848825
0.9100315 0.99486935 0.95490474 0.8205346 0.9749335 1.0366632 1.0246044 0.98549384
1.0446904 0.7007519 0.8857798 1.0033157 0.87550443 0.9151576 0.92478925 0.9611039
0.98288167 0.9740462 0.89084226 0.90324867 1.0000802 0.90739423 0.8207296 0.93022233
0.98344046 0.93904346 0.8302798 0.97362006 0.9579172 0.9591714 0.98853886 1.0180291
0.9152127 0.93021435 0.7880169 0.983199 0.83399147 0.90742856 0.84805256 0.8870859
0.9630043 0.993631 0.849999 0.9848989 0.983587 0.958277 0.96651155 0.9952607
0.9150599 0.9893898 0.9885597 0.9663003 0.872468 0.9850782 0.96413565 0.8350117
0.99121124 0.9763991 0.91943467 0.9680627 0.8989921 0.89318186 0.7614948 0.93847257
0.9432795 0.949909 0.98512685 0.9271765 0.95288587 0.9525189 0.9167239 0.97064006
0.9686195 0.9473532 0.9636551 0.98666364 1.0006123 0.94795895 0.7180672 0.8819579
0.95937043 0.9537077 0.7830174 0.94908625 1.0322886 0.8913186 0.8352042 0.9741575
0.9603669 0.9990811 0.7930532 0.9437954 0.97955906 0.95082504 0.9766314 1.0069504
0.9466133 0.9621695 0.9962993 0.95322007 0.826945 0.988378 0.98330927 0.9359799

gnn.gnn_node.batch_norms.1.bias f4 [128]
00000000: 1759 d83b 9895 2e3c 56cb f7bc 93b4 46b9
00000010: 6a78 e63b ce6a 8ebb 66e7 6fbc b082 69bd
00000020: dd1f 2b3b d1f2 46bd ef48 a03a 02d5 85bc
00000030: eb3b 1dbd 989d 9bbc bd78 85bc 1f29 3bbd
00000040: 1950 f6bc f46e 33bd 2363 7b3c 02ad a6bc
00000050: 6030 75bc 4a5a 06bd b61f 2b3c c3ae eebc
00000060: 4e9c 4f3c a060 1fbd ec5e 913c a3f9 22bd
00000070: 0e7c 6f3b 03e6 21bd 0f93 76bd adad b23b
00000080: 8690 46bd faae cfbc a732 c5bc 7aeb cbbc
00000090: 03cc 15bd 6550 093c fe32 86bd 4b05 263b
000000a0: f8bc 46bd 8543 5abc e4a3 f3bc 316f e2bc
000000b0: 1a97 74ba 2093 ddbc 1ca0 9fbc 7b57 04bd
000000c0: 7a81 e7bc af6e 37bd cdf3 00bd a7cd 48bd
000000d0: 82db ffbc dd6b 24bd 031a 3ebc bb98 48bd
000000e0: 7bfb 7ebd 120d acbc 990b 59bc 1df3 4fbd
000000f0: 6137 62ba afd1 6bbd c2f1 b1bc accc fdbc
00000100: 205e 8abc 6f99 f13b 8a70 2cbd 65dc 50bc
00000110: b84d b0bc 6f45 96bc 280a 0abd 70b3 61bd
00000120: 6c57 f2bc c3e0 a3bc fc84 87bc 5985 07bd
00000130: 6ec7 dabc 8181 42bd d80f 8dbd 005d 9a3a
00000140: 9789 8dba df55 26ba 4f89 ddbc ca7c b4bc
00000150: 604e 2fbd 2c95 45bc 3af7 2bbb f85e 28bd
00000160: 817d 7c3c a7b3 d4bc 53a2 4cba 4ee8 14bd
00000170: 9c25 6c3c f15a 2cbc 4811 983b ddec babd
00000180: cc12 5b3c 6dc7 0cbb 9c2d a6bc faa2 40bd
00000190: e733 7cbd 7d6e 81bc bb82 7ebc 86f1 44bd
000001a0: 665b e3ba 970d b53b 5d8e 8fbc 5445 ccbc
000001b0: fe5e 2f3c 39b6 64bd 1027 5abb 7445 fdbc
000001c0: 89f9 46bd 042c 90bc 5447 76bc d7d9 52bc
000001d0: d5c3 9fbd a074 93bc f36a 553c 8083 3bbd
000001e0: 0648 11bd 8bfe 0ebd d97a aaba 0fd9 483c
000001f0: e15d 6dbc cf07 44bc d4ee 64bd cf72 fcbc
0.006602417 0.010655783 -0.030248325 -0.0001895002 0.0070333974 -0.004346228 -0.014642572 -0.0570094
0.0026111521 -0.04857141 0.0012228767 -0.016336922 -0.03838722 -0.018996045 -0.016292924 -0.045693513
-0.03006749 -0.043806985 0.01534346 -0.020346168 -0.014965147 -0.03280095 0.010444572 -0.029136067
0.012671543 -0.03891051 0.017745458 -0.039788853 0.0036542448 -0.039525997 -0.06019884 0.0054528327
-0.048477672 -0.02535199 -0.024072004 -0.024892557 -0.036571514 0.008380984 -0.06552695 0.0025332745
-0.04852006 -0.013321762 -0.029741235 -0.02764091 -0.0009330377 -0.027047694 -0.019485526 -0.03230999
-0.028259981 -0.04478329 -0.031482507 -0.04902425 -0.0312326 -0.04014193 -0.011602881 -0.04897378
-0.06225155 -0.021002326 -0.013247394 -0.05076896 -0.0008629468 -0.057573017 -0.021721724 -0.030981384
-0.016890585 0.007373027 -0.042099513 -0.012747859 -0.021521434 -0.018343655 -0.033701092 -0.055102766
-0.029582702 -0.020004636 -0.016542904 -0.033086155 -0.026706424 -0.047486786 -0.068877876 0.0011776984
-0.0010798451 -0.0006345193 -0.027043013 -0.02203216 -0.042799354 -0.012059491 -0.0026239888 -0.041106194
0.015410782 -0.025964571 -0.00078061706 -0.036354356 0.014413264 -0.010519729 0.004640732 -0.09127209
0.013371181 -0.0021481172 -0.02028542 -0.047030427 -0.061572935 -0.015799755 -0.015534098 -0.048081897
-0.0017345964 0.0055253017 -0.017523939 -0.024935402 0.0107038 -0.055837844 -0.0033287443 -0.030916907
-0.04857782 -0.017599113 -0.015031654 -0.01286932 -0.07801024 -0.017999947 0.013025987 -0.045779705
-0.035469078 -0.03491072 -0.0013006582 0.012258782 -0.0144877145 -0.011964752 -0.055891827 -0.030816464

gnn.gnn_node.batch_norms.1.running_mean f4 [128]
00000000: 335d 2bbe b248 cdbd 381e 923e 1cbc e53e
00000010: 6204 be3b 9c24 3cbe b36e 1fbe 64ab 85be
00000020: 5a27 8bbe c0ec babe 5f7c 6dbe 7332 103f
00000030: eb53 ba3e 4216 1dbe 9ad0 62be 299c f5bd
00000040: 21b0 0a3f fa46 9bbe c5b8 e7bd 609e 05be
00000050: 513d be3e 36d2 e93e 443c 4ebd 11ae 08bf
00000060: f8e4 25be 631c 91be de6b f7be 1e4b a1bd
00000070: 5104 9fbd 0e56 04bf 5e8e c0be 4e93 1dbe
00000080: 53e6 21bf 227b 673e 83e7 e63e 093c d5be
00000090: b3c2 fa3d 8da1 dabd f64d a5be c8a6 48be
000000a0: 452f bfbd d5ec a3be 60fe f43e 2930 7c3e
000000b0: 10f4 f0bd 2596 6ebe 3558 79be c39a 803e
000000c0: 5ffe 4ebe 7e7d 103e bf98 46be 7800 c3bd
000000d0: c9bd 6ebe 25db ccbe ac8e e8bd ef3e 18bf
000000e0: 40d6 7abe c81b 183f bb84 853e 460c 11be
000000f0: 6554 b13e 162a 40be 70b8 b33e e64f a43e
00000100: 9b39 0d3f 753e e83e 32cc c7be fde3 36be
00000110: 4740 24be a4ac 023f b642 6abe 5d66 19bf
00000120: f9f5 f43e d627 e8bd 381f 77be 00ca 8dbe
00000130: db3c 1f3d f8e0 efbe 8c4a cfbe 13cd cc3d
00000140: 08bb 01be 497a 1d3f dc4f 9bbe 1df2 54be
00000150: e380 05be 051d 513e 674c ba3e c301 3c3e
00000160: 996b 9dbe f411 1bbe b201 0bbe 66cd 8b3e
00000170: 142c 7cbe 58ab 1dbe f014 8fbb bfe8 aa3e
00000180: be68 81be 8037 f2be f8c6 b53e 4491 e2be
00000190: fab0 c5be e475 1b3f 743c d33e effa 5abe
000001a0: cafd e23e fcf4 7ebe 8845 983d e19e ae3e
000001b0: 6056 44be 2c7a 803e d561 7a3e 3b39 b3bd
000001c0: 7ff9 d7be d31b 06be d176 6f3e 553b 173f
000001d0: 5a1c 1fbf 34c8 68be cbcb d4bd 8a5e 81bd
000001e0: 88a2 7a3e 82b4 c73e f55d 48be a806 dabd
000001f0: 0f3f ea3d 0b77 f0bd 3e70 63be c8c7 fbbd
-0.16734771 -0.10023631 0.2853868 0.4487008 0.0057988623 -0.1837334 -0.15569572 -0.26107323
-0.2717846 -0.3650875 -0.23191975 0.5632698 0.3639215 -0.15340522 -0.22149888 -0.11992676
0.54175 -0.30327588 -0.11314539 -0.13048697 0.37156156 0.4566819 -0.050350443 -0.53390604
-0.16200626 -0.2834197 -0.48324484 -0.078756556 -0.07764495 -0.5169381 -0.37608618 -0.15388224
-0.6324207 0.22605565 0.45098504 -0.41647366 0.12244167 -0.106753446 -0.32286042 -0.19594872
-0.09335188 -0.32016626 0.47850323 0.24627747 -0.11765301 -0.23299463 -0.24350055 0.25118074
-0.20214222 0.14110371 -0.19394206 -0.09521574 -0.23314585 -0.40010944 -0.113553375 -0.5947103
-0.24495792 0.5941739 0.26077828 -0.14164838 0.346347 -0.18766055 0.35101652 0.32092208
0.55166024 0.4536015 -0.39022976 -0.17860408 -0.16040145 0.5104468 -0.2287701 -0.5992182
0.47843912 -0.11335723 -0.24133003 -0.27693176 0.038876396 -0.46851325 -0.40486562 0.10000052
-0.12669003 0.6151472 -0.30334365 -0.20795484 -0.13037448 0.20421226 0.36386415 0.18360047
-0.30746153 -0.15143567 -0.13574865 0.27305144 -0.2462619 -0.15397394 -0.0043665096 0.33380696
-0.25275224 -0.47307968 0.35503364 -0.44251454 -0.38611585 0.6072676 0.4125706 -0.21384786
0.4433425 -0.24898142 0.07435137 0.3410559 -0.19173574 0.2509321 0.24451382 -0.0875115
-0.42182538 -0.13096552 0.23385169 0.5907491 -0.62152636 -0.22732621 -0.10390433 -0.0631686
0.24476063 0.39004904 -0.19567092 -0.10645801 0.11437809 -0.11741456 -0.22210786 -0.122939646

gnn.gnn_node.batch_norms.1.running_var f4 [128]
00000000: 5da4 6940 b044 1540 1fc1 0c41 5af8 8141
00000010: 1542 4d40 6ad4 d340 513b 3040 ba7d cd40
00000020: e15d a140 98ff 0c41 ea21 e240 f593 9b41
00000030: a6c0 e640 1dc9 cf3f a71b 9640 cd8d 853f
00000040: 8f3f 9d41 6d91 df40 acfd 5f40 6969 d53f
00000050: c1f3 ef40 aa0d b641 1fc8 933f 4c1f a741
00000060: 708a 9e40 ecc9 cb40 b7ea 6541 6395 4a40
00000070: fbf0 4f3f 78c8 b841 134b 3e41 b28d 4e40
00000080: c4c7 e441 1dd2 ce40 03a6 7441 2128 6f41
00000090: 6aca f63f 3d9a 4940 c1fd b840 555e 5b40
000000a0: 3c9d 303f ca4f f540 79da 8a41 3b91 6e40
000000b0: 498b 3940 3678 a840 71be 0041 64b5 b040
000000c0: 871e 3840 a37e 0741 9d17 9740 85a6 653f
000000d0: ed4c ba40 ff55 6741 6826 f33f e118 dc41
000000e0: fb8b 9540 baf8 b741 0673 a340 6d0b a23f
000000f0: df0b ee40 3544 2740 d192 0b41 b707 1841
00000100: e6dc 9b41 618f 4d41 5e7c 4e41 7836 5340
00000110: d9dd d33f 31d3 c441 a972 7740 5c8e ff41
00000120: fd5b ec41 6b4a 813f 3da5 ca40 6ff9 bb40
00000130: f733 2740 341f 5441 77f7 3a41 8930 753f
00000140: 1907 cd3f 1f18 b741 a1c1 dd40 a3b6 5840
00000150: cebe aa3f be95 9e40 7477 1d41 27fe ec40
00000160: b967 ed40 a8e2 a540 768e 0640 be29 de40
00000170: 6b9c f640 441f 0040 960e fd3f 34f9 4b41
00000180: fb6e cc40 a6f2 9641 3153 6941 235e 9c41
00000190: bdbe 3b41 e533 be41 d8a5 1c41 5b8b 7340
000001a0: 45e3 7b41 4c4e 9440 d962 563f 7200 da40
000001b0: e33e 8940 5dec 4440 ca26 9440 a87b 8b3f
000001c0: 9d9d 4041 05e7 0040 738f 1f40 b492 a741
000001d0: 4973 bc41 d5ef 7f40 88b1 e43f 68c3 f83e
000001e0: 0ee1 3041 e620 8541 6905 3040 f054 1a40
000001f0: a6af 933f 0e90 cf3f c9c0 7e40 44eb b03f
3.650657 2.3323174 8.797149 16.246265 3.2071583 6.6196795 2.7536204 6.4215975
5.04271 8.812401 7.06664 19.447245 7.2110167 1.623325 4.6908755 1.0433899
19.656034 6.986502 3.499858 1.6672794 7.498505 22.756672 1.1545447 20.890282
4.954399 6.3683987 14.369803 3.1653678 0.8122708 23.097885 11.893329 3.2273984
28.597542 6.4631486 15.29053 14.947297 1.9280522 3.150039 5.780976 3.4276326
0.6898992 7.66599 17.356676 3.7276142 2.8991263 5.264674 8.0464945 5.5221424
2.8768632 8.468417 4.7216325 0.89707214 5.8218904 14.458495 1.8996096 27.512148
4.6733375 22.996449 5.107791 1.2659737 7.438949 2.613538 8.723344 9.5018835
19.48286 12.847505 12.905363 3.3001995 1.6552078 24.60312 3.8663733 31.944511
29.544916 1.0100836 6.3326707 5.8741984 2.6125467 13.257618 11.685416 0.95777184
1.6017791 22.886778 6.9298863 3.3861473 1.3339479 4.955779 9.841663 7.4060245
7.4189115 5.183918 2.1024451 6.9425955 7.706594 2.0019083 1.9770076 12.748341
6.3885474 18.86848 14.58281 19.545965 11.734067 23.77534 9.790489 3.8053806
15.742986 4.6345577 0.8374458 6.8125544 4.2889266 3.0769265 4.629735 1.0897112
12.03848 2.0141003 2.4931304 20.946632 23.556292 3.9990132 1.7866678 0.48586583
11.054945 16.641064 2.7503302 2.4114342 1.1537979 1.6215837 3.9805167 1.3821797

synth_conv1.conv1d.weight f4 [1, 1, 6]
00000000: 6524 17bf df24 29bf 6690 013f 6894 ebbe
00000010: ba25 b2be 0da6 3d3e
-0.5903991 -0.66071886 0.5061096 -0.46011662 -0.34794408 0.18520375

synth_conv2.conv1d.weight f4 [1, 1, 9]
00000000: 6cfc e0be 0dd2 f3be 64a9 1fbd 1b99 d3be
00000010: b3c2 abbe 6b1a 823e dab2 f1be 2fa5 54bf
00000020: bd08 093f
-0.43942583 -0.47621194 -0.038979903 -0.41327748 -0.3354698 0.2541078 -0.47206765 -0.8306455
0.5352896

synth_conv3.conv1d.weight f4 [1, 1, 12]
00000000: 3771 163f 23c6 953e e163 26bf 92b7 213f
00000010: 250f 0c3f 0a76 023d abf3 933e 8f2a 2a3f
00000020: eaf4 59bd 7612 903e da9a 1e3f 4c94 0fbf
0.587665 0.2925273 -0.64996153 0.6317073 0.5471061 0.031850852 0.2889684 0.6647119
-0.053212084 0.28139085 0.61955035 -0.5608566
