GCN/results250/gcn-epoch-7-val_loss-1.157.pt (torch, 104335 bytes, 23 tensors)

node_encoder.node_type_embedding.weight f4 [3, 3]
-0.20049627 0.12693112 -0.30760714 0.8853582 0.8407763 0.06319201 0.02331882 -0.27923757
-0.7149809
00000000: e54e 4dbe 3bfa 013e af7e 9dbe d6a6 623f
00000010: 1e3d 573f d06a 813d 1c07 bf3c 3af8 8ebe
00000020: fd08 37bf

synth_encoder.synth_emb.weight f4 [7, 3]
0.7514749 0.0267619 0.20358479 -0.44538566 -0.1596125 -0.21073431 0.38883165 -0.9671577
0.502795 -1.0111808 -1.1486055 0.42594233 -0.013399001 0.2465518 -0.8676795 0.7980052
0.24059747 -0.7624612 1.0730098 0.14563005 -0.19379699
00000000: a960 403f c63b db3c 8878 503e 9709 e4be
00000010: 7671 23be bcca 57be f114 c73e a697 77bf
00000020: 2cb7 003f 5f6e 81bf 8105 93bf 1d15 da3e
00000030: 7c87 5bbc 1378 7c3e 3e20 5ebf 124a 4c3f
00000040: 2f5f 763e a830 43bf 6358 893f 0b20 153e
00000050: b872 46be

gnn.gnn_node.node_encoder.node_type_embedding.weight f4 [3, 3]
-0.20049627 0.12693112 -0.30760714 0.8853582 0.8407763 0.06319201 0.02331882 -0.27923757
-0.7149809
00000000: e54e 4dbe 3bfa 013e af7e 9dbe d6a6 623f
00000010: 1e3d 573f d06a 813d 1c07 bf3c 3af8 8ebe
00000020: fd08 37bf

gnn.gnn_node.convs.0.linear.weight f4 [128, 4]
-0.16393287 -0.3354071 -0.16865808 -0.22110319 0.18264636 0.013213797 -0.33261755 -0.51224107
0.1615052 0.40183145 0.16910596 0.37327507 -0.23308027 -0.055671472 -0.39809668 0.14672816
-0.06898174 -0.3523588 0.43376702 0.41275454 -0.04377288 -0.43375224 0.30662525 -0.32152107
-0.12753399 0.29635927 -0.22103643 0.521511 -0.44060618 0.23435745 -0.41064695 0.12934673
0.27213457 0.09073305 -0.44006467 0.30583933 0.15269907 -0.24620073 0.19774067 -0.4229069
-0.4587583 0.42207968 0.26361883 -0.16454427 -0.3364279 -0.18838602 -0.43487227 -0.45936126
0.108002365 0.030499278 -0.19536541 -0.0430302 0.33578885 0.06418463 0.43408 0.28025132
-0.14175738 -0.16460939 -0.19921617 0.06890691 0.094103195 0.2534946 -0.37819102 -0.3341614
0.4745143 0.2537057 0.19227545 0.3831598 -0.1301505 0.22229019 -0.012329923 -0.4109927
-0.5015176 0.43335575 0.1975604 -0.1842613 0.42652288 0.094274245 0.11176811 -0.19486748
-0.25108653 -0.5210984 -0.23667742 -0.35478678 -0.4654371 -0.29745257 0.15110894 -0.42960426
0.13882633 0.27176327 0.35267374 0.34339046 -0.5527961 -0.48140702 -0.5462449 -0.25945288
0.31839573 -0.22606681 0.10910603 -0.026562484 0.058970653 0.44113067 -0.47010916 -0.024656251
-0.5062115 0.3684944 0.3192899 -0.19421604 0.030988857 0.39188188 0.49483588 -0.46410584
-0.31688586 -0.41981152 0.5224544 -0.47220397 0.4399936 0.53099984 -0.0021284118 -0.13026658
0.1503682 -0.54475236 -0.43890613 0.37155363 0.023630548 0.20437558 0.3652515 -0.26916766
0.17114241 -0.11300511 -0.30874386 -0.25654906 -0.39696053 0.23992342 0.3920295 -0.36833146
0.53399754 -0.008926759 -0.4251722 0.2503041 -0.32109666 -0.20032443 0.554951 0.3662527
0.16315112 -0.009201974 -0.24344863 -0.34826195 0.4046061 0.21814828 0.33549958 -0.3617643
-0.065940425 0.28245017 0.03847266 -0.30652118 -0.2510278 0.0009869171 -0.38865238 0.39854744
0.15576738 -0.19824922 0.4246655 -0.060306393 0.09222435 0.07482162 0.4986675 0.045459654
-0.26484194 -0.35274106 -0.14336528 0.44516915 0.35739934 -0.3025861 -0.3405844 0.21938066
-0.26897958 -0.0012873373 -0.2822007 -0.19507578 0.2358744 -0.12535359 -0.55467224 -0.081191055
-0.0068671815 0.078018054 0.042116012 -0.12466158 -0.15169762 0.38934737 -0.007832336 -0.4733414
-0.35912073 0.116544776 -0.3487194 -0.15782428 -0.020412672 0.39023268 -0.31020337 -0.12663041
0.33765483 0.39520156 0.09806833 0.30908808 -0.19548602 -0.49087238 -0.48313463 0.17058018
0.076563984 0.39410892 -0.09254658 -0.40102127 0.14192718 0.3333465 0.07708691 -0.47301567
0.09343357 0.43417335 -0.28503373 0.13893679 -0.026076872 -0.43286282 0.32079098 -0.34716478
0.08972814 0.16014771 -0.20980641 0.061421663 -0.48089707 -0.37672603 0.28452435 -0.16462678
-0.027826738 0.1692817 0.25033396 -0.065441065 0.1265249 0.32238156 -0.13493061 -0.03632519
-0.26429328 0.37784824 0.14682026 0.064994186 -0.48737594 0.18683764 -0.4279226 0.46390045
0.10090166 0.3392012 -0.5093458 0.41874045 -0.2693872 -0.015580746 -0.2233816 -0.4682312
00000000: 05de 27be 7bba abbe b4b4 2cbe e068 62be
00000010: a607 3b3e ae7e 583c d94c aabe 3b22 03bf
00000020: 9f61 253e dabc cd3e 1d2a 2d3e e91d bf3e
00000030: 98ac 6ebe c507 64bd 54d3 cbbe e83f 163e
00000040: 4c46 8dbd 5f68 b4be b616 de3e 9054 d33e
00000050: 314b 33bd c614 debe fcfd 9c3e 699e a4be
00000060: 4598 02be 67bc 973e 6057 62be bf81 053f
00000070: 2297 e1be 66fb 6f3e 5140 d2be 7873 043e
00000080: 3955 8b3e 40d2 b93d 2850 e1be f996 9c3e
00000090: 255d 1c3e 0b1c 7cbe 887c 4a3e 4187 d8be
000000a0: 5ee2 eabe d41a d83e 0cf9 863e 4b7e 28be
000000b0: 4740 acbe 44e8 40be 94a7 debe 6631 ebbe
000000c0: 5830 dd3d 9fd9 f93c df0d 48be 6f40 30bd
000000d0: 84ec ab3e 3b73 833d bc3f de3e 1a7d 8f3e
000000e0: d928 11be 5d8f 28be 53ff 4bbe 111f 8d3d
000000f0: 2db9 c03d 0bca 813e 41a2 c1be 3417 abbe
00000100: 8af3 f23e b7e5 813e dbe3 443e 852d c43e
00000110: 2c46 05be 0aa0 633e 7203 4abc a36d d2be
00000120: 7563 00bf cee0 dd3e 464d 4a3e ffae 3cbe
00000130: 3561 da3e db12 c13d aee6 e43d 578b 47be
00000140: 6a8e 80be b466 05bf 915b 72be 9da6 b5be
00000150: c64d eebe b44b 98be 4dbc 1a3e 17f5 dbbe
00000160: 7d28 0e3e 8e24 8b3e a791 b43e e0d0 af3e
00000170: 0c84 0dbf fb7a f6be b5d6 0bbf 02d7 84be
00000180: c404 a33e 0f7e 67be fb72 df3d 9199 d9bc
00000190: 368b 713d e1db e13e 26b2 f0be e8fb c9bc
000001a0: 1497 01bf 4cab bc3e f779 a33e 92e0 46be
000001b0: 58dc fd3c bea4 c83e 215b fd3e 489f edbe
000001c0: dd3e a2be 89f1 d6be 92bf 053f b8c4 f1be
000001d0: d746 e13e 9bef 073f d37c 0bbb 9a64 05be
000001e0: 1ffa 193e e474 0bbf 4eb8 e0be 473c be3e
000001f0: da94 c13c d547 513e 3f02 bb3e 58d0 89be
00000200: f53f 2f3e 396f e7bd ad13 9ebe 665a 83be
00000210: 693e cbbe 7cae 753e 17b8 c83e f195 bcbe
00000220: 10b4 083f 8a41 12bc 2cb0 d9be dc27 803e
00000230: c866 a4be d921 4dbe 4511 0e3f 7985 bb3e
00000240: 1611 273e e0c3 16bc 994a 79be 644f b2be
00000250: 8828 cf3e 4362 5f3e 9ac6 ab3e 2c39 b9be
00000260: c60b 87bd 4f9d 903e 8295 1d3d 58f0 9cbe
00000270: b786 80be 715b 813a 72fd c6be 690e cc3e
00000280: 7c81 1f3e d801 4bbe c26d d93e d603 77bd
00000290: 1fe0 bc3d 143c 993d 5951 ff3e e733 3a3d
000002a0: 5d99 87be 7a9a b4be 59ce 12be 36ed e33e
000002b0: 0cfd b63e 91ec 9abe 1461 aebe 53a5 603e
000002c0: b1b7 89be dfbb a8ba 9c7c 90be f2c1 47be
000002d0: 0f89 713e b15c 00be 00ff 0dbf 7f47 a6bd
000002e0: 1806 e1bb eec7 9f3d d781 2c3d 924e ffbd
000002f0: 9f56 1bbe 8a58 c73e 3353 00bc ce59 f2be
00000300: acde b7be 07af ee3d 598b b2be b09c 21be
00000310: 7a38 a7bc 94cc c73e fad2 9ebe 67ab 01be
00000320: 18e1 ac3e dc57 ca3e 0cd8 c83d cb40 9e3e
00000330: 7d2d 48be a053 fbbe 6c5d f7be 92ac 2e3e
00000340: 94cd 9c3d a5c8 c93e 1089 bdbd a952 cdbe
00000350: 5c55 113e 64ac aa3e bedf 9d3d 1c2f f2be
00000360: 195a bf3d f84b de3e f1ef 91be 7245 0e3e
00000370: 2a9f d5bc 32a0 ddbe b73e a43e 95bf b1be
00000380: 63c3 b73d c3fd 233e 7ed7 56be 4895 7b3d
00000390: 2438 f6be 3ce2 c0be 2dad 913e ec93 28be
000003a0: e6f4 e3bc 2f58 2d3e c62b 803e f705 86bd
000003b0: be8f 013e 320f a53e 402b 0abe b9c9 14bd
000003c0: 7351 87be 5375 c13e 0d58 163e ac1b 853d
000003d0: 5789 f9be 5e52 3f3e ac18 dbbe 5c84 ed3e
000003e0: 88a5 ce3d c8ab ad3e 7d64 02bf 2665 d63e
000003f0: 1eed 89be 6346 7fbc 25be 64be 00bc efbe

gnn.gnn_node.convs.0.linear.bias f4 [128]
0.41604298 0.0028786925 -0.3831616 0.21000089 -0.44820145 0.43950242 0.021095434 0.4764166
0.5797434 0.18157049 -0.04934546 0.041745234 -0.54458755 -0.40066475 0.5156331 0.3499555
0.5373503 0.07287996 0.4817373 0.31718263 -0.007404131 0.21600792 -0.20078903 -0.36253512
0.14175352 0.12892617 0.38107464 0.17246944 0.34342927 -0.44391456 -0.10362634 0.28879014
0.40692303 -0.067024484 0.5334419 -0.20252134 0.35920793 0.21216841 -0.3502402 -0.060223605
0.22272748 0.088685185 -0.40775177 -0.28565222 -0.0565185 -0.3175288 -0.24855177 -0.13312843
0.0828064 -0.12914301 0.3270028 0.13869826 0.083971515 0.05164755 -0.46255225 -0.14607045
-0.2767523 0.17638849 -0.47668305 0.20289771 -0.49121562 -0.11862606 0.0492632 0.34622806
-0.21519724 0.29995638 0.41483372 -0.15344907 -0.029974444 -0.0065373145 -0.26923844 0.5536658
-0.4328258 0.4139344 -0.22350244 0.0061977636 0.066572964 0.18346642 -0.009542545 -0.0067661367
-0.44603983 -0.4131126 -0.2650779 0.16770121 0.2826297 0.53572613 0.2430265 0.07551009
0.015494069 0.34690645 0.24972445 0.036622763 -0.16731213 0.015140958 0.3830181 0.4193852
-0.41115427 -0.45990703 0.42029825 0.23072031 -0.17412195 -0.14488357 0.06210924 -0.34170938
-0.51927716 -0.052010514 0.16744673 -0.20969047 -0.34707138 -0.37815648 -0.31365675 0.54106104
-0.3833517 -0.3487885 -0.46301952 -0.17339315 0.034256436 0.45743015 0.48027837 -0.40433094
0.4811052 0.030624043 -0.2083412 -0.076035805 -0.18897721 0.01281977 0.36840498 -0.338115
00000000: 9603 d53e 72a8 3c3b c22d c4be 790a 573e
00000010: a97a e5be 7606 e13e 55d0 ac3c e0ec f33e
00000020: 106a 143f 9ded 393e 771e 4abd 0dfd 2a3d
00000030: 176a 0bbf ee23 cdbe 8800 043f 5e2d b33e
00000040: ca8f 093f 1742 953d 45a6 f63e c365 a23e
00000050: 5a9e f2bb 2e31 5d3e a49b 4dbe 349e b9be
00000060: d627 113e 3905 043e 371c c33e d49b 303e
00000070: f6d5 af3e c548 e3be 0c3a d4bd 4ddc 933e
00000080: 3758 d03e 2244 89bd a68f 083f c161 4fbe
00000090: 1aea b73e ad42 593e af52 b3be 07ad 76bd
000000a0: ac12 643e 94a0 b53d d7c4 d0be 0241 92be
000000b0: f17f 67bd 2393 a2be 5b84 7ebe d252 08be
000000c0: 6796 a93d 113e 04be e96c a73e eb06 0e3e
000000d0: 42f9 ab3d 628c 533d a6d3 ecbe 7e93 15be
000000e0: 7ab2 8dbe 2f9f 343e cd0f f4be 6bc4 4f3e
000000f0: 9d80 fbbe 38f2 f2bd 36c8 493d ce44 b13e
00000100: aa5c 5cbe e293 993e 1665 d43e c121 1dbe
00000110: f78c f5bc f836 d6bb 9fd9 89be 0bbd 0d3f
00000120: 589b ddbe 36ef d33e d3dd 64be 9c16 cb3b
00000130: 6857 883d 9fde 3b3e 5658 1cbc 78b6 ddbb
00000140: 555f e4be 7f83 d3be 4ab8 87be deb9 2b3e
00000150: d7b4 903e 5925 093f f0db 783e 09a5 9a3d
00000160: d6da 7d3c b99d b13e c4b7 7f3e c001 163d
00000170: df53 2bbe c811 783c f31a c43e a8b9 d63e
00000180: d082 d2be ef78 ebbe 5531 d73e f241 6c3e
00000190: 064d 32be 5c5c 14be 4266 7e3d 88f4 aebe
000001a0: 59ef 04bf fa08 55bd 2877 2b3e 19b9 56be
000001b0: 57b3 b1be ba9d c1be 9e97 a0be fa82 0a3f
000001c0: ad46 c4be 6894 b2be e510 edbe f98d 31be
000001d0: 7a50 0c3d 4934 ea3e 0ce7 f53e 7704 cfbe
000001e0: 6c53 f63e 46df fa3c 6557 55be a9b8 9bbd
000001f0: 3e83 41be 030a 523c 949f bc3e 691d adbe

gnn.gnn_node.convs.1.linear.weight f4 [128, 128]
0.014895978 -0.03838566 -0.040294383 0.0037463307 -0.09157534 0.011427172 -0.09615145 -0.033099227
-0.14172034 0.07415076 0.021629425 0.023106894 -0.020904463 -0.0141755575 -0.07765676 0.044502825
-0.098638274 -0.052710492 0.0365777 0.051866174 -0.050837092 0.036525343 -0.0011556948 -0.07028262
-0.054113016 -0.11853594 -0.012343497 -0.03859545 0.07230562 -0.008723639 -0.010111016 0.05195934
-0.044650204 0.07866183 -0.11109113 -0.03626722 0.074489735 -0.034410387 -0.021807643 -0.05928056
0.023956047 -0.09228747 -0.066478685 0.02934679 -0.037819315 -0.11651577 -0.06547493 -0.027941696
0.011986066 -0.014779121 0.010740142 0.029230043 0.039810214 -0.05115676 0.021441882 0.033197235
-0.084194176 -0.060689535 0.0113523435 0.020079806 0.041769747 -0.02679587 -0.04069364 -0.048196618
0.04460492 0.056512322 0.011825265 0.013765249 0.02393961 -0.0015736339 -0.033849448 -0.0849093
0.025643574 -0.01745063 -0.09649436 -0.1306057 -0.06261 0.07227003 -0.050568365 0.023778956
-0.09132691 -0.110310525 -0.02354035 -0.0050583743 -0.070042975 -0.07638665 -0.046735678 -0.039999813
0.02780019 0.027878147 -0.01488189 -0.08862339 -0.13456224 -0.08149373 -0.03447743 -0.054514173
0.057447426 -0.097758465 -0.1347644 -0.05759885 0.059308738 -0.0005255685 -0.037200954 -0.043163728
-0.010726416 -0.010891947 -0.062841564 -0.1148159 0.062283464 -0.027039126 -0.0050430517 0.06666948
-0.047842767 -0.09112206 0.07063753 -0.043511648 -0.09698072 0.06928383 -0.091405235 0.017839363
0.0075421645 0.010743484 0.039890703 -0.08462006 -0.0733239 0.06846558 -0.08806876 -0.094397224
0.02510817 0.091068394 -0.018075377 -0.10106442 0.01856442 -0.08483421 0.008032569 -0.064988516
-0.023301052 -0.050488606 0.08064761 -0.047948234 0.09387158 -0.07822649 0.039157573 -0.045531154
0.030907594 -0.002009908 -0.100613564 -0.08715187 -0.016170738 -0.048617058 0.02734111 0.06721327
-0.022240743 -0.01289944 0.11808267 -0.0014096275 -0.0498743 -0.02933153 -0.0040953546 0.10868273
0.0024292776 0.05678196 -0.06352402 -0.0041237557 0.044369455 0.09518099 0.031622887 -0.10629933
-0.12380775 -0.005384187 -0.069371864 -0.019869797 0.048748363 -0.10126516 0.025791775 0.0024535644
-0.003290775 0.046336196 -0.08320911 0.009662321 0.096056625 0.0762584 -0.009825859 0.09692743
-0.1402083 0.028848346 0.048584014 -0.04805263 0.041462637 -0.015036572 -0.014540923 0.03086034
0.06596244 0.05026937 0.07674483 -0.0086862985 0.057291023 0.024766736 0.0046450878 -0.07286355
0.07704328 -0.022460902 -0.00472446 -0.025329106 -0.09248069 -0.04106948 -0.138801 -0.0037755137
-0.04455183 0.09154667 -0.0048392564 0.05527429 0.015533019 0.02907503 -0.10938304 0.016266761
0.017996052 -0.10180627 -0.083881184 0.011371698 0.0123690115 -0.0059449994 -0.06428303 0.041250464
0.0635903 -0.044530723 -0.12299312 -0.092988804 0.04031916 0.012381298 0.004265377 0.012454547
0.02330423 -0.032733127 -0.09242588 -0.111958526 -0.007817566 -0.08568682 -0.019388625 -0.0037631425
0.03504153 -0.06798412 -0.06475667 -0.12259406 0.079142936 0.058486864 -0.027725542 0.0069956174
-0.054895878 -0.070503205 -0.14305617 0.113442294 -0.042317707 0.04600791 -0.11684424 -0.01453424
00000000: 430e 743c 483a 1dbd b90b 25bd 0085 753b
00000010: da8b bbbd 0939 3b3c 0deb c4bd 0e93 07bd
00000020: 231f 11be 5bdc 973d 3130 b13c ab4a bd3c
00000030: d63f abbc 9940 68bc 820a 9fbd 9848 363d
00000040: dd02 cabd f5e6 57bd 80d2 153d a071 543d
00000050: 8e3a 50bd 999b 153d af7a 97ba 56f0 8fbd
00000060: 9ca5 5dbd f9c2 f2bd 613c 4abc 4316 1ebd
00000070: f814 943d 98ed 0ebc ada8 25bc 51d3 543d
00000080: 22e3 36bd 7419 a13d bf83 e3bd f08c 14bd
00000090: 138e 983d e8f1 0cbd f1a5 b2bc 2cd0 72bd
000000a0: 793f c43c 3701 bdbd fa25 88bd ae68 f03c
000000b0: 6de8 1abd d29f eebd b817 86bd fce5 e4bc
000000c0: 3461 443c 2024 72bc 6cf7 2f3c d873 ef3c
000000d0: 0910 233d c089 51bd e3a6 af3c d3f9 073d
000000e0: ff6d acbd 9795 78bd 2eff 393c 687e a43c
000000f0: c116 2b3d 0383 dbbc 60ae 26bd d169 45bd
00000100: a6b3 363d 7779 673d c2be 413c a487 613c
00000110: 001d c43c 6442 ceba b8a5 0abd ede4 adbd
00000120: 7912 d23c a0f4 8ebc d69e c5bd 80bd 05be
00000130: ac39 80bd 4f02 943d c620 4fbd 16cc c23c
00000140: 9a09 bbbd 7cea e1bd b1d7 c0bc b8c0 a5bb
00000150: b172 8fbd 9b70 9cbd e96d 3fbd d8d6 23bd
00000160: 39bd e33c b660 e43c 2cd3 73bc 2e80 b5bd
00000170: afca 09be 2fe6 a6bd 3538 0dbd 414a 5fbd
00000180: fe4d 6b3d 9735 c8bd aeff 09be c6ec 6bbd
00000190: b8ed 723d 4ec6 09ba 0760 18bd 73cc 30bd
000001a0: d9bd 2fbc 2374 32bc 14b3 80bd 9924 ebbd
000001b0: f21c 7f3d 2881 ddbc 2f40 a5bb 028a 883d
000001c0: c7f6 43bd 349e babd 69aa 903d 4539 32bd
000001d0: d49d c6bd aee4 8d3d ab32 bbbd db23 923c
000001e0: 4324 f73b 7005 303c 6f64 233d 484d adbd
000001f0: d72a 96bd af37 8c3d 655d b4bd 5553 c1bd
00000200: a6af cd3c 1182 ba3d d012 94bc ddfa cebd
00000210: 6914 983c 8fbd adbd 099b 033c b318 85bd
00000220: d9e1 bebc 24cd 4ebd 932a a53d 5e65 44bd
00000230: be3f c03d 3635 a0bd b163 203d e07e 3abd
00000240: ec31 fd3c a9b8 03bb 7c0e cebd ae7c b2bd
00000250: 7f78 84bc ae22 47bd 77fa df3c 1ca7 893d
00000260: 3832 b6bc 2c58 53bc 54d5 f13d 40c3 b8ba
00000270: fe48 4cbd ad48 f0bc 5332 86bb 0d95 de3d
00000280: 8434 1f3b 3394 683d e218 82bd 9220 87bb
00000290: bfbc 353d 40ee c23d 0087 013d 77b3 d9bd
000002a0: eb8e fdbd d66d b0bb d612 8ebd fcc5 a2bc
000002b0: 5dac 473d 1c64 cfbd 4649 d33c fbcb 203b
000002c0: 0baa 57bb 06cb 3d3d 8a69 aabd b64e 1e3c
000002d0: 56b9 c43d 5d2d 9c3d a4fc 20bc e381 c63d
000002e0: c492 0fbe 5e53 ec3c 0800 473d d6d2 44bd
000002f0: bad4 293d f45b 76bc 0d3d 6ebc d3ce fc3c
00000300: 5117 873d 41e7 4d3d 652c 9d3d fa50 0ebc
00000310: fea9 6a3d 9ce3 ca3c d235 983b 7c39 95bd
00000320: dec8 9d3d edff b7bc a5cf 9abb fc7e cfbc
00000330: 8466 bdbd 7938 28bd d921 0ebe 9c6e 77bb
00000340: fb7b 36bd d27c bb3d a092 9ebb 4b67 623d
00000350: 347e 7e3c c22e ee3c 3704 e0bd df41 853c
00000360: 756c 933c ce7f d0bd e6c9 abbd 5c50 3a3c
00000370: 65a7 4a3c 45ce c2bb d2a6 83bd 3ff6 283d
00000380: a23b 823d d965 36bd d1e3 fbbd ea70 bebd
00000390: b425 253d edda 4a3c 93c4 8b3b 280e 4c3c
000003a0: 83e8 be3c 2c13 06bd c849 bdbd 834a e5bd
000003b0: 4015 00bc 927c afbd e5d4 9ebc 0e9f 76bb
000003c0: b587 0f3d 423b 8bbd 259f 84bd 9812 fbbd
000003d0: b115 a23d ec8f 6f3d ad20 e3bc 7e3b e53b
000003e0: 80da 60bd fc63 90bd 517d 12be 6f54 e83d
000003f0: 5555 2dbd ca72 3c3d 084c efbd 0521 6ebc

gnn.gnn_node.convs.1.linear.bias f4 [128]
0.00055722723 0.015873069 0.017374478 0.13273384 0.12522905 -0.00811263 0.009068477 -0.104850404
-0.06865705 -0.040706284 0.019910332 0.07786121 0.047167398 -0.005225896 0.027231017 -0.07814847
0.09503946 -0.11356066 0.02038849 0.019228693 0.059982307 0.102981605 0.051391233 -0.119756654
0.011664675 -0.08197211 -0.06826831 0.016423754 0.056101833 -0.14767936 -0.013502672 0.0013052699
-0.03708802 0.01602933 0.06938437 -0.13006797 -0.00031467262 0.069852084 -0.07098379 -0.06209161
0.00488562 -0.0974355 0.10847696 0.1503168 0.0598732 -0.059064288 -0.0137837585 0.016769866
-0.036888797 0.038887255 -0.03666067 -0.027637124 0.0013082259 -0.09199218 0.056541886 -0.10304696
-0.10526815 0.086710826 0.10434456 -0.04077997 0.09922492 -0.106234275 0.11153426 0.06704041
0.12938191 0.12695304 -0.06351383 0.037069533 -0.03305081 0.06973863 -0.103801236 -0.117862195
0.0049722036 0.021946877 0.0047485665 -0.067303605 0.024926621 -0.06446549 -0.07427621 0.07434764
0.022684952 0.074170336 -0.09381079 -0.00015179803 -0.0820813 -0.03019738 -0.013702738 -0.033629894
-0.09579484 0.04841783 0.04881299 0.03950022 -0.076175995 -0.059022002 -0.01672572 0.056651875
-0.05700806 -0.16164523 0.023823783 -0.05507546 -0.06295983 0.14096649 0.13330287 -0.06612166
0.012044217 -0.04218532 0.061130937 0.113810144 -0.016120575 0.0048089055 0.01858094 0.03231506
-0.12117372 0.038014118 0.06636057 0.11881606 -0.037524953 -0.10346411 0.0025922672 -0.008786779
-0.025839364 0.0047953115 0.0032786992 0.022521067 0.015996141 -0.012211276 -0.06266248 -0.07958798
00000000: e312 123a 3d08 823c ec54 8e3c 61eb 073e
00000010: 0b3c 003e d6ea 04bc f393 143c cfbb d6bd
00000020: 119c 8cbd a2bb 26bd fe1a a33c b375 9f3d
00000030: 9a32 413d fe3d abbb 9513 df3c 4e0c a0bd
00000040: 0ca4 c23d 7e92 e8bd c305 a73c 7e85 9d3c
00000050: 02b0 753d 05e8 d23d 9d7f 523d fa42 f5bd
00000060: 311d 3f3c fee0 a7bd 41d0 8bbd 1c8b 863c
00000070: 09cb 653d 4239 17be 503a 5dbc 9715 ab3a
00000080: 9ce9 17bd f14f 833c 6519 8e3d 8a30 05be
00000090: a5fa a4b9 9c0e 8f3d f35f 91bd c653 7ebd
000000a0: 8d17 a03b 438c c7bd 2b29 de3d a6ec 193e
000000b0: 9a3d 753d 65ed 71bd 46d5 61bc f560 893c
000000c0: b518 17bd 3e48 1f3d 8029 16bd 4067 e2bc
000000d0: c778 ab3a 6566 bcbd 7798 673d 490a d3bd
000000e0: d496 d7bd 7295 b13d 9ab2 d53d e608 27bd
000000f0: 6f36 cb3d 5b91 d9bd 136c e43d 7c4c 893d
00000100: b17c 043e faff 013e 8a13 82bd 39d6 173d
00000110: 4960 07bd 20d3 8e3d be95 d4bd bc61 f1bd
00000120: deed a23b f0c9 b33c dd99 9b3b 79d6 89bd
00000130: ea32 cc3c 7c06 84bd 201e 98bd 9343 983d
00000140: cbd5 b93c 9ee6 973d df1f c0bd f92b 1fb9
00000150: 3e1a a8bd 7f60 f7bc 7381 60bc 80bf 09bd
00000160: 1630 c4bd c651 463d 21f0 473d fcca 213d
00000170: 2902 9cbd 0ec1 71bd 6104 89bc cc0b 683d
00000180: 4981 69bd 5486 25be 182a c33c ce96 61bd
00000190: 15f1 80bd 8559 103e 8c80 083e cb6a 87bd
000001a0: 1c55 453c 84ca 2cbd 6f64 7a3d 4b15 e93d
000001b0: 4c0f 84bc 0694 9d3b 0e37 983c cc5c 043d
000001c0: ed29 f8bd b1b4 1b3d 0de8 873d d655 f33d
000001d0: c4b3 19bd fee4 d3bd 07e3 293b 6cf6 0fbc
000001e0: 13ad d3bc fd21 9d3b 72df 563b 1a7e b83c
000001f0: 570a 833c ce11 48bc 3055 80bd 06ff a2bd

gnn.gnn_node.batch_norms.0.weight f4 [128]
0.9614713 0.911683 0.9849469 0.9879108 1.0065246 0.99429387 0.9851646 0.9436947
0.9995349 0.9781021 1.0441113 1.0363623 1.0698079 0.94878024 0.93659353 0.9805531
1.0200776 1.0333871 0.96209526 0.96393 1.0378113 1.0126982 0.99486524 1.0842017
0.95658994 0.9629692 0.97578233 0.9826417 0.9799515 1.0011414 0.9097855 0.9876593
1.0027456 0.95469135 0.9599648 1.0500067 0.98322237 0.92358905 1.0628451 0.96224725
0.96377754 0.9627496 0.9532202 0.97083175 0.96660864 1.0609919 1.0454624 1.0353065
0.9842931 0.91509557 0.9456999 0.97824705 0.9450707 0.962457 0.9516988 1.0374324
0.93079984 1.0500957 1.0168839 0.9987913 1.0356834 0.9604336 1.0357602 1.0250998
0.98546195 0.981245 1.0071753 1.0807266 0.98211664 1.0181215 1.0141692 0.97897637
1.0222588 0.95429224 0.9513669 0.95447636 0.99738157 1.0269288 0.98113877 1.0286914
0.9566705 1.0524085 0.9808197 0.98497456 1.0075597 0.9809591 1.0016258 0.96516305
0.9315949 0.94783705 0.9923141 0.9177406 0.99009806 1.0361573 1.024514 0.9883539
1.0295305 1.0473151 0.9688239 1.0049118 0.9676129 0.94454926 0.95678633 0.9945468
1.0374054 0.93791217 0.9744933 0.9350146 1.028776 1.0747265 0.98768944 1.001347
0.9737154 1.0583128 1.0362035 1.0507578 1.0229266 1.0053078 0.9652479 1.0674375
0.9931526 0.97118706 1.0031677 1.0177681 1.0201771 0.9345203 0.99350744 1.0365149
00000000: fc22 763f 0f64 693f 7b25 7c3f b9e7 7c3f
00000010: ccd5 803f 0b8a 7e3f bf33 7c3f fa95 713f
00000020: 85e1 7f3f e664 7a3f 70a5 853f 85a7 843f
00000030: 77ef 883f 43e3 723f 98c4 6f3f 8705 7b3f
00000040: e791 823f 0746 843f e04b 763f 1ec4 763f
00000050: 00d7 843f 18a0 813f 7daf 7e3f 1fc7 8a3f
00000060: 14e3 743f 2685 763f dfcc 793f 688e 7b3f
00000070: 1ade 7a3f 6725 803f b4e7 683f 3dd7 7c3f
00000080: f859 803f a766 743f 41c0 753f 9f66 863f
00000090: 76b4 7b3f 5570 6c3f 4f0b 883f d655 763f
000000a0: 20ba 763f c276 763f 3d06 743f 6e88 783f
000000b0: aa73 773f 95ce 873f b6d1 853f ec84 843f
000000c0: a2fa 7b3f b443 6a3f 6319 723f 666e 7a3f
000000d0: 27f0 713f 9563 763f 88a2 733f 96ca 843f
000000e0: e648 6e3f 8969 863f 4029 823f c9b0 7f3f
000000f0: 4691 843f fade 753f ca93 843f 7836 833f
00000100: 3c47 7c3f df32 7b3f 1feb 803f 4055 8a3f
00000110: ff6b 7b3f ce51 823f 4cd0 813f 329e 7a3f
00000120: 60d9 823f 7f4c 743f c88c 733f 9058 743f
00000130: 6654 7f3f 6772 833f e92b 7b3f 29ac 833f
00000140: 5ce8 743f 52b5 863f 0017 7b3f 4b27 7c3f
00000150: b7f7 803f 2320 7b3f 4635 803f ed14 773f
00000160: 017d 6e3f 73a5 723f 4c08 7e3f 0cf1 6a3f
00000170: 1177 7d3f cda0 843f 4623 833f c304 7d3f
00000180: a8c7 833f 6c0e 863f d804 783f f3a0 803f
00000190: 7bb5 773f fbcd 713f f3ef 743f 9e9a 7e3f
000001a0: b3c9 843f 031b 703f 6578 793f 1e5d 6f3f
000001b0: efae 833f a390 893f 37d9 7c3f 232c 803f
000001c0: 6a45 793f cb76 873f 51a2 843f 3b7f 863f
000001d0: 42ef 823f edad 803f 7d1a 773f cba1 883f
000001e0: 403f 7e3f b79f 783f cd67 803f 3a46 823f
000001f0: 2a95 823f b93c 6f3f 8156 7e3f 85ac 843f

gnn.gnn_node.batch_norms.0.bias f4 [128]
-0.06806567 -0.05839106 0.014328407 0.040336613 0.038601853 -0.050672807 0.113442145 -0.029717354
-0.02741127 0.026332477 0.030374393 0.0038024166 0.05554126 -0.01704598 -0.045873877 -0.08979473
-0.0030838365 0.02425805 -0.018514125 -0.074107245 -0.026646003 0.048567582 0.014697374 0.06099019
-0.039365176 -0.10883497 -0.03845111 0.024664562 0.0012135699 -0.013737449 0.11946519 0.054429606
-0.10945134 -0.061297745 -0.08301009 0.109769806 -0.12172096 -0.047622308 0.045134436 0.11309985
-0.07436542 -0.038604837 0.031313155 0.057692688 -0.0009228603 0.068214834 0.03984369 0.016214866
-0.027002612 0.0027537432 -0.01709232 -0.019431863 0.021373618 0.024578044 -0.02362866 0.028411126
-0.05409661 0.01686807 0.036322802 -0.085663676 0.032041233 0.06532347 0.066712886 -0.015458771
0.019551704 -0.17293763 -0.06235897 0.06832781 -0.026378766 0.023542518 0.018779507 -0.020932704
0.06445541 0.004727394 -0.012424761 -0.00861237 0.05445607 0.03762027 0.06032832 0.009272073
-0.030889768 0.0513225 0.00033314695 0.035839725 -0.02930862 -0.00075217977 0.0895237 -0.060014553
0.01575656 0.031705607 0.033332855 0.1248245 0.028458081 0.041482866 0.042237442 -0.018001223
0.008797608 0.046620797 -0.0125957625 0.14402898 -0.034084804 -0.03758304 0.12917496 0.06785691
0.037091136 -0.0432983 -0.058708392 0.023430951 0.049994994 0.066277824 -0.005434173 -0.10479253
0.007970498 0.06507537 0.015726026 0.07174865 0.0024955785 -0.0679172 0.048615854 0.067925334
-0.019743212 0.10018669 0.029613877 0.09059742 -0.01622666 -0.034122813 -0.084013745 0.021253424
00000000: 0466 8bbd 772b 6fbd b2c1 6a3c 0138 253d
00000010: fa1c 1e3d 4a8e 4fbd 5b54 e83d cf71 f3bc
00000020: 9a8d e0bc 35b7 d73c b8d3 f83c f731 793b
00000030: 3b7f 633d 03a4 8bbc 3fe6 3bbd 4de6 b7bd
00000040: 311a 4abb d1b8 c63c efaa 97bc 8ac5 97bd
00000050: b848 dabc cdee 463d 41cd 703c d9d0 793d
00000060: 613d 21bd dee4 debd e97e 1dbd 560d ca3c
00000070: a610 9f3a 0a13 61bc 2aaa f43d 94f1 5e3d
00000080: 0628 e0bd 5813 7bbd 3201 aabd fece e03d
00000090: d748 f9bd 9c0f 43bd e3de 383d e5a0 e73d
000000a0: e64c 98bd 1b20 1ebd 3942 003d 2b4f 6c3d
000000b0: 1bec 71ba 38b4 8b3d 2333 233d 0ad5 843c
000000c0: 9534 ddbc 2578 343b 3105 8cbc 922f 9fbc
000000d0: ba17 af3c e557 c93c e490 c1bc 73be e83c
000000e0: 6894 5dbd e82e 8a3c 38c7 143d 7070 afbd
000000f0: ab3d 033d 50c8 853d c4a0 883d c946 7dbc
00000100: e52a a03c 9016 31be 1f6c 7fbd 73ef 8b3d
00000110: 4818 d8bc 3ddc c03c 7bd7 993c 107b abbc
00000120: 3301 843d 41e8 9a3b 3a91 4bbc e61a 0dbc
00000130: 540d 5f3d b617 1a3d d41a 773d e5e9 173c
00000140: 8a0c fdbc 8b37 523d 3aaa ae39 adcc 123d
00000150: a218 f0bc ee2d 45ba 3458 b73d d2d1 75bd
00000160: e713 813c bddd 013d 0888 083d fda3 ff3d
00000170: ec20 e93c f0e9 293d 2b01 2d3d 4d77 93bc
00000180: d823 103c 73f5 3e3d 755e 4ebc 557c 133e
00000190: 829c 0bbd acf0 19bd 7146 043e 90f8 8a3d
000001a0: e0ec 173d 8f59 31bd 3678 70bd 44f2 bf3c
000001b0: 8dc7 4c3d abbc 873d 2611 b2bb 779d d6bd
000001c0: b196 023c 3c46 853d ded3 803c f5f0 923d
000001d0: dc8c 233b 2c18 8bbd 6b21 473d 701c 8b3d
000001e0: 84bc a1bc ae2e cd3d cd98 f23c 248b b93d
000001f0: c6ed 84bc 5dc4 0bbd 660f acbd a91b ae3c

gnn.gnn_node.batch_norms.0.running_mean f4 [128]
0.2665042 -0.22459954 -0.13399121 0.46634445 -0.18488277 -0.0043329326 0.48006922 0.6098934
0.8934995 -0.24431165 -0.3771303 -0.098526195 -0.35116357 -0.29460758 0.56049246 0.15941949
0.5962381 -0.29422835 0.041229405 0.041216407 -0.10003993 -0.2180768 -0.09174125 -0.16272873
0.08068319 0.24703117 -0.09460011 -0.5273469 -0.31497496 -0.4939478 0.5107932 -0.19725177
0.28241283 -0.58282024 0.83443725 -0.12732643 0.13123389 -0.2980387 -0.56770223 0.44250014
-0.049582154 -0.14882226 0.14543368 0.18055059 -0.06699725 -0.0026674985 -0.3186321 -0.52831155
0.078157075 -0.101808146 0.39822006 0.53772575 -0.25484285 -0.40760052 -0.16407788 -0.47702348
-0.07884893 -0.10030398 -0.56186 0.15124772 -0.46100485 0.42977822 0.5682937 -3.440257e-05
-0.27592748 0.10779257 0.012554505 -0.46278477 -0.1247459 -0.09302199 -0.65395474 0.5865192
-0.13975233 0.49496722 -0.7213896 0.43884367 0.24800962 -0.21696104 0.23100735 -0.24991445
-0.74264324 -0.6176988 0.10499486 -0.08754391 -0.027330235 0.36808613 0.5255968 -0.08784917
0.19431031 0.2588942 0.49932837 0.38445798 0.14526355 -0.26909277 0.47554344 -0.11947218
-0.6051124 -0.38505822 0.7850083 0.34060183 -0.25929174 -0.49643838 0.4269656 0.16490188
-0.13244161 -0.21917611 0.10059097 0.23327433 -0.18993819 -0.13031377 -0.23126025 0.30481794
-0.33096352 -0.15103479 -0.68086666 -0.11847476 -0.17617805 0.22613053 0.6263598 -0.610504
0.46332657 0.45341143 0.07734942 -0.15753654 -0.027907126 -0.2324059 0.6043205 -0.24309647
00000000: 3d73 883e 6cfd 65be fe34 09be b3c4 ee3e
00000010: e951 3dbe 46fb 8dbb a2cb f53e f921 1c3f
00000020: 62bc 643f d52c 7abe 3917 c1be 1ac8 c9bd
00000030: b6cb b3be ced6 96be 6f7c 0f3f dd3e 233e
00000040: 0fa3 183f 19a5 96be 2ae0 283d 89d2 283d
00000050: bce1 ccbd 864f 5fbe d6e2 bbbd 5ca2 26be
00000060: 3a3d a53d bdf5 7c3e b4bd c1bd 3500 07bf
00000070: 6644 a1be bae6 fcbe 58c3 023f 5efc 49be
00000080: 6a98 903e b533 15bf ae9d 553f dc61 02be
00000090: 2d62 063e 8798 98be ef54 11bf 618f e23e
000000a0: a816 4bbd dd64 18be 91ec 143e 41e2 383e
000000b0: db35 89bd 33d1 2ebb bf23 a3be 6d3f 07bf
000000c0: d110 a03d ca80 d0bd 80e3 cb3e 65a8 093f
000000d0: c37a 82be 04b1 d0be 0804 28be 6c3c f4be
000000e0: 8c7b a1bd 2c6c cdbd 0fd6 0fbf afe0 1a3e
000000f0: d408 ecbe e40b dc3e b27b 113f 7a4b 10b8
00000100: 5e46 8dbe 5ac2 dc3d 69b1 4d3c 20f2 ecbe
00000110: c77a ffbd 5082 bebd 9469 27bf 1f26 163f
00000120: 3c1b 0fbe 586c fd3e fdac 38bf 1eb0 e03e
00000130: 3cf6 7d3e 092b 5ebe 318d 6c3e 93e9 7fbe
00000140: de1d 3ebf 8221 1ebf 8c07 d73d 394a b3bd
00000150: a8e3 dfbc c975 bc3e 838d 063f 44ea b3bd
00000160: 48f9 463e c88d 843e f8a7 ff3e add7 c43e
00000170: f8bf 143e 87c6 89be 6e7a f33e d5ad f4bd
00000180: a5e8 1abf 5a26 c5be 4ef6 483f 5d63 ae3e
00000190: e3c1 84be 2c2d febe 3c9b da3e 0adc 283e
000001a0: c69e 07be b46f 60be a302 ce3d 77df 6e3e
000001b0: 287f 42be f970 05be 7dcf 6cbe 1911 9c3e
000001c0: 0d74 a9be dda8 1abe 474d 2ebf e5a2 f2bd
000001d0: 0568 34be c38e 673e 1e59 203f fd49 1cbf
000001e0: 2439 ed3e 8b25 e83e 5f69 9e3d 4251 21be
000001f0: 7c9d e4bc d0fb 6dbe c0b4 1a3f 48ee 78be

gnn.gnn_node.batch_norms.0.running_var f4 [128]
9.63558 3.806423 5.5776334 18.61464 6.3657146 1.1903096 15.19314 30.368046
60.54866 4.165507 12.058691 1.8764819 9.435873 12.069793 27.052727 4.5762215
21.468954 6.269041 0.46716315 0.50897753 1.1180193 2.9425805 3.8066876 0.7942071
0.5944979 4.8538966 1.0197704 23.088781 6.390932 22.416904 22.356997 3.5731676
9.997526 26.016064 53.176983 4.0826488 4.0912647 7.8708687 24.625477 15.056049
0.26755255 2.9372654 2.8628469 2.916151 0.3532427 0.18890686 7.8268056 20.57803
1.4500141 0.83310497 8.681542 27.240877 5.2823257 12.908001 3.4979103 14.858136
0.7034359 0.45444185 27.031408 1.576432 20.101437 13.853413 22.387854 2.6079276
3.9710374 1.6566724 2.302537 14.026044 1.364785 0.38436672 38.682262 22.018917
2.5694723 19.660711 39.429802 14.5973 4.012535 2.8693671 3.3361394 4.182913
41.202393 26.429369 0.6920145 2.092828 1.2229655 11.15319 19.590473 1.4914583
3.0499988 4.4175835 15.997558 14.485315 1.7163728 5.930826 12.661772 2.0962663
28.803465 10.806165 44.369778 8.489599 5.2101574 16.87075 13.149725 2.0526206
2.213623 3.2945566 1.966489 3.9329524 6.141231 1.9115839 8.228399 13.004486
8.826482 4.0041866 32.356827 3.1608684 3.019599 9.935069 30.466833 23.547403
19.799187 17.25276 0.73442864 1.9072641 0.03613891 6.3484216 24.376547 5.0730467
00000000: 562b 1a41 6f9c 7340 f97b b240 c8ea 9441
00000010: efb3 cb40 115c 983f 1a17 7341 c2f1 f241
00000020: d431 7242 d54b 8540 66f0 4041 8f30 f03f
00000030: 56f9 1641 df1d 4141 fc6b d841 6870 9240
00000040: 6bc0 ab41 fc9b c840 0230 ef3e 5a4c 023f
00000050: 421b 8f3f 3d53 3c40 c5a0 7340 2851 4b3f
00000060: 0431 183f 1f53 9b40 d687 823f d3b5 b841
00000070: 8482 cc40 d255 b341 21db b241 c7ae 6440
00000080: def5 1f41 e620 d041 3bb5 5442 0fa5 8240
00000090: a4eb 8240 28de fb40 fa00 c541 94e5 7041
000000a0: a6fc 883e 28fc 3b40 e238 3740 38a2 3a40
000000b0: 3adc b43e cd70 413e 3175 fa40 ce9f a441
000000c0: 109a b93f 5e46 553f 99e7 0a41 51ed d941
000000d0: d008 a940 2c87 4e41 c3dd 5f40 edba 6d41
000000e0: 6014 343f 9aac e83e 5340 d841 86c8 c93f
000000f0: becf a041 94a7 5d41 531a b341 49e8 2640
00000100: 7a25 7e40 d70d d43f c45c 1340 ad6a 6041
00000110: 46b1 ae3f b7cb c43e a3ba 1a42 be26 b041
00000120: 3c72 2440 2349 9d41 1eb8 1d42 8a8e 6941
00000130: b066 8040 b6a3 3740 4f83 5540 6cda 8540
00000140: 40cf 2442 596f d341 dd27 313f e5f0 0540
00000150: 228a 9c3f 7773 3241 4ab9 9c41 1be8 be3f
00000160: 2e33 4340 d85c 8d40 fff5 7f41 dac3 6741
00000170: 1bb2 db3f 54c9 bd40 9e96 4a41 3a29 0640
00000180: 7f6d e641 0de6 2c41 a77a 3142 66d5 0741
00000190: 9cb9 a640 4cf7 8641 4665 5241 235e 0340
000001a0: 00ac 0d40 04da 5240 e9b5 fb3f 7eb5 7b40
000001b0: f784 c440 c8ae f43f 86a7 0341 6012 5041
000001c0: 4539 0d41 4c22 8040 646d 0142 ab4b 4a40
000001d0: 1c41 4140 0bf6 1e41 13bc f341 1561 bc41
000001e0: bc64 9e41 a705 8a41 8403 3c3f 3b21 f43f
000001f0: 6506 143d 4526 cb40 2b03 c341 6656 a240

gnn.gnn_node.batch_norms.1.weight f4 [128]
1.0056933 0.9760054 0.953485 0.8614282 0.9801534 0.89212656 0.99342144 1.0604689
0.9801364 0.99817646 1.0032927 0.9866085 0.9803665 1.0023196 0.9958273 0.99438816
0.9882855 0.9623562 0.88977003 0.99246347 0.9659991 0.8928383 0.91219324 0.99663407
0.9128616 0.9926033 0.95450354 0.9512453 0.9741953 1.0323257 1.0186753 0.9902501
1.0349151 0.7717934 0.9680012 1.0010245 0.99961424 0.9153633 0.9724024 0.962529
0.9896122 0.9862843 0.9581751 0.95492965 0.99993145 0.94928366 0.918252 0.9873781
0.9841397 0.98184556 0.872116 0.97704345 0.9667942 0.9598347 0.98956025 1.0110729
0.92791206 0.9642242 0.91148686 0.98921514 0.8873835 0.94426584 0.91047907 0.9468788
0.9952325 1.0207719 0.88161516 0.98346806 0.97921056 0.9993263 0.97676486 0.9871369
0.9210867 0.990295 0.9891454 0.97300476 0.9461375 0.98546684 0.9642362 0.91598094
0.9931084 1.0191268 0.95241225 0.9678807 0.9572049 0.9280786 0.8712436 0.96193093
0.9459072 0.951333 0.9872846 0.96380043 0.9511571 0.95885646 0.9519564 0.97702384
0.9725618 0.95577615 0.9682675 0.9863793 0.9966903 1.0011122 0.85221326 0.93152636
0.9742944 0.97700506 0.8649605 0.9904085 1.0328339 0.9712463 0.9019018 0.9823106
0.9663117 0.9993348 0.9029145 0.98366916 0.97532135 0.9613779 0.9774509 1.0083848
0.9598894 0.9704419 0.9978659 0.9541445 0.94700235 0.9877722 0.9788427 0.9795782
00000000: 8fba 803f 7ddb 793f 9817 743f 8f86 5c3f
00000010: 55eb 7a3f 6862 643f de50 7e3f 72bd 873f
00000020: 38ea 7a3f 7e88 7f3f e56b 803f 6092 7c3f
00000030: 4df9 7a3f 024c 803f 8aee 7e3f 3990 7e3f
00000040: 4700 7d3f fa5c 763f f8c7 633f 1612 7e3f
00000050: b84b 773f 0d91 643f 7f85 693f 6923 7f3f
00000060: 4cb1 693f 401b 7e3f 585a 743f d084 733f
00000070: dd64 793f 4023 843f f463 823f 0881 7d3f
00000080: 1978 843f 4194 453f edce 773f 9221 803f
00000090: b8e6 7f3f 4055 6a3f 5def 783f 4d68 763f
000000a0: 3a57 7d3f 217d 7c3f f74a 753f 4576 743f
000000b0: 82fb 7f3f 4104 733f 9012 6b3f d0c4 7c3f
000000c0: 94f0 7b3f 3b5a 7b3f ff42 5f3f 851f 7a3f
000000d0: d37f 773f bab7 753f d253 7d3f d66a 813f
000000e0: a58b 6d3f 66d7 763f 3457 693f 343d 7d3f
000000f0: 912b 633f 68bb 713f 2815 693f a666 723f
00000100: 8fc7 7e3f a7a8 823f 88b1 613f 90c4 7b3f
00000110: 8bad 7a3f d9d3 7f3f 430d 7a3f 01b5 7c3f
00000120: 57cc 6b3f f983 7d3f a238 7d3f d716 793f
00000130: 1136 723f 8e47 7c3f 2fd8 763f ba7d 6a3f
00000140: 5a3c 7e3f bf72 823f 4ad1 733f 08c7 773f
00000150: 610b 753f 8f96 6d3f d209 5f3f 1b41 763f
00000160: f926 723f 8f8a 733f afbe 7c3f a0bb 763f
00000170: 087f 733f 9e77 753f 6ab3 733f 3c1e 7a3f
00000180: cff9 783f bfad 743f 61e0 773f 5b83 7c3f
00000190: 1827 7f3f 7224 803f a62a 5a3f 8378 6e3f
000001a0: 5c6b 793f 011d 7a3f 0d6e 5d3f 698b 7d3f
000001b0: e733 843f 99a3 783f 09e3 663f b578 7b3f
000001c0: 3460 773f 68d4 7f3f 6825 673f bed1 7b3f
000001d0: a9ae 793f dd1c 763f 393a 7a3f c112 813f
000001e0: 50bb 753f e16e 783f 2474 7f3f d042 743f
000001f0: bf6e 723f a4de 7c3f 6f95 7a3f a3c5 7a3f

gnn.gnn_node.batch_norms.1.bias f4 [128]
-0.00043354413 -0.027206007 -0.007599569 0.002655806 -0.01399984 -0.017653966 -0.006530071 -0.034729637
0.04128232 -0.012592368 -0.005484438 -0.041933343 -0.06443983 0.020229846 -0.007834638 -0.0154529065
-0.014580305 -0.013347552 -0.0086815655 -0.008330016 -0.03637323 0.0032100673 0.02552978 0.0100471005
-0.021116873 -0.011927867 0.05377092 -0.02212892 0.043998074 -0.019532824 -0.025300175 0.01143761
-0.014773577 -0.006931299 -0.016613487 -0.010519687 -0.02719254 -0.017942391 -0.03801575 -0.013313606
-0.015199899 0.015080512 -0.006724704 -0.054986406 -0.0012378619 -0.013618557 -0.011478108 -0.014868231
-0.0150609 -0.06743045 -0.011500277 -0.019728644 0.0019373363 -0.018120632 0.011178772 -0.014554465
-0.045975596 -0.042731266 -0.019317476 -0.013752574 0.039161477 -0.03870594 -0.003123281 -0.006443482
-0.044691235 -0.008945296 -0.013451741 -0.00028761002 -0.006181455 -0.029158486 0.01740122 -0.026740823
-0.009062386 0.012252341 0.016977942 0.009579504 -0.0114483135 0.0026905942 -0.023577342 0.0021946593
-0.02422759 -0.014442003 0.0028365026 -0.00658714 -0.017682914 -0.0023076402 -0.015867133 -0.021249512
0.04893704 -0.059902348 -0.004808248 -0.023881571 -0.006025001 -0.037106622 -0.005897863 -0.056326974
0.043569233 0.03030536 0.012872351 -0.012010904 -0.025363224 -0.019147925 -0.031351462 -0.025303926
0.0302093 0.049404733 -0.04491511 -0.023756616 0.014726413 -0.01997761 -0.005678667 -0.008889481
-0.015196873 0.00023841615 -0.0066715945 -0.036044843 -0.033525422 -0.007650373 -0.025356784 -0.007942364
-0.011612106 -0.0066468846 0.0343787 0.00599395 -0.023221258 0.014212312 -0.029645469 0.008195256
00000000: 4f4d e3b9 22df debc ce05 f9bb 080d 2e3b
00000010: 965f 65bc 0d9f 90bc 35fa d5bb aa40 0ebd
00000020: a617 293d 3850 4ebc cdb6 b3bb 4cc2 2bbd
00000030: 08f9 83bd 10b9 a53c da5c 00bc 302e 7dbc
00000040: 3be2 6ebc b1af 5abc 203d 0ebc 9f7a 08bc
00000050: 19fc 14bd fe5f 523b d423 d13c 989c 243c
00000060: 4bfd acbc 1a6d 43bc e53e 5c3d b547 b5bc
00000070: 5337 343d 4d03 a0bc 5042 cfbc d064 3b3c
00000080: e00c 72bc f31f e3bb 0219 88bc c45a 2cbc
00000090: e4c2 debc ecfb 92bc 67b6 1bbd 5021 5abc
000000a0: ff08 79bc 4014 773c e85a dcbb 6d39 61bd
000000b0: c13f a2ba 5e20 5fbc ad0e 3cbc e199 73bc
000000c0: fec1 76bc fa18 8abd a86b 3cbc f79d a1bc
000000d0: 38ee fd3a b871 94bc 2b27 373c da75 6ebc
000000e0: e850 3cbd fb06 2fbd af3f 9ebc 7a52 61bc
000000f0: c967 203d 1f8a 1ebd f6af 4cbb d823 d3bb
00000100: 280e 37bd 4a8f 12bc b164 5cbc 5dca 96b9
00000110: ce8d cabb c7dd eebc 018d 8e3c 920f dbbc
00000120: 677a 14bc 0bbe 483c 5315 8b3c 5af3 1c3c
00000130: b591 3bbc ae54 303b 4525 c1bc 46d4 0f3b
00000140: f078 c6bc 279e 6cbc 9ee4 393b efd8 d7bb
00000150: c2db 90bc c73b 17bb cafb 81bc 7513 aebc
00000160: 3572 483d 2a5c 75bd 828e 9dbb 49a3 c3bc
00000170: 5f6d c5bb 1dfd 17bd dc42 c1bb 1db7 66bd
00000180: a775 323d f242 f83c 8ee6 523c 62c9 44bc
00000190: 89c6 cfbc 1cdc 9cbc 646a 00bd 2e4a cfbc
000001a0: 7e79 f73c 9e5c 4a3d e8f8 37bd 3c9d c2bc
000001b0: 0e47 713c 16a8 a3bc 1d14 babb 30a5 11bc
000001c0: 4efc 78bc 59ff 7939 649d dabb c2a3 13bd
000001d0: f451 09bd fbaf fabb 08b9 cfbc b020 02bc
000001e0: b440 3ebc 1cce d9bb aed0 0c3d e668 c43b
000001f0: 823a bebc c2da 683c 0edb f2bc 6545 063c

gnn.gnn_node.batch_norms.1.running_mean f4 [128]
-0.15171082 -0.050977077 0.12815365 0.30727872 0.20756005 0.0811839 -0.118683696 -0.23668803
-0.21989508 -0.31721923 -0.21331178 0.20478664 0.15413925 -0.10156381 -0.18934615 -0.10811968
0.1939698 -0.21570964 -0.09792549 -0.11254228 0.19817026 0.39537078 0.01001697 -0.37003493
-0.1013649 -0.22794628 -0.4087745 0.14257924 -0.049062856 -0.46597898 -0.28736997 -0.14500405
-0.4606714 0.29375297 0.24724063 -0.3694949 0.06309881 -0.09025046 -0.19399624 -0.1619907
-0.075212754 -0.25521576 0.30709428 0.19698997 -0.1047487 -0.17590183 0.02742782 0.13485774
-0.1765267 0.12942638 -0.12615342 -0.067891814 -0.19889377 -0.35180846 -0.102981746 -0.45147496
-0.16203143 0.36453778 0.24291971 -0.115014434 0.14997517 -0.14897223 0.27091444 0.12712565
0.33508348 0.39959207 -0.23939614 -0.113433935 -0.1417276 0.2672505 -0.1409036 -0.46161565
0.3634969 -0.09223962 -0.22171237 -0.24351536 0.10762367 -0.34888262 -0.33996567 0.15481949
-0.091960356 0.3710062 -0.25122762 -0.17922272 -0.105686836 0.19815068 0.12368637 0.20720717
-0.28677434 -0.09146524 -0.11854443 0.25957924 -0.23929146 -0.14621405 0.106858365 0.2204111
-0.20034164 -0.37786737 0.2810862 -0.3289396 -0.32276833 0.29886225 0.27623346 -0.13962927
0.20881273 -0.19657822 0.16926059 0.23478974 -0.16494535 0.11563195 0.1907313 -0.05295505
-0.26713833 -0.10059621 0.12666239 0.3010018 -0.38639888 -0.21491195 -0.08692422 -0.050995063
0.17437844 0.3052421 -0.12762673 -0.07658414 0.12401938 -0.09583009 -0.16106975 -0.11503856
00000000: 155a 1bbe 57cd 50bd b63a 033e a353 9d3e
00000010: 9f8a 543e bf43 a63d 7010 f3bd 595e 72be
00000020: 2d2c 61be 8f6a a2be 676e 5abe 97b3 513e
00000030: aed6 1d3e b000 d0bd f5e3 41be da6d ddbd
00000040: 05a0 463e fde2 5cbe 298d c8bd 917c e6bd
00000050: 25ed 4a3e 0a6e ca3e 381e 243c 3875 bdbe
00000060: 6798 cfbd c06a 69be e44a d1be 4b00 123e
00000070: 22f6 48bd cc94 eebe 2822 93be f17b 14be
00000080: 1fdd ebbe ca66 963e a62c 7d3e 6f2e bdbe
00000090: f339 813d 3cd5 b8bd f3a6 46be e4e0 25be
000000a0: 2509 9abd a4ab 82be 763b 9d3e bdb7 493e
000000b0: 7d86 d6bd 9c1f 34be 4fb0 e03c 2618 0a3e
000000c0: 6ac3 34be 5988 043e 5d2e 01be dd0a 8bbd
000000d0: cfaa 4bbe 3d20 b4be 18e8 d2bd ba27 e7be
000000e0: 91eb 25be b2a4 ba3e f2bf 783e b08c ebbd
000000f0: 1793 193e 2d8c 18be 4cb5 8a3e 3a2d 023e
00000100: 1090 ab3e 5597 cc3e 4324 75be 0d50 e8bd
00000110: 0a21 11be 0fd5 883e 0949 10be e358 ecbe
00000120: 441c ba3e 20e8 bcbd 9108 63be 175c 79be
00000130: cc69 dc3d bea0 b2be fb0f aebe 0089 1e3e
00000140: b655 bcbd 86f4 bd3e e8a0 80be 2986 37be
00000150: 5772 d8bd 03e8 4a3e 484f fd3d 1e2e 543e
00000160: 16d4 92be 2152 bbbd 6cc7 f2bd 92e7 843e
00000170: d208 75be 23b9 15be 8fd8 da3d 73b3 613e
00000180: 5c26 4dbe d577 c1be 88ea 8f3e c56a a8be
00000190: e441 a5be 7904 993e 796e 8d3e fafa 0ebe
000001a0: 01d3 553e cd4b 49be a652 2d3e b96c 703e
000001b0: 6fe7 28be 72d0 ec3d 114f 433e 65e7 58bd
000001c0: 5bc6 88be 6305 cebd c9b3 013e e81c 9a3e
000001d0: 13d6 c5be e111 5cbe 5305 b2bd 33e0 50bd
000001e0: 4390 323e b148 9c3e 95b0 02be 25d8 9cbd
000001f0: dffd fd3d 9142 c4bd 78ef 24be 5699 ebbd

gnn.gnn_node.batch_norms.1.running_var f4 [128]
3.510319 1.5727074 1.5339103 6.244058 2.1637425 0.39828655 1.9867734 6.818137
4.612194 7.8135667 7.343801 2.0208356 1.1373304 0.916414 4.1487145 0.8877652
1.9713149 4.766421 3.4836407 1.3484135 2.1000903 15.898643 0.49476522 13.34467
3.2575138 4.8011146 12.010234 1.3921716 0.46009442 22.769274 8.541269 3.1876247
18.56398 10.094162 3.9898765 14.665502 0.559636 2.9737902 3.1491976 2.8225698
0.5849005 5.632181 6.595671 2.361519 2.5477343 4.059881 0.12859744 4.0987515
2.517398 5.105233 2.462359 0.54665107 5.308079 14.037009 1.7482132 19.78273
2.3779416 7.7341557 3.725158 1.0892986 1.3173989 2.1965568 6.57142 3.6355252
7.0702424 10.839815 6.7798576 1.9108918 1.6467528 12.257229 1.5830889 22.148531
15.594242 0.70640934 6.4138556 5.346829 2.71924 8.04443 8.930767 1.6635408
0.9343504 9.34011 6.127987 2.8068576 1.036532 3.8674822 0.757997 7.744425
7.9451346 3.6799848 1.8927664 6.392722 8.725334 1.9767659 0.8047749 4.3929696
4.73616 13.914079 7.3686028 13.57171 9.382988 4.9976783 5.27086 2.3665798
4.6647687 3.7648888 1.8981043 3.3847587 3.6813183 0.7057559 3.292859 0.682692
6.782577 1.6172923 0.82708156 4.7884836 10.475833 4.5269346 1.8014654 0.34123823
6.2668915 9.13127 1.4996841 1.9343195 0.8191084 1.1595595 2.3365567 1.4014025
00000000: 11a9 6040 7a4e c93f 2c57 c43f 53cf c740
00000010: c27a 0a40 37ec cb3e 974e fe3f 2e2e da40
00000020: 1897 9340 bd08 fa40 6b00 eb40 5f55 0140
00000030: 0b94 913f 1c9a 6a3f 45c2 8440 9544 633f
00000040: 0c54 fc3f 8586 9840 f8f3 5e40 d098 ac3f
00000050: e167 0640 d760 7e41 de51 fd3e c583 5541
00000060: 1b7b 5040 bba2 9940 eb29 4041 ae32 b23f
00000070: 7f91 eb3e 7927 b641 0aa9 0841 0b02 4c40
00000080: 0883 9441 b081 2141 235a 7f40 e5a5 6a41
00000090: 4e44 0f3f 9452 3e40 748c 4940 fca4 3440
000000a0: 0abc 153f d43a b440 bd0f d340 2123 1740
000000b0: 140e 2340 8cea 8140 0caf 033e f928 8340
000000c0: 0d1d 2140 125e a340 4a97 1d40 53f1 0b3f
000000d0: c8db a940 9797 6041 73c5 df3f 0843 9e41
000000e0: 3230 1840 347e f740 fd68 6e40 236e 8b3f
000000f0: 87a0 a83f 6394 0c40 1349 d240 72ac 6840
00000100: 6d3f e240 e26f 2d41 98f4 d840 1a98 f43f
00000110: ccc8 d23f 9c1d 4441 a8a2 ca3f 3130 b141
00000120: 0482 7941 3ed7 343f 4e3e cd40 3919 ab40
00000130: 0708 2e40 fcb5 0041 6ce4 0e41 e8ee d43f
00000140: 9631 6f3f 1771 1541 7818 c440 8ea3 3340
00000150: 15ad 843f d484 7740 170c 423f 54d2 f740
00000160: 8b3e fe40 df84 6b40 2b46 f23f 2e91 cc40
00000170: f89a 0b41 aa06 fd3f ba05 4e3f 3593 8c40
00000180: 9f8e 9740 11a0 5e41 98cb eb40 b925 5941
00000190: b820 1641 fbec 9f40 e3aa a840 0b76 1740
000001a0: c945 9540 f0f3 7040 15f5 f23f e39f 5840
000001b0: b89a 6b40 6bac 343f 34be 5240 e7c4 2e3f
000001c0: df0a d940 6f03 cf3f 9ebb 533f 423b 9940
000001d0: 039d 2741 a6dc 9040 6b96 e63f c7b6 ae3e
000001e0: 608a c840 af19 1241 a6f5 bf3f c897 f73f
000001f0: 17b1 513f 726c 943f 258a 1540 2861 b33f

synth_conv1.conv1d.weight f4 [1, 1, 6]
-0.5612395 -0.558499 0.466694 -0.42409307 -0.27075154 0.17603947
00000000: 64ad 0fbf caf9 0ebf 84f2 ee3e ba22 d9be
00000010: f29f 8abe b143 343e

synth_conv2.conv1d.weight f4 [1, 1, 9]
-0.41734004 -0.39182365 -0.06210106 -0.40121105 -0.25370538 0.24032265 -0.46830964 -0.7314754
0.50666183
00000000: 98ad d5be 1c9d c8be ae5d 7ebd 896b cdbe
00000010: ace5 81be 2417 763e 48c6 efbe f941 3bbf
00000020: 97b4 013f

synth_conv3.conv1d.weight f4 [1, 1, 12]
0.56505173 0.20945233 -0.62514436 0.60212255 0.4537946 0.05707574 0.28058314 0.58546996
-0.034982126 0.27659371 0.50867194 -0.51976866
00000000: 3ba7 103f ac7a 563e 7609 20bf b424 1a3f
00000010: c457 e83e 40c8 693d 98a8 8f3e 5ce1 153f
00000020: 6b49 0fbd b19d 8d3e 5338 023f 8f0f 05bf
