GCN/results250/gcn-epoch-1-val_loss-1.172.pt (torch, 104335 bytes, 23 tensors)

node_encoder.node_type_embedding.weight f4 [3, 3]
00000000: bc01 71be ff77 bb3d eedc 98be 7a2d 5e3f
00000010: d408 623f f473 d3bb 0d5b 803c ed86 a4be
00000020: 114f 1fbf
-0.23535818 0.09153747 -0.29856056 0.8678814 0.8829472 -0.0064530317 0.015668416 -0.3213419
-0.6223002

synth_encoder.synth_emb.weight f4 [7, 3]
00000000: 2c7b 423f 786b a4bd 44b0 1b3e 58da d9be
00000010: 5bb3 e4bd ff6f 3cbe 807e 2a3f 19b9 3fbf
00000020: b4f6 d43d 8c37 e2be ce0a 2cbf b27b b9bd
00000030: 8431 25be 759b 053e ab94 32bf d5e7 153f
00000040: 2984 0f3c 0acb 20bf 050f 283f 5295 34be
00000050: 513e 6f3d
0.75969195 -0.080283105 0.15203959 -0.42549396 -0.11167022 -0.18402098 0.66599274 -0.7489181
0.103986174 -0.44183004 -0.67203987 -0.09056796 -0.1613217 0.13047583 -0.697581 0.5855687
0.008759537 -0.62809813 0.6564792 -0.17635086 0.05840904

gnn.gnn_node.node_encoder.node_type_embedding.weight f4 [3, 3]
00000000: bc01 71be ff77 bb3d eedc 98be 7a2d 5e3f
00000010: d408 623f f473 d3bb 0d5b 803c ed86 a4be
00000020: 114f 1fbf
-0.23535818 0.09153747 -0.29856056 0.8678814 0.8829472 -0.0064530317 0.015668416 -0.3213419
-0.6223002

gnn.gnn_node.convs.0.linear.weight f4 [128, 4]
00000000: de7f 4ebe 7610 d8be ff00 79be 79b0 1cbe
00000010: 31df 833e 4790 753d fdc6 a0be 1271 fdbe
00000020: 91ec 463e 0362 c93e c6ac 123e 0ac1 c93e
00000030: f7ce 43be 4b0c e23c fcc4 9dbe 898c 823e
00000040: e928 09bd 12db b3be 9d2d e33e 27ec ce3e
00000050: 0a7b 133d 6e0c dabe 0090 993e fb93 a0be
00000060: 9f37 c43c 7398 bd3e 8891 2fbe 9272 e23e
00000070: db6c dcbe ec0b 723e fa7c cfbe 904e 033e
00000080: 7383 563e 2600 1b3e 5dfb b6be edac cd3e
00000090: 7d7d 4a3e 8094 5ebe 37a2 493e a6b3 cebe
000000a0: 2078 f2be fad8 dc3e 2b1a 883e 5ca2 f0bd
000000b0: a751 b0be efcc 3abe 1acc dcbe 208a e9be
000000c0: d7e3 c73d f841 033d d0d3 47be 4d75 19bd
000000d0: 1d84 c03e 2456 ca3d 0f47 e23e 63ee 873e
000000e0: 0b99 35be 5f6b 0bbe 5b11 19be 0fdf fe3d
000000f0: 74a6 053e 0c38 7d3e c57b cdbe 774c 94be
00000100: 3aca fd3e 3000 9a3e 6572 733e 2dba c93e
00000110: 4c85 25be f073 693e 456c 813d 13fe 9fbe
00000120: 3b71 fbbe 81e2 de3e 8bd9 483e a784 27be
00000130: 7c40 d63e b755 4bbb 5239 b93b 8021 e9bd
00000140: eaa7 29be 9d36 d0be ac28 0fbe aa80 f4be
00000150: 8f62 cfbe 711a 52be b530 623e 1d76 01bf
00000160: 0179 8c3e ff24 793e dfd6 963e 8cfc c93e
00000170: 7a82 e9be 0e03 c3be 4bb5 f1be 0f41 bfbe
00000180: b1ad af3e dbe4 40be 09a5 123e 5175 71bd
00000190: f080 8a3d bb0f f03e a39f d8be 8663 1e3d
000001a0: 9e84 edbe 624c b73e f359 a93e b5f9 26be
000001b0: 6210 c73d 77b9 c83e 2634 da3e b07e dbbe
000001c0: fd12 90be e447 dbbe 0e65 013f dd13 e4be
000001d0: 8623 d83e 4490 013f 0e30 d43c 710d 8dbd
000001e0: 1d95 8f3e 3408 f8be f01a c9be dcb8 d93e
000001f0: 31a0 993d 64f7 7b3e bba3 ad3e d398 55be
00000200: 2b6c d23d 144d 44be ab17 c2be 262e 45be
00000210: 6159 d1be 3d11 753e c540 c53e b53d babe
00000220: 3598 f93e a45a 4a3d 315b b1be 5df2 ac3e
00000230: 02ba 42be 6478 81be 063a ef3e 1fff f23e
00000240: 4913 2c3e 047a ddbc 772f 8cbe 9cd3 a5be
00000250: 2581 f83e 471e 733e abce 903e eb2c 93be
00000260: de46 aabd ecc2 a23e 8993 de3d 05a4 7abe
00000270: f3c7 16be ec52 1f3d 3e63 c4be 9193 d33e
00000280: ed30 c13d 9a10 93be 5a76 b73e 71fe 71bb
00000290: de8b 673d cf4b f83c 4fe0 ef3e c546 bf3d
000002a0: 5b4f 77be 4ec9 97be c344 c8bd 69ea d53e
000002b0: 27fb cb3e 689c 2cbe b6c7 44be d24f f43d
000002c0: e702 43be a26f d13c f764 99be 62fa 4bbe
000002d0: d4d6 ad3e c063 6dbd 6025 febe 526f 8dbd
000002e0: 06fd e8bc 942b 8f3d 573b 963d 1d73 99bd
000002f0: 90c4 16be 070f cb3e ec94 87bc 1145 eabe
00000300: 42e7 90be 9ef4 1c3e af66 a3be 09c2 3bbe
00000310: 74cc 003d c0d8 c53e 7d41 9dbe 6eb6 bcbc
00000320: 1fd0 913e 5480 d73e ede1 123e e566 ba3e
00000330: b525 54be 18df dbbe 7a4f cebe f33a 813e
00000340: 5be5 063e 2748 d73e 6ca5 8ebd 3364 b7be
00000350: 5ebf 303e d556 a93e 2700 293d f5b6 dfbe
00000360: 14bf 0f3e a151 ea3e ef2f 97be 6647 033e
00000370: 0b73 4a3b e611 cbbe 83cf bc3e bb92 b7be
00000380: fbdd 523e ea11 3b3e 72f0 73be 820c 973d
00000390: 97a2 debe 3c5e 89be 7f03 ac3e 3030 79be
000003a0: b08b 133d 5be2 713e 230c 993e 732e e9bd
000003b0: 66f3 4c3e 472e c43e f7d9 a5bd 7cc5 9ebd
000003c0: 7019 56be d42e dd3e 7ea1 4c3e 262f 573d
000003d0: 3701 c9be a048 693e 2776 ddbe 320a f53e
000003e0: cb2a 813e 14be bd3e 67e5 fdbe 17ec d33e
000003f0: 346f 3dbe 90a6 783b 901f 5fbe 165e f2be
-0.20165965 -0.4220006 -0.24316786 -0.15301694 0.2575622 0.059952047 -0.31401816 -0.49500328
0.1942618 0.3933259 0.1432372 0.3940509 -0.1912192 0.027593752 -0.3081435 0.25497845
-0.03348628 -0.35128075 0.44370738 0.40414545 0.03600601 -0.42587608 0.29992676 -0.313629
0.023952303 0.37030372 -0.1714536 0.44228035 -0.430518 0.2363736 -0.40525037 0.12822938
0.20948581 0.15136775 -0.3573865 0.40170994 0.19774432 -0.21736336 0.19690786 -0.40371436
-0.47357273 0.4313429 0.26582465 -0.117497176 -0.34437296 -0.18242238 -0.43124467 -0.45613194
0.09760254 0.032045335 -0.19514394 -0.037465382 0.37600794 0.09879711 0.44194838 0.26549062
-0.17734163 -0.13615178 -0.14948027 0.12444889 0.13051778 0.24728411 -0.4013349 -0.28964588
0.4956835 0.30078268 0.23774107 0.39399853 -0.1616413 0.22798133 0.06319479 -0.3124853
-0.49109825 0.43532184 0.19614236 -0.16359197 0.41846073 -0.0031026432 0.005652585 -0.11383343
-0.1656796 -0.40666667 -0.13980359 -0.47754413 -0.40504882 -0.20517899 0.22088893 -0.5057085
0.2743607 0.24330519 0.2946081 0.3945049 -0.45607358 -0.38088268 -0.47208628 -0.37354323
0.34312204 -0.18837301 0.14320768 -0.058949772 0.06762874 0.46887 -0.42309293 0.03866913
-0.4639024 0.35800463 0.33076438 -0.16306193 0.09719922 0.39203998 0.4261791 -0.42870092
-0.28139487 -0.42828286 0.5054482 -0.44546404 0.42214602 0.50610757 0.02590182 -0.06887329
0.28043452 -0.48443758 -0.39278364 0.4252385 0.07501257 0.24606091 0.3391398 -0.20859079
0.10274538 -0.19170028 -0.37908682 -0.19255885 -0.40888503 0.23932357 0.38525978 -0.36375204
0.48748937 0.049402848 -0.34639886 0.33778659 -0.19016269 -0.25287163 0.46723956 0.47460267
0.16804232 -0.02703572 -0.27379963 -0.32388008 0.4853603 0.23742019 0.28282675 -0.28745207
-0.08314298 0.3178934 0.10867984 -0.24476631 -0.14724712 0.03889744 -0.38356966 0.41323522
0.0943316 -0.28723603 0.35832483 -0.003692534 0.056529872 0.030309586 0.4685082 0.0933967
-0.24151365 -0.2964577 -0.0977874 0.41780403 0.39840052 -0.16856539 -0.19216809 0.11929287
-0.19044076 0.025565926 -0.29959843 -0.19919732 0.33952963 -0.057956457 -0.4963789 -0.06905998
-0.028440963 0.06990734 0.07335537 -0.07492659 -0.1472342 0.39659902 -0.016550504 -0.45755818
-0.28301436 0.15327689 -0.3191428 -0.18335737 0.03144498 0.3864193 -0.30714026 -0.023036208
0.28479096 0.42090094 0.14343996 0.36406627 -0.20717509 -0.42943645 -0.4029501 0.25240287
0.1317343 0.42047235 -0.069651455 -0.35818633 0.17260501 0.3307406 0.04125991 -0.43694273
0.14037734 0.45765403 -0.29528758 0.12820205 0.0030891325 -0.39662093 0.3687707 -0.35854134
0.20592491 0.18268552 -0.23822191 0.073754326 -0.4348342 -0.26829708 0.33596417 -0.24334788
0.03602189 0.23621504 0.29892072 -0.113858126 0.20014724 0.38316557 -0.08098214 -0.07752511
-0.20908141 0.4319979 0.1998348 0.0525352 -0.3925874 0.2278161 -0.43254206 0.4785934
0.2522796 0.3705908 -0.49589083 0.4139106 -0.18499452 0.0037941076 -0.21789384 -0.47337407

gnn.gnn_node.convs.0.linear.bias f4 [128]
00000000: 09a7 f43e 4b14 013c ed9b b2be d61f 063e
00000010: 284c eabe 075d e73e bb55 3bbb 040a f33e
00000020: a0e7 fc3e 40b9 453e 30c6 1bbd 126f 1f3d
00000030: 2b62 f6be 2340 babe 324a ed3e 1bec c33e
00000040: c1d8 ff3e 2ba8 743c ae7d f63e 8848 d53e
00000050: 3193 62bd db88 2f3e 1583 08be 832b cbbe
00000060: d543 e13d 3b48 973d 744b c43e bd2d 773e
00000070: 00be b93e 9f10 f0be 4e5e 02be ad62 a63e
00000080: 8003 ef3e 8f86 babd 9eee e73e a770 d1bd
00000090: f310 c63e 17ec 8b3e 49df c3be fd18 2fbd
000000a0: 6d65 8e3e a4b1 c63d dd9f e3be 7bb2 e1be
000000b0: 26e6 a5bc 1e90 bcbe 3a6d 8abe e2d8 f3bd
000000c0: b5e0 703d 3fa5 f5bd d5e6 8d3e 3cca 793d
000000d0: b703 923d d867 b13d ca41 dfbe aed3 0bbe
000000e0: 97ca 69be d40b 363e a917 d2be 46f2 1c3e
000000f0: cb19 d5be 72c4 aebd d1b6 4c3d c2cc ac3e
00000100: 78c6 41be f251 9b3e b032 d13e aa41 4bbe
00000110: e8ad 44bd 491b 39bc eebc 8abe 273e f13e
00000120: f2ce ebbe 4dc4 b13e 417c 35be 0139 a6bd
00000130: fef1 403d 903d 283e 810b 2ebd 09d6 4cbb
00000140: 3d9d d1be 22f1 e6be 47fc 94be 2c94 8d3e
00000150: a714 8c3e 130b f73e 67df 6c3e c68f 893d
00000160: 6d9c 3ebd 6503 9c3e 1af9 813e cd01 9f3c
00000170: 1abe 3bbe e32f 2f3d 710a ae3e 5017 c43e
00000180: 2e8d d2be dab5 dbbe 79fa a13e 8c66 583e
00000190: 311b 69be 8c6e f8bd 112d 1ebb bd9e b0be
000001a0: 8a5e f3be cc14 0abc 8dfa 1f3e bc42 6fbe
000001b0: ff2c b3be e6a6 abbe 13c1 90be b6b1 f93e
000001c0: 6fcd afbe 9600 b9be c6f6 eebe 27a0 d9bd
000001d0: 2362 ff3c e011 ef3e 4f39 d93e 76db debe
000001e0: eaf8 d73e ef06 f33c cf37 8abe 52ec a3bd
000001f0: d00c 38be e4c5 6d3c 53d3 aa3e f45f 8abe
0.47783688 0.007878373 -0.34884587 0.13098082 -0.45761228 0.45188162 -0.0028585035 0.4746858
0.49395466 0.19308949 -0.038030803 0.038924284 -0.4812177 -0.36377057 0.4634567 0.38266072
0.49970058 0.0149326725 0.4814276 0.416569 -0.055316154 0.1714205 -0.13331254 -0.39681634
0.10999266 0.07386824 0.38338816 0.24138542 0.3627777 -0.4688768 -0.12731287 0.3249716
0.46682358 -0.09107696 0.45299238 -0.10226565 0.38684806 0.2732856 -0.3825629 -0.04274844
0.27811757 0.09701851 -0.44457904 -0.44081482 -0.020251345 -0.36828703 -0.27036458 -0.119066015
0.058808047 -0.11994409 0.27715173 0.06098388 0.07129615 0.08662385 -0.4360488 -0.13654968
-0.22831188 0.1777795 -0.41033676 0.15326795 -0.4162124 -0.08533563 0.049979035 0.33749968
-0.18923366 0.30335957 0.40858984 -0.19849268 -0.048017412 -0.011298009 -0.27097267 0.4711773
-0.46056324 0.34720078 -0.1772318 -0.081163414 0.04710578 0.16429734 -0.04249144 -0.0031255505
-0.40940276 -0.45105845 -0.29098722 0.2765211 0.27359506 0.48250636 0.23132096 0.06716876
-0.046535898 0.3047134 0.25385362 0.019410038 -0.18334237 0.042770278 0.3399234 0.38299036
-0.41123337 -0.4291218 0.31636408 0.21132869 -0.22764279 -0.1213046 -0.0024135748 -0.34496108
-0.47533065 -0.00842781 0.15622921 -0.23365301 -0.34995267 -0.3352577 -0.28272304 0.48768395
-0.3433642 -0.3613326 -0.46672648 -0.1062625 0.031174725 0.46693325 0.42426535 -0.4352681
0.42182094 0.029666392 -0.26995704 -0.08004059 -0.17973638 0.014512513 0.33364353 -0.2702633

gnn.gnn_node.convs.1.linear.weight f4 [128, 128]
00000000: 25c2 6f3d 982f 18bd 73f6 b3bb b001 893d
00000010: 03cd 89bd 1983 2e3c a446 26bd 2c56 0a3d
00000020: e7c0 99bd c83e a53d 60a2 563d 64c3 a53c
00000030: ccbe b43c 6092 9b3c eb0d 25bc 8f22 523d
00000040: 1254 1cbd 3894 0ebd 3f0d 173d 82c1 923d
00000050: 4727 39bd 92bb 503d 6a79 2f3d cab1 10bd
00000060: 6e15 5dbd 9a12 56bd 1b4e 57bc 1b39 b0bc
00000070: 9ded 9b3d 4feb 163c 533c 563d 0e95 823d
00000080: 5cd9 1bbc e663 b43d bec4 39bd 7da9 b03b
00000090: edc7 9a3d e669 e6bc f54f 553c 0341 683b
000000a0: 8288 9f3d ca10 7cbd 591e 02bd 1e67 633d
000000b0: 1331 33bd b2bb 80bd c664 09bd 68f6 e4bb
000000c0: 6e41 4a3c 5732 24bc 1426 883d a495 c13d
000000d0: 9989 533d 0f2b 19bd c917 443d 091e 833d
000000e0: df13 6ebd 14b8 29bd 1a66 443d 2f9d 833c
000000f0: 2275 a23d 0de5 f53c b34a a73c fbfb 45bd
00000100: 466d 3f3d 5ea6 5f3d 3214 193c 6bd7 483d
00000110: 1fb4 c03c e646 f13c 98a9 67bc f467 c6bc
00000120: 6eb7 5a3d b788 4c3d c5ec a8bd 60e2 9cbd
00000130: e19f 00bc 4f2f a13d 5b2b f7bb 456c 1d3d
00000140: 20bd 9abd d36c a1bd 9746 a83c e9f8 603d
00000150: b49d 84bd 0d48 2bbc 7fac 633c 809c 29bd
00000160: cf30 9a3d 4972 a63d 87f5 3e3d eb75 abbc
00000170: 76b4 a0bd 7e06 5abd c23a 893c 8dee 5fbd
00000180: c67b a33d 071d 86bd fd20 91bd 617e 693c
00000190: b5d1 8e3d f675 783c 4452 b33c 61ad 4fbb
000001a0: 0c41 923c fe05 0d3b 0501 76bd c1ee 87bd
000001b0: 9e2a b83d 35b8 a33b 1146 c13c 17e4 923d
000001c0: db2c c2bc e499 7bbd a7b2 bd3d 62a2 d3bb
000001d0: 201a aabd 468d 983d 786b dabc 023a 4b3d
000001e0: 9f6e 923d f51b 9e3d 520b 8a3d dffc 91bd
000001f0: 9b98 99bd 549e ad3d ef86 e0bc 086a 8ebd
00000200: a15c 833d 235e be3d 5aa5 f3ba 8583 35bd
00000210: 4df7 b03c 315a 96bd a289 a03d 2c73 72bc
00000220: c32b fb3c d981 5fbd dd21 493d ab16 32bd
00000230: 1c57 813d 2a69 36bd bff2 b53d 6061 c0bc
00000240: 2ab9 c13d 2e60 08bd c1dc 9bbd 4a5b 47bd
00000250: 6987 4bbb 7568 00bd 5bd5 683d 1ca6 533d
00000260: ea36 3d3c d4a6 143d 98aa bf3d 6e51 4abc
00000270: 0d5f 46bd 9e2f 50bd 0c29 7f3d 3b00 ce3d
00000280: 356f 1e3d 67c6 7b3d daeb 30bc 0a2b 273d
00000290: aea3 8f3d ceea b63d a7ae 99bc 807b 21bd
000002a0: 5523 98bd a479 e13a 7300 11bc b613 443d
000002b0: 3e99 763d 2f63 24bd a718 f33a ecaf 9fbc
000002c0: 4516 013d b3af 5c3d c334 a5bc 3346 803d
000002d0: d20e a83d 3eba 793d 4c5f 2e3d 9646 8d3d
000002e0: 822f a5bd 0fd8 003d 54c7 3b3d fcd7 56bc
000002f0: d216 fc3c f063 5b3d da99 4b3d e3fc 2a3d
00000300: 88da 8a3d dabd 973d 7866 be3d b803 65bd
00000310: 416c 8b3d d58a 073d a040 17bc 8ccd 80bc
00000320: db8a 913d 974b e33c e50f d23b 4ffc 053d
00000330: d62f 3ebc 05c2 f3bc 4e77 9bbd caac a5bc
00000340: 7174 4fbd 246b 813d 5114 a23d a254 3bbd
00000350: d38a 073d c4f1 ac3d 9dfa 35bd 5011 ab3c
00000360: 5ed9 a83d 4cce e8bc 2515 c0bc a762 743d
00000370: 7676 a93d a9c3 39bd 4a44 7d3c 3c9b ec3c
00000380: 61c5 223d f28f 91bd 36c3 8bbd bad9 48bd
00000390: 7173 953c e79a b33c 4853 843d 8a9b 9d3d
000003a0: 32ce 883c 8e82 f4bc 6611 a8bd 0d4c 35bd
000003b0: caaa acbc 1d75 86bd 0fd9 813c 810a b83c
000003c0: e652 f13c 3ba6 94bd f16a 92bd 7628 b4bd
000003d0: 9971 393d aafb a53d 4b1e 043d 689d 08bd
000003e0: 87c5 cbbb 928c 9ebb 816c a7bd d84e 963d
000003f0: 9131 ecbc 8296 783d 1e14 6cbd b50d 483b
0.05853476 -0.037154764 -0.0054920255 0.06689775 -0.06728556 0.010651373 -0.040594712 0.033773586
-0.07507496 0.08068615 0.052400947 0.020234771 0.022063635 0.018990695 -0.010074119 0.05130249
-0.038166113 -0.03480932 0.036877867 0.07165815 -0.045203473 0.05096013 0.0428404 -0.035325803
-0.053975515 -0.052263834 -0.01314118 -0.021511605 0.076136805 0.009211375 0.052303623 0.06376086
-0.009512272 0.088081166 -0.045353644 0.0053912983 0.07557664 -0.028126668 0.0130195515 0.003543914
0.07789709 -0.06153945 -0.031767223 0.055518262 -0.043747973 -0.062858 -0.03354337 -0.0069873817
0.012344701 -0.010021768 0.06647888 0.0945237 0.051644895 -0.03739458 0.047874246 0.06402213
-0.05812442 -0.041435316 0.047948934 0.016066162 0.079324976 0.030016446 0.020421362 -0.04833601
0.04673507 0.05460202 0.009343194 0.049033564 0.023523388 0.029452752 -0.014139555 -0.02421949
0.05339759 0.04993507 -0.08248285 -0.07660365 -0.007850618 0.078703515 -0.00754301 0.038433332
-0.07555604 -0.07882085 0.020541472 0.05492488 -0.06475392 -0.01045419 0.013896107 -0.041409016
0.07528841 0.08127267 0.046620872 -0.020930251 -0.0784692 -0.053228848 0.01675165 -0.05467086
0.07982592 -0.06548505 -0.0708637 0.0142513225 0.06973592 0.015164843 0.021889813 -0.0031689035
0.017853282 0.0021518464 -0.060059566 -0.066373356 0.089925036 0.0049963244 0.02359298 0.07172411
-0.02370303 -0.06142606 0.09262591 -0.0064585665 -0.08305764 0.07448821 -0.026662573 0.049615867
0.071500055 0.07720176 0.067404404 -0.071283095 -0.0749981 0.08477464 -0.027408091 -0.069538176
0.06414152 0.09295299 -0.0018588707 -0.04431488 0.021602297 -0.073414214 0.078387514 -0.014797967
0.030660516 -0.05456719 0.04910456 -0.04347865 0.06315443 -0.044533886 0.08884191 -0.023483932
0.09459145 -0.03329485 -0.07610465 -0.048671044 -0.0031056053 -0.031349618 0.056844097 0.051672086
0.011548737 0.036291912 0.0935871 -0.012348516 -0.04843049 -0.05082666 0.062295005 0.10058638
0.038680274 0.061468508 -0.010798419 0.04081253 0.07013641 0.08931504 -0.018760039 -0.03942442
-0.07428614 0.001720239 -0.008850205 0.04787036 0.060204737 -0.04013365 0.0018546776 -0.019493066
0.03151538 0.053878497 -0.02016676 0.062633894 0.08205952 0.06096863 0.04257135 0.06898229
-0.08065702 0.03145605 0.04584439 -0.013113018 0.0307726 0.053562105 0.04970727 0.041745078
0.06779963 0.07409258 0.09296888 -0.05591175 0.06807757 0.033091385 -0.009231716 -0.015723012
0.07106563 0.027746005 0.006410586 0.032711323 -0.011608085 -0.029755602 -0.07591115 -0.020223994
-0.050648157 0.063192636 0.07914031 -0.04573501 0.033091377 0.08444551 -0.044428457 0.020882279
0.082445845 -0.028418683 -0.023447582 0.059664395 0.08274548 -0.04535261 0.015458176 0.028882615
0.039739016 -0.071075335 -0.06824343 -0.049035765 0.018243523 0.02192445 0.06461197 0.07695682
0.016699884 -0.02984741 -0.082064435 -0.04426198 -0.021077532 -0.06565306 0.015850572 0.022465946
0.029458474 -0.072582684 -0.07149304 -0.0879678 0.04527435 0.08104642 0.032255452 -0.03335324
-0.0062186155 -0.0048385346 -0.08174992 0.07339257 -0.028832229 0.06069041 -0.057636373 0.0030525748

gnn.gnn_node.convs.1.linear.bias f4 [128]
00000000: 5472 683d 2167 51bb 3c36 923a d31b a73d
00000010: b495 a23d ec2d b2bc fd96 893c 3a5d 6bbd
00000020: 765d 48bd bd05 9dbc 1edd 423d e510 463d
00000030: 40f3 a23b 88cd 5e3a f327 493d 636c 9abd
00000040: 3948 b83d 23fd b7bd 3876 9a3a d9ba a13c
00000050: 8e30 e83c 239c f2bc 7e99 383d 12fb aabd
00000060: a95e 073c 0aa9 56bd d9be 103d 4978 2fbb
00000070: 2df9 823d a207 bdbd 2e94 e43b c9a5 af3c
00000080: b0b3 fabc d551 31bd 3b9b fb3c 57c6 7abd
00000090: eed7 1ebc 2d4a 903d 1f6b 8cbd f248 18bd
000000a0: 91a9 b33b 4b26 98bd fbfc 6d3d 6945 9e3d
000000b0: 5a96 b23d fdcf 53bd d926 b7bc d145 663c
000000c0: 60ce 5ebc c54c 773d f625 00bd 2764 debc
000000d0: 86fc c13c 8ca0 77bd f8de 903d 5ca6 b1bd
000000e0: e36b c7bd ecf5 263d 6311 573d db77 24bd
000000f0: 087f 913d a8d8 c8bd 49ab 653d 8f41 873d
00000100: 2ba8 843d 7769 0c3d d2e4 26bd 6179 4a3d
00000110: 9492 afbc a1f4 083d 1917 aebd 764a c8bd
00000120: 2603 46bd cc6d 643d 377f 4b3d 8c72 10bd
00000130: f82f 203d 17bc 70bd 8703 7ebd 605c 803d
00000140: 7c8f 153d cd13 ecbb 1b9e b0bd e8ab 563c
00000150: c1a1 8fbd f5dc 8ebd bcd3 cfbc aac4 74bd
00000160: 1230 70bd 3405 3f3d 3e6c 493d 0352 87bc
00000170: cfae 24bd 9235 4ebd 64a4 41bd e2a6 733b
00000180: 10ec edbc 77fb 85bd 9c28 cfbc 4db5 cebc
00000190: 8126 b8bc ba8f 293d 7e30 aa3d 46fa 88bd
000001a0: 9c64 11bd 9b08 b9bc 9d3f a43c f558 223d
000001b0: 1aa3 2c3c 4e60 cbbb 0b51 36bc 907f 333d
000001c0: 454a b4bd 3b95 973d c9ef f43c 9cd1 b03d
000001d0: a5e3 593a 24ed a0bd 86b3 423b 3505 16bc
000001e0: d8fc c4bc 2f70 4bbd 0975 f93b bd04 4f3d
000001f0: d717 36bc 6586 7fbb 88ef 82bd b7d2 91bd
0.056749657 -0.0031952339 0.0011155079 0.08159604 0.0793871 -0.021750413 0.01679563 -0.057461955
-0.048917256 -0.019167775 0.047574155 0.048355956 0.0049728453 0.00084992545 0.049110364 -0.075402044
0.089981504 -0.08983829 0.00117845 0.019742416 0.028343465 -0.029615467 0.045068257 -0.08348669
0.008262315 -0.052407302 0.035338257 -0.0026774576 0.06395183 -0.092299715 0.006975672 0.021441357
-0.03060326 -0.04329093 0.030713668 -0.061224308 -0.009695036 0.07045398 -0.06856369 -0.03717894
0.0054828604 -0.07429179 0.05810259 0.07728083 0.087200835 -0.051712025 -0.022357391 0.0140547315
-0.013599008 0.060375948 -0.031286202 -0.027147366 0.023679983 -0.060455844 0.07073778 -0.08674309
-0.09737375 0.040761873 0.052506816 -0.040153366 0.071043074 -0.09806949 0.056071553 0.06604301
0.06477388 0.034280267 -0.040745564 0.049432162 -0.021432199 0.03343642 -0.08500499 -0.09779827
-0.048342846 0.055768773 0.04968187 -0.03526549 0.039108247 -0.058773126 -0.062015083 0.06267619
0.03651379 -0.007204509 -0.08623906 0.013102509 -0.07013274 -0.06975738 -0.025369518 -0.059757866
-0.058639593 0.04663582 0.049175493 -0.016518598 -0.040205773 -0.050344057 -0.047275916 0.0037178327
-0.029043227 -0.06542104 -0.025287919 -0.025232935 -0.022479298 0.041396834 0.083100304 -0.06688361
-0.03549634 -0.022587111 0.020049864 0.039635617 0.010536933 -0.006206549 -0.011127721 0.043822825
-0.08803228 0.0740151 0.029899495 0.0863373 0.0008311815 -0.07857731 0.0029709055 -0.009156515
-0.024046347 -0.049667533 0.0076128286 0.05054163 -0.011114082 -0.0038990017 -0.06393343 -0.07120269

gnn.gnn_node.batch_norms.0.weight f4 [128]
00000000: c5ba 7d3f 519c 7c3f d015 7d3f 24dc 7b3f
00000010: b0c4 803f 51de 7f3f 3b33 803f b8de 7d3f
00000020: 00a0 803f 0347 7e3f 9bf1 803f 65d9 7e3f
00000030: 49fd 803f e338 7e3f fc3c 7f3f 56d4 7f3f
00000040: 374f 803f e6f2 803f 2d9b 7d3f 43c5 803f
00000050: a551 803f ee8c 813f 5ea8 803f 166a 7e3f
00000060: d54c 7f3f 6224 813f faea 7e3f 211e 813f
00000070: 8bea 803f e381 7e3f 5145 7e3f f38e 813f
00000080: f9ce 803f ae2d 803f b2c1 803f 930f 813f
00000090: 1133 7e3f e019 803f 9b8e 813f 473f 7e3f
000000a0: 13f8 7e3f 5db0 7e3f b874 7e3f d6ee 7e3f
000000b0: 3c20 813f 45d9 7f3f 7a91 803f e0d7 803f
000000c0: 7fd7 803f 0a0a 803f 67e8 7e3f ad0d 7e3f
000000d0: cab5 803f d674 7e3f b901 7e3f 82e9 803f
000000e0: fdd5 803f 9ae9 803f 8794 813f bcc1 7d3f
000000f0: 2b0b 813f d04a 7e3f e9d1 7f3f 0fb3 823f
00000100: 90ed 803f 90cf 803f 560b 7e3f 6c72 803f
00000110: 1ef4 7d3f 07db 7c3f e7b5 7e3f bb55 803f
00000120: 0dbb 7e3f 84cd 803f 6728 7e3f 0ff5 7c3f
00000130: 77c2 7e3f 13bf 803f 552c 813f 91e7 7d3f
00000140: 8000 7e3f 0cd0 803f 08fe 7d3f 01e9 803f
00000150: 42c9 803f 3a8e 803f a904 803f 22d6 7d3f
00000160: aa59 813f f5e4 7c3f de87 803f 07f8 803f
00000170: 2fa9 803f 45e7 803f 9b0b 803f 86b8 7c3f
00000180: 13c3 7e3f 4fb3 803f 2712 803f 3f1d 813f
00000190: ce49 7b3f bdf3 7d3f c557 803f 26a0 7e3f
000001a0: 1d42 7e3f 5b9b 7e3f 150f 7f3f e40b 813f
000001b0: bd60 803f 4095 803f 0133 7e3f de82 803f
000001c0: 43a9 803f 7a6d 803f f8ed 7d3f a034 813f
000001d0: 93af 803f f7c6 7f3f be2d 7e3f 70e1 7d3f
000001e0: 2850 803f d4a5 7c3f 6fcc 803f 6b65 813f
000001f0: ed20 7e3f 6644 7e3f 3b9c 7e3f d8be 7d3f
0.9911311 0.9867602 0.9886141 0.9838278 1.0060024 0.999486 1.0015634 0.99167967
1.0048828 0.99327105 1.0073732 0.9955047 1.0077296 0.9930555 0.9970243 0.99933374
1.0024174 1.0074127 0.99064904 1.00602 1.0024916 1.0121133 1.0051382 0.99380624
0.9972661 1.0089228 0.99577296 1.008732 1.0071577 0.9941694 0.9932452 1.012175
1.0063163 1.001394 1.0059111 1.0082878 0.9929667 1.0007896 1.0121645 0.99315304
0.9959728 0.9948786 0.9939685 0.99583185 1.0087962 0.999409 1.0044396 1.006588
1.0065764 1.0003064 0.9957337 0.9923962 1.0055478 0.9939703 0.9922138 1.0071261
1.0065304 1.007129 1.0123452 0.9912374 1.0081533 0.99332905 0.9992967 1.0210894
1.0072498 1.0063343 0.9923605 1.0034919 0.9920062 0.9877171 0.9949631 1.0026163
0.99504167 1.0062718 0.992804 0.9881143 0.9951548 1.0058311 1.0091654 0.9918147
0.9921951 1.0063491 0.99215746 1.0071107 1.0061419 1.0043404 1.0001422 0.99154866
1.0105488 0.9878686 1.0041463 1.0075692 1.0051631 1.0070578 1.0003542 0.9871906
0.9951641 1.0054721 1.000554 1.008705 0.9815949 0.9920004 1.0026785 0.9946312
0.9931963 0.99455804 0.9963239 1.0081754 1.0029522 1.0045547 0.99296576 1.0039937
1.0051655 1.003341 0.99191236 1.0094185 1.0053581 0.9991297 0.9928855 0.99172115
1.0024462 0.98690534 1.0062388 1.0109075 0.9926899 0.9932312 0.9945714 0.9911933

gnn.gnn_node.batch_norms.0.bias f4 [128]
00000000: b2bc 013c 520a 15bc a4e5 02bc 1dd3 a5bb
00000010: 593b a63b 7f64 0cbc 76b0 a4bb c12e 033b
00000020: 88cf 163c c302 a0b7 791f df3b 9027 d2ba
00000030: ef00 0d3c 7885 d2bb cf3c f03b 06f7 adbc
00000040: b4ce 7cbb e91b d53b fbcf 03bc d593 0ebc
00000050: 83b5 10bb dc44 ef3b 341d a73b ce33 bdbb
00000060: 9799 3c3a 28b8 393c e6a6 92bb a847 443c
00000070: 31cb 0b3c 7af3 10bc 28bf 05bc dd28 8c3b
00000080: f1df a03a 35c1 a139 dba3 0b3b 7d74 0e3b
00000090: 35a4 d93b f93c 25bc 78c3 253c 16ac 393b
000000a0: 824e 37bc d792 263c fb15 aabb 8720 85bb
000000b0: 628f 143c 53e3 18ba 79ab a53b a217 c43b
000000c0: e3fa 9e3b d406 423b 8047 09bc e205 e7bb
000000d0: d36a c53b f9a3 a6ba 5b48 08bc 56f1 eb3b
000000e0: dd9b b4b9 9ed2 e03b ba4d 503c 81b1 0abc
000000f0: 88ad 063c 2b0d f4bb bd69 49bb 36cd 7c3c
00000100: d55b f03b 6b3c f7bb e6a8 bebb 0e40 ba3b
00000110: ecaf f6bb d4ef 1dbc 81f7 a0bb 80d8 a83b
00000120: 7bbd 04bb f76f dc3b 3e6e dabb ddf7 99bc
00000130: 3814 783a c0b6 dc3b b7b1 373c c822 f1bb
00000140: 8bd7 e0bb e1df ff39 e906 fabb 9043 f63b
00000150: 68ab c53b abda 92b9 33d7 a33b 5a5c 3cbc
00000160: 29ed 3c3c f2e3 10bc af25 9d3b 7520 b13b
00000170: 3b75 693b deb6 e23b f34c c7bb c080 05bc
00000180: 0f34 823a aca0 9b3b b551 f93b fb98 263c
00000190: 3c60 95bc 9abc fcbb 7fc2 3d3b 3abf c5bb
000001a0: c7f3 dcbb c375 b9bb 8245 23bc 17bb f43b
000001b0: d4c0 3a3b c847 b93b 1107 10bc 935a 05bb
000001c0: e587 873b cdbd 1c3c f2ec 0cbc 1770 f63b
000001d0: 2ce3 993b 9279 913b d625 9f3b 5ade 0ebc
000001e0: e05c 7ebb 9975 d7bb 6b22 e23b 6f71 683b
000001f0: 6221 ccbb 5392 e1bb b1b2 3abb 7082 0ebc
0.007918524 -0.009096699 -0.007989321 -0.005060567 0.0050729928 -0.008568882 -0.0050259186 0.0020016881
0.009204753 -1.9074772e-05 0.0068091718 -0.0016033519 0.00860618 -0.006424602 0.0073314677 -0.021235954
-0.0038575353 0.0065035713 -0.008045192 -0.008702238 -0.0022080846 0.00730191 0.005099917 -0.005773998
0.00071945175 0.01133541 -0.0044754623 0.011979975 0.008532331 -0.008847112 -0.008163251 0.004277332
0.0012273771 0.00030852263 0.0021307382 0.0021736913 0.0066418895 -0.010085338 0.010117404 0.002833133
-0.011188151 0.010166845 -0.0051906086 -0.0040627155 0.009067388 -0.0005832214 0.0050558415 0.0059842626
0.0048516854 0.002960612 -0.008378863 -0.007050262 0.0060246973 -0.0012713663 -0.008318032 0.0072004003
-0.00034448403 0.006861045 0.012713844 -0.008465172 0.008220084 -0.007447859 -0.003073319 0.0154297855
0.007335166 -0.007545044 -0.005818474 0.0056839054 -0.0075282957 -0.009639699 -0.0049123173 0.005152762
-0.002025454 0.0067272144 -0.006665974 -0.018794948 0.0009463462 0.0067356527 0.011211804 -0.0073588826
-0.006861632 0.00048804193 -0.0076302183 0.0075153783 0.006032396 -0.0002801021 0.005000019 -0.011496628
0.011531153 -0.008843409 0.004795752 0.0054054805 0.0035622853 0.006918772 -0.006082171 -0.008148372
0.0009933728 0.004749378 0.007608617 0.010168309 -0.018234365 -0.0077129127 0.002895504 -0.006034759
-0.0067429277 -0.0056597902 -0.009965302 0.007468592 0.0028496282 0.005654309 -0.008790747 -0.0020348176
0.004136073 0.009566736 -0.008601414 0.0075206864 0.0046962705 0.004439541 0.0048568053 -0.008720005
-0.0038812682 -0.006575298 0.0069010756 0.0035468002 -0.0062295655 -0.0068838983 -0.0028487856 -0.008698091

gnn.gnn_node.batch_norms.0.running_mean f4 [128]
00000000: ce34 d53e 2882 74be 79c0 aebd a732 d53e
00000010: 40c0 2dbe 2a2a 463d bd42 b23e 2da7 133f
00000020: ad0c 523f c1e4 4fbe fbb3 a7be 0162 edbd
00000030: dccc 9fbe c55b 88be 0481 073f c6ca 503e
00000040: eef6 0b3f 049e 9abe e061 783d bd5d 793e
00000050: f776 91be aae1 aabe 815e 2e3d 1303 acbe
00000060: f382 b73c 2295 423e a21b 69bd 0be7 c9be
00000070: 00a3 62be fd04 fcbe 264f fd3e 905e ccbd
00000080: 9a04 d13e c79d 12bf d597 433f 55c6 f73d
00000090: 4b58 333e 29e6 21be f69a 15bf a563 e03e
000000a0: 2eb9 db3d a561 76bd 6694 893d 7ec9 ecbd
000000b0: 9bf7 4ebd cdc6 c2bd 32cf 9dbe 6b6c 02bf
000000c0: dce8 873b d6cd 2cbd ff7d bb3e ab4d f63e
000000d0: 3981 84be 613c adbe 5cd8 37be 9871 f0be
000000e0: 24be 1abd ef47 2bbe ae81 11bf eac3 083d
000000f0: 7d36 e4be c4ab de3e c502 043f 33ec aabc
00000100: 692f 86be 8225 e73d 0ea4 01bc ebd3 dcbe
00000110: f143 2fbe 30cc e5bd e72f 15bf e5b0 083f
00000120: b39d 45be 40f2 dc3e 7f96 2fbf d14a c43e
00000130: c8ba 223e e10b 68be f4dc 003e 3d34 80be
00000140: 622c 3ebf 8434 22bf 41c9 63bb e1a5 3f3e
00000150: 0297 90bd fd47 bb3e f3b5 053f 20f6 f0bd
00000160: 5d18 d53d ae29 463e 3d4c f83e 8527 ca3e
00000170: 7742 b93d 386f 5fbe c2d4 b83e c5a4 3abe
00000180: d257 1bbf fbd3 9fbe 5cfb 323f dbd1 903e
00000190: 3a50 83be 190a e6be f2c2 ba3e 8f59 df3d
000001a0: 37e2 edbc 93e7 19be df53 543d 50bf 113e
000001b0: bb0f 2fbe 2367 0fbd 02cd 78be f752 343e
000001c0: 2b06 abbe 0427 1cbe 21fd 33bf 94aa 613d
000001d0: 3a11 2abe 0cda 6b3e 6574 1b3f 1f03 1bbf
000001e0: c8c2 e03e c335 df3e 350e 6dbd 1e18 18be
000001f0: 0772 c1bc 745b 5dbe 1403 103f 9adf 8bbe
0.4164185 -0.23877776 -0.08532805 0.41640207 -0.16967869 0.048380055 0.34816542 0.57676965
0.8205059 -0.20302106 -0.32754502 -0.115909584 -0.31210983 -0.26632515 0.5293124 0.20389852
0.5467366 -0.3019868 0.060640216 0.24352165 -0.28411075 -0.33375293 0.042570595 -0.33596095
0.022401309 0.19002202 -0.05691112 -0.39434084 -0.22132492 -0.49222556 0.49474448 -0.09978974
0.40823823 -0.57272 0.7640355 0.12098376 0.1751415 -0.15810455 -0.58439577 0.43826023
0.107286796 -0.060151715 0.06717758 -0.11561869 -0.050529104 -0.095105745 -0.3082214 -0.5094668
0.004147632 -0.042188488 0.36619565 0.4810613 -0.2587984 -0.33835128 -0.17953628 -0.46961665
-0.03777899 -0.16726659 -0.568385 0.033389963 -0.4457282 0.43490422 0.51566726 -0.020864582
-0.26208046 0.11286451 -0.007912649 -0.4313043 -0.17115761 -0.11220586 -0.5827622 0.5339492
-0.19298439 0.43153572 -0.68589014 0.3833833 0.15891564 -0.22660781 0.12584287 -0.25039855
-0.7428647 -0.6336138 -0.0034757408 0.18715622 -0.070600525 0.3657836 0.5223076 -0.117656946
0.104050376 0.19351837 0.48495665 0.39483276 0.0904588 -0.2181977 0.3609982 -0.18226917
-0.6068088 -0.31216416 0.69914794 0.28285107 -0.25647146 -0.4492958 0.36476856 0.10905754
-0.029038532 -0.15029745 0.0518378 0.14233136 -0.17095844 -0.03501047 -0.24296954 0.17609774
-0.33403143 -0.15249258 -0.7030812 0.055094317 -0.16608134 0.23032397 0.6072448 -0.6055164
0.43898606 0.43595704 -0.057874877 -0.1485295 -0.023613943 -0.21616918 0.56254697 -0.27319032

gnn.gnn_node.batch_norms.0.running_var f4 [128]
00000000: 3a20 9941 99ef 8c40 50f9 7d40 07f8 5441
00000010: 29f0 a940 cf73 e93f a14d ee40 b643 d441
00000020: df0e 4242 6aa7 4640 5447 1741 4442 e93f
00000030: 0c09 f040 30fa 1e41 3d04 b941 3ed1 ac40
00000040: b67c 8c41 3485 db40 ee88 043f 715c a340
00000050: 14c9 9140 8b61 e440 4de3 c63f 1b80 aa40
00000060: fd51 c73d b49e 1140 0e3c 073f 21b7 5641
00000070: 6b4c 5640 ae35 b741 5e82 a041 1499 a03f
00000080: a8c2 8c41 f276 c841 7b49 2942 b3a7 0e40
00000090: 1775 a540 a515 3240 9754 da41 1155 6441
000000a0: a151 7f3f 4b0e 533f 567d d33f 2e03 af3f
000000b0: 43b2 b23e 0a83 e33e 02ba f240 f0e9 9c41
000000c0: fe55 d83e aaa0 7c3e 58ae e440 0154 a541
000000d0: a0cf b740 6d91 1441 2b20 8440 6b2a 6841
000000e0: 1e78 9f3e e5e6 cd3f 78cd dc41 36ec 993d
000000f0: 5f70 9941 fa16 5b41 7a3b 8c41 c80b 0f40
00000100: 512d 7640 ed63 c63f e67f fb3f 2966 4341
00000110: 4dd4 ff3f f19a 283f df08 0042 bd5c 8841
00000120: ded9 8b40 d98d 5841 4cbb 0d42 6bbe 2041
00000130: 2014 cd3f cb75 4c40 23a3 cf3f 10c4 8d40
00000140: 8b8e 2642 d73a e441 b792 3b3e 6002 ba3f
00000150: a3bb a33f 2b6e 2b41 42fa 9941 f122 d73f
00000160: 0084 8d3f ffba 1a40 fd54 7041 2d58 5541
00000170: a533 2a3f fbd2 8040 3eb0 da40 fa7d 5640
00000180: eee3 ea41 8bb9 e340 ac50 0342 2160 ac40
00000190: 6d1d a940 7ef9 5641 6afa 0941 80b3 8b3f
000001a0: a65e 6d3f add6 b33f 4d6f 6a3f c622 c93f
000001b0: 3895 a740 b808 303f 1fab 0a41 fcdc ce40
000001c0: cfca 1541 2762 7240 8c8a 0d42 bbdd 923f
000001d0: 446c 2f40 3fb7 1841 f9f6 dd41 6072 be41
000001e0: af9b 8a41 045e 7241 cc5d f33e d6e0 e73f
000001f0: 7a5f ca3c 684f aa40 b56f a241 f276 cf40
19.140736 4.4042478 3.9683418 13.310554 5.3105664 1.8238467 7.446976 26.533062
48.514523 3.1039681 9.454914 1.8223348 7.5011044 9.936081 23.12707 5.4005423
17.560894 6.86001 0.5177144 5.1050344 4.5557957 7.136907 1.5538117 5.328138
0.09732435 2.2753115 0.5282601 13.419709 3.3484142 22.90121 20.063656 1.2546716
17.595047 25.058079 42.32176 2.2289855 5.170543 2.782571 27.291304 14.270768
0.9973393 0.82443684 1.6522624 1.3672845 0.34901628 0.44435912 7.585206 19.614227
0.42253107 0.24670663 7.146282 20.666018 5.744095 9.285504 4.1289268 14.510356
0.3114633 1.6086088 27.600327 0.07515757 19.179869 13.6931095 17.529041 2.235094
3.846516 1.5499245 1.9648407 12.212441 1.9986664 0.6586142 32.008663 17.045282
4.370345 13.534631 35.432907 10.046489 1.6021767 3.1946895 1.622166 4.4301834
41.639202 28.52873 0.18317686 1.4531975 1.2791637 10.714396 19.247196 1.6807538
1.1055908 2.4176633 15.020749 13.334027 0.66485053 4.0257545 6.834014 3.351439
29.361294 7.1163993 32.82878 5.3867345 5.284842 13.435911 8.623636 1.0914154
0.9272255 1.4049889 0.9157608 1.5713737 5.236965 0.68763304 8.666778 6.4644756
9.362014 3.7872407 35.3853 1.1473917 2.740983 9.544738 27.745592 23.805847
17.326017 15.147953 0.475325 1.811549 0.02470373 5.322193 20.304544 6.4832697

gnn.gnn_node.batch_norms.1.weight f4 [128]
00000000: db15 803f 426c 7d3f eef3 813f 944f 813f
00000010: 96f2 803f b4be 803f 75e1 7e3f f596 7f3f
00000020: 0b16 803f 649f 7c3f 3f66 7f3f 34ee 7d3f
00000030: 56a7 7d3f 8369 803f 4f12 803f cf45 813f
00000040: 5f65 803f 7a89 7e3f be4c 803f 4442 7e3f
00000050: 684e 7e3f fca2 7d3f cbbd 803f 46da 7e3f
00000060: f9e0 7c3f 79c5 7e3f cf5a 7e3f cd2c 803f
00000070: 03a9 803f 0e69 7e3f 50aa 7c3f 8426 7e3f
00000080: 6718 813f 524e 7a3f 422b 803f 8efe 7e3f
00000090: efb2 803f 7b7f 7b3f fe85 7c3f e6e0 7e3f
000000a0: 8341 7e3f 3a03 7e3f 9349 7f3f 27f1 7d3f
000000b0: 18f8 803f 34a6 7f3f 4d8d 803f e10c 813f
000000c0: 3503 7e3f 7cc5 803f 3b06 803f 0cce 7d3f
000000d0: 1db3 7f3f 3180 783f 7753 803f 147a 7d3f
000000e0: 4d38 7e3f 027e 7b3f 8097 7d3f 4b14 7e3f
000000f0: a4e6 7c3f 4262 7b3f 9e9b 7c3f 5dac 7e3f
00000100: aa7b 7e3f 5942 823f f344 7d3f 9a81 7c3f
00000110: e8f5 7d3f 0360 7d3f 5fbd 7d3f 8df3 7b3f
00000120: 87cc 7f3f 7389 803f 6b35 7e3f 549b 7f3f
00000130: ecfd 7f3f 055d 7f3f d6b3 763f 0834 803f
00000140: c21e 7e3f 33c8 843f 205e 7b3f eeca 7d3f
00000150: 8100 803f fd38 823f 5ac3 803f 98c1 7e3f
00000160: 9c79 7b3f 91ad 7c3f 98d7 7c3f 6ae1 7f3f
00000170: 0525 7f3f be1d 7e3f 3cac 823f 5b13 7e3f
00000180: 6394 7e3f aa50 7e3f 64b8 7d3f 44ad 7b3f
00000190: 21ea 7e3f 000b 803f 96bc 803f fe81 7e3f
000001a0: f554 7d3f 82f3 7d3f dedf 7c3f 82a1 803f
000001b0: d4f6 803f d0d1 803f fecd 7d3f fe66 7c3f
000001c0: 2da3 7f3f 4df5 803f 3aa2 803f 3531 7e3f
000001d0: d6b5 7d3f 93fa 7f3f 03aa 803f 9f09 7f3f
000001e0: a9fe 7d3f 6367 7f3f a6c1 7f3f 6ddf 7d3f
000001f0: 5aab 7d3f 7746 7d3f 6a3f 7e3f eea2 7f3f
1.000667 0.98993313 1.0152566 1.010241 1.0074031 1.0058198 0.9956277 0.9983972
1.0006727 0.9868071 0.9976539 0.99191594 0.9908346 1.00322 1.0005587 1.0099429
1.0030936 0.9942852 1.002342 0.99319863 0.9933839 0.9907682 1.005792 0.9955181
0.9878078 0.9952007 0.9935731 1.0013672 1.0051578 0.9937905 0.98697376 0.9927752
1.0085572 0.9777576 1.0013201 0.9960717 1.0054606 0.98241395 0.98641956 0.9956192
0.9931871 0.99223673 0.9972164 0.99196094 1.0075712 0.9986298 1.0043122 1.0082055
0.99223644 1.0060267 1.0001901 0.9914253 0.9988268 0.97070605 1.0025471 0.990144
0.9930466 0.9823915 0.99059296 0.99249715 0.9878943 0.98196805 0.98674953 0.99481755
0.99407446 1.0176498 0.98933333 0.98635256 0.9920335 0.9897463 0.9911708 0.98418504
0.9992146 1.0041946 0.9930026 0.99846387 0.9999683 0.9975131 0.9636816 1.0015879
0.9926568 1.0373596 0.981905 0.9913777 1.0000154 1.0173641 1.0059617 0.9951415
0.98232436 0.9870234 0.9876647 0.9995333 0.9966586 0.9926413 1.0208812 0.99248284
0.9944517 0.99341834 0.9910948 0.9831126 0.99576 1.0003357 1.0057552 0.994171
0.9895776 0.9919969 0.98779094 1.0049288 1.0075326 1.006403 0.99142444 0.98594654
0.9985836 1.007486 1.0049508 0.99293834 0.99105585 0.9999172 1.0051883 0.99624056
0.99216706 0.9976713 0.9990486 0.99169046 0.99089587 0.98935646 0.9931551 0.99857986

gnn.gnn_node.batch_norms.1.bias f4 [128]
00000000: 3fc6 a1bc 9592 7cbc 0b5c 1d3c 4106 1b3c
00000010: 65f4 edbb 961c 093c 58bc 533c 5bb2 e8ba
00000020: 44a8 f63c 41cf 09bd c8c0 35b9 04dc 6ebc
00000030: 9bd6 e3bc bb45 683c 9327 7d3b 8d93 21bc
00000040: a659 2ebb a9f4 28bb 7de4 0d3c 2eb1 743b
00000050: 6aed c5bc d723 7ebb 07b4 c83c 8bf7 a53c
00000060: 4b6b 893a 8678 fe3b 26ae f43c 4388 aa3c
00000070: d8d7 d93c 5f54 82bc 9c2f 06bd 7a19 98bb
00000080: 4f0d 603c 64dd d9b9 d545 6cbc 14e2 053c
00000090: 1a29 a1bb 2db9 55b8 0c53 04bd b9e3 c23b
000000a0: 10b5 cabc 1a81 673c 716e dd3c c96d cdbc
000000b0: e22a 593c e899 2abb eb38 0c3c a01b f73a
000000c0: 895e 433b 8bc1 0ebd eef6 62bb 6084 81ba
000000d0: b278 853c c34f 9fbc 6ffd 1d3c 0155 21bc
000000e0: ee28 bbbc 037e a3bc 3864 29bc 8ba1 a4bc
000000f0: 4841 ee3c 7924 9bbc 7f67 263c 57a2 163a
00000100: cb66 a0bc a6d2 4739 fe08 b0bb b44b 1dbb
00000110: ab8d 75bc c88c 2ebc 52eb 03bc 0da3 b1bc
00000120: c62a 343b cfef bbbb 7dac 833c 235a 35b9
00000130: f260 c73b 7fc9 56bb 5ac1 36bd a91b 983c
00000140: cf6c 75bc 2246 b43c 76e3 06bd 27db ac39
00000150: fe2f b3bc 3fea 22bc caad b03c 2142 223c
00000160: 3e42 c93c 7eab b4bc 7bf4 40bc 2f57 1f3c
00000170: 0d2e abba f397 1cbc 78cf 243d cedf 46bc
00000180: a124 bb3c df01 c03b ba67 973b 5797 edbb
00000190: 1fda eabc 7235 5ebc a7be d1bc dd1e 6abc
000001a0: 4945 c93c 8647 173d b50d 6cbc b47d 61bb
000001b0: 66bd 2e3b d389 153c a460 4d3a b97f 77ba
000001c0: 7ee1 8fbb 3e8c 973b 2f0f 13bc b217 7abc
000001d0: aed8 b2bc d49f d03b 6f11 c13b 8550 833c
000001e0: 6649 8fbb 8fe5 49bc bcaa a93c 7dcd 8c3b
000001f0: 1813 aebc f8fc 373b dda1 9cbc 502f c83c
-0.019747851 -0.015415807 0.009604464 0.00946194 -0.0072618 0.008368632 0.012923323 -0.0017753349
0.030109532 -0.03364492 -0.00017333322 -0.014578823 -0.027812293 0.014176781 0.0038628324 -0.009861839
-0.0026603728 -0.0025780594 0.008660433 0.0037337053 -0.02416106 -0.0038778686 0.024499906 0.02025964
0.0010484246 0.0077658324 0.029868197 0.020816928 0.02659218 -0.015909372 -0.032760248 -0.004641709
0.013675048 -0.00041554414 -0.014420946 0.008171577 -0.0049182298 -5.0955616e-05 -0.032305762 0.005947557
-0.02474454 0.014129901 0.027030202 -0.025076764 0.013254853 -0.0026031677 0.008558492 0.0018852837
0.0029810986 -0.034852546 -0.0034632045 -0.000988137 0.016292904 -0.019447213 0.009642943 -0.009846927
-0.022846665 -0.019957548 -0.010338835 -0.020096561 0.029083863 -0.01893829 0.010156511 0.00057462364
-0.019580266 0.00019056592 -0.0053721657 -0.0024001421 -0.01498739 -0.010653682 -0.00805171 -0.021684194
0.0027491315 -0.0057353745 0.01607346 -0.00017295084 0.006084555 -0.003277391 -0.04461799 0.018567877
-0.014979555 0.022006098 -0.032931767 0.00032969678 -0.02187347 -0.009943544 0.021567244 0.009903462
0.02456772 -0.02205443 -0.011777039 0.009725376 -0.0013059989 -0.009557712 0.04023692 -0.01213832
0.022844614 0.005859598 0.0046205195 -0.007250707 -0.028668461 -0.013562547 -0.025603605 -0.014289585
0.02456917 0.036933444 -0.014407565 -0.00344072 0.0026663183 0.009127098 0.000783453 -0.00094413344
-0.0043908944 0.0046248725 -0.008975788 -0.015264438 -0.021831837 0.0063667092 0.005891971 0.016029606
-0.0043727634 -0.012322797 0.020711295 0.004296957 -0.021249339 0.0028074365 -0.019120151 0.024436623

gnn.gnn_node.batch_norms.1.running_mean f4 [128]
00000000: f624 913d 45c6 1a3d c710 f83c 1660 033e
00000010: 1a4a bd3d a06f 203d 1998 adba 0092 28bd
00000020: f64d 67bd d288 9dbd 3b54 a3bb 7565 4d3d
00000030: c01d f83c 58c2 27bd c73a 15bd 40cb d2bd
00000040: f221 9d3d 2b8d 9fbd 3b89 3e3d 2622 3ebd
00000050: df6b 653d 4244 98bd cea1 763d 0ece abbd
00000060: 9bc4 283d 1db1 88bd 16e3 0d3d 7f6a 053d
00000070: 38b7 843d 4ee7 0ebe b52a 32bd 5a46 343d
00000080: b079 b4bd 6c2b a3bd f9eb a33d 151e d3bd
00000090: 5303 463c 21a2 a33a bf35 e5bd 19bc 6a3c
000000a0: bd18 11bd 57e9 9fbd 78da a23d 1cfe 9a3d
000000b0: 542f 973d 596b 46bd 219e 0d3d 0f22 883d
000000c0: 4c87 7cbd d66a 3a3d 372d 76bd b590 35bd
000000d0: 5718 0bbd 9a05 c1bd 856c 923d 8cd0 ffbd
000000e0: 3960 e8bd 623a 833d 202f 013d c8fe 5fbd
000000f0: 7077 ae3d 305f efbd 6921 1f3d f993 6c3d
00000100: 4456 a43d da06 0a3e a989 8ebd e785 f2bc
00000110: cb13 57bd ec19 0f3d f116 a8bd 4af6 e1bd
00000120: f685 fcbd c858 243d 24dd 923c ea62 85bd
00000130: bff7 513d fffb cbbd a564 f4bd 63ca 433d
00000140: 7bcb cd3c a0d0 aa3d 51de d7bd b5fa 51bd
00000150: e9c9 a5bd 207e 64bd e17c cf3c b482 44bd
00000160: 6204 09bd b80c 153d f0a6 93bd 406b 22bd
00000170: caef 9cbd d6cd 4abd cb5f 1d3d e2f5 1dbd
00000180: 0a82 edbc 046d aebd e442 03bd ba2d b1bd
00000190: f2f3 59bd e769 bb3d 8fa1 c33d c1dd b5bd
000001a0: cd32 11bd 97b3 73bd 1ac1 01bd 2c71 6f3d
000001b0: ed00 153d 26b3 433d b9a6 d73b e7ec 353c
000001c0: 0073 b2bd 829f 593d 78c9 673d db7f a73d
000001d0: b73e 89bd aca1 7dbd 5dc2 1f3d b392 f6bc
000001e0: 78e8 3fbd c201 29bd 1d41 2abd eaf5 3e3d
000001f0: 0e37 e03b 148f 0abd 86b4 babd 9bd2 55bd
0.07087128 0.03778674 0.030281438 0.12829623 0.092426494 0.039168954 -0.0013244181 -0.04115486
-0.056470834 -0.07692112 -0.0049844063 0.050145585 0.030287623 -0.040956825 -0.036433008 -0.10292673
0.0767249 -0.077905975 0.046517592 -0.046419285 0.056011077 -0.07434894 0.060212903 -0.08388911
0.041203123 -0.06674407 0.034640394 0.032572266 0.06480259 -0.13955423 -0.04349776 0.044012405
-0.088122725 -0.079672664 0.080039926 -0.10308472 0.0120857535 0.0012484231 -0.11191892 0.014327073
-0.035423983 -0.07808178 0.07951826 0.07567999 0.07382074 -0.04844222 0.03457463 0.06647121
-0.061652467 0.045512043 -0.060101714 -0.044327457 -0.03395876 -0.094248965 0.07149605 -0.12490949
-0.11346478 0.0640762 0.031539083 -0.054686338 0.08518875 -0.116880774 0.03885022 0.057758305
0.08024266 0.13479176 -0.0695985 -0.029604865 -0.05250911 0.03493683 -0.08207501 -0.11033304
-0.123302385 0.04012373 0.017927714 -0.06513007 0.05126166 -0.09960174 -0.11933259 0.047800433
0.025121441 0.08340573 -0.1054045 -0.051264483 -0.08095152 -0.055784345 0.025328102 -0.04797621
-0.033451445 0.036389083 -0.07209575 -0.039653063 -0.07662924 -0.049512707 0.038421433 -0.03856457
-0.028992672 -0.08516887 -0.032046214 -0.086513 -0.05321116 0.09151059 0.09552299 -0.08880187
-0.035448838 -0.059497442 -0.031678297 0.05845754 0.036377836 0.04777827 0.006581154 0.011103845
-0.08713341 0.053130634 0.05658862 0.08178683 -0.06701415 -0.06192176 0.03900372 -0.030099249
-0.04685256 -0.041261442 -0.041566003 0.04662124 0.0068425005 -0.033827856 -0.09116463 -0.052202802

gnn.gnn_node.batch_norms.1.running_var f4 [128]
00000000: 1f85 133f 89da e63d 851e 0e3e 6540 8a3f
00000010: 5922 373f 0362 b83e 3969 1c3e 0d8c 703e
00000020: 3394 cb3e 9ab5 2b3f 0c7f 8b3d 36a5 ab3e
00000030: ec99 283e 4f63 b73e 1c0d bb3e a8e2 333f
00000040: eec1 353f 7a11 083f a9ee 683e a124 8f3e
00000050: a360 153e 8b9f 113f 22c1 4c3e 9595 3d3f
00000060: 4cb1 8f3e 8cd0 063f bafd 1f3e 98e8 e63d
00000070: d2cc 9e3e b6bf e43f 77ee b13e cd21 943e
00000080: bd68 ea3e 5aaa 463f f147 bc3e 1c4f 8e3f
00000090: 9ddd 143d e458 e33d fd1f 433f b386 8b3d
000000a0: acc9 823e 35b3 083f 0c61 f13e 7a65 1c3f
000000b0: f58c d03e 698c 0f3f bed7 f23d 35d0 a73e
000000c0: b1ea de3e 3e81 763e ecf3 223f e5b3 523e
000000d0: 2637 6c3e 8f86 b23f 7799 943e 50d0 be3f
000000e0: 3398 4b3f 82fa 013f 9f40 553e 1179 493e
000000f0: bc9b d43e 3c98 583f 941e 0a3f 300f 8a3e
00000100: ec16 173f 84b1 f23f c7b3 1b3f 3ed1 d63e
00000110: f590 3f3e 0c25 ca3e b15e da3e 9977 963f
00000120: 9236 9a3f 4c8d 2a3e 3d92 8e3d 1e38 b23e
00000130: efe3 773e 9423 7a3f 81c0 df3f 50b8 983e
00000140: 4d94 ff3d 886e 1b3f 33b7 6c3f a8b1 f13d
00000150: a2d2 f93e 4180 bd3e 378c 483e e963 ca3e
00000160: 848f 893e 2524 643e a711 503f fb7a 5b3d
00000170: b9d6 3b3f e38d 323e 9c1e 2b3e 25a3 8f3d
00000180: 004c 1e3f 1752 073f 5a70 623e e4fb af3f
00000190: bbf1 c93e 38d3 803f 19aa 6c3f 3f4b 7b3f
000001a0: c230 9c3e 0a98 c63e 3661 473d b70e 613e
000001b0: f121 233e 7174 033e 2c66 243e 5bd1 073e
000001c0: 5eb9 253f d51a 533e 8a92 3c3e ff1f 873f
000001d0: 06fc 6e3e c062 ce3e b904 223e 66b3 183e
000001e0: bd5e f03e fda0 783e a74d d23e 3c13 5d3e
000001f0: f38d d83c 4762 ca3d 9664 103f be36 9e3e
0.57625 0.11272151 0.1387883 1.0800902 0.71536785 0.36012277 0.15274514 0.23490925
0.39761505 0.67073977 0.06811342 0.33524483 0.16464967 0.35817954 0.3653344 0.70267725
0.7099904 0.5315167 0.22747292 0.27957633 0.14587645 0.5688407 0.1999555 0.7405637
0.28064954 0.5266197 0.15624133 0.112748325 0.3101564 1.7871006 0.34752247 0.28932038
0.45783034 0.77603686 0.36773637 1.1117892 0.03634416 0.11100939 0.76220685 0.06812801
0.25544488 0.5339845 0.47144353 0.6109234 0.40732542 0.56073624 0.11857556 0.32776037
0.4353843 0.2407274 0.63653445 0.20576437 0.23067912 1.3947314 0.29023334 1.4907322
0.7952911 0.5077287 0.20825432 0.1967509 0.41525066 0.8460729 0.5395291 0.26964712
0.5901935 1.8960423 0.60821193 0.41956514 0.1870764 0.3948139 0.4265037 1.1755248
1.2047904 0.16655463 0.069614865 0.3480844 0.24208044 0.9771054 1.7480623 0.2982812
0.12479458 0.6071553 0.9246704 0.11801463 0.48793513 0.37011912 0.19584738 0.3952935
0.26867306 0.22279413 0.81276935 0.05358408 0.73374516 0.17436938 0.16710895 0.07013539
0.61834717 0.52859634 0.22113171 1.3748746 0.39442238 1.0064459 0.9244705 0.9816169
0.3050595 0.38787872 0.048676692 0.2197827 0.15930916 0.12837388 0.160546 0.13263457
0.6473597 0.20615704 0.18415275 1.055664 0.23338327 0.40309715 0.15822114 0.14912185
0.4694728 0.24280162 0.4107487 0.21589369 0.026434874 0.09882026 0.5640348 0.3090114

synth_conv1.conv1d.weight f4 [1, 1, 6]
00000000: f508 7cbe ea87 403d d800 913d fd19 cfbd
00000010: fafa 103e f132 4abd
-0.24612792 0.047004618 0.07080239 -0.10112379 0.1415824 -0.049364988

synth_conv2.conv1d.weight f4 [1, 1, 9]
00000000: 55d9 90bd 4700 513d c10e 8abe c097 bebd
00000010: a998 ee3d a305 893d 3de1 76be 051d 63be
00000020: bf55 523e
-0.07072703 0.051025655 -0.2696438 -0.09306288 0.11650211 0.06690528 -0.24109359 -0.22179039
0.20540522

synth_conv3.conv1d.weight f4 [1, 1, 12]
00000000: 25a9 9d3e 325d 88be 1c2c a0be 57c5 783e
00000010: 816f f23c 62f6 863e 6a7f 07bd a6ef 763e
00000020: 973b 423e 4889 9a3c 776d d73b f4a3 64be
0.3079311 -0.26633602 -0.31283653 0.24294029 0.029594185 0.2635985 -0.033080496 0.24114856
0.18968044 0.018864289 0.0065743285 -0.22328168
