GCN/results250/gcn-epoch-3-val_loss-1.171.pt (torch, 104335 bytes, 23 tensors)

node_encoder.node_type_embedding.weight f4 [3, 3]
00000000: c1ee 73be 205e c93d 678c 9bbe 9a08 5e3f
00000010: bec7 5f3f afa3 fdbb bbe7 5d3c 249e a2be
00000020: dcaa 1fbf
-0.23821546 0.09832406 -0.30380556 0.86731875 0.8741416 -0.00774046 0.013544018 -0.31761277
-0.62370086

synth_encoder.synth_emb.weight f4 [7, 3]
00000000: 1152 523f 4347 7a3d 4062 153e 993a c4be
00000010: cab9 d8bd ab88 7bbe 8cdb 153f c169 44bf
00000020: 3544 643e 6755 25bf c3b0 40bf fefb 343d
00000030: da25 cabd b169 0d3e 5482 3ebf b3ef 443f
00000040: cf1a 413e 8f9d 3abf 7f22 4e3f d426 dcbd
00000050: 7e3b ea3c
0.82156473 0.061103117 0.1458826 -0.38325956 -0.105823115 -0.24563853 0.58538127 -0.7672387
0.22291644 -0.6458344 -0.75269717 0.04418563 -0.09870501 0.1380985 -0.74417615 0.7692825
0.18857883 -0.72896665 0.80521387 -0.107495934 0.028592821

gnn.gnn_node.node_encoder.node_type_embedding.weight f4 [3, 3]
00000000: c1ee 73be 205e c93d 678c 9bbe 9a08 5e3f
00000010: bec7 5f3f afa3 fdbb bbe7 5d3c 249e a2be
00000020: dcaa 1fbf
-0.23821546 0.09832406 -0.30380556 0.86731875 0.8741416 -0.00774046 0.013544018 -0.31761277
-0.62370086

gnn.gnn_node.convs.0.linear.weight f4 [128, 4]
00000000: 4bb4 4cbe 1828 dcbe 4742 80be f526 15be
00000010: cf81 813e 9246 793d 2cc2 9fbe 6bb0 febe
00000020: 8c95 443e 3ce4 c93e 3dfc 173e 7035 c73e
00000030: 95db 40be 586b b03c fd74 a0be 2b5c 7f3e
00000040: aaed 07bd 2ab6 b2be d8b6 e33e 48a5 ce3e
00000050: 2043 d23c 66f9 dabe 5940 993e 5852 a0be
00000060: eb06 c53c 0b93 be3e 05c7 2dbe 58bc e13e
00000070: cc42 d5be c6b7 703e 774c d0be 1dc6 013e
00000080: 8657 5c3e 9887 183e 364b b8be d141 cc3e
00000090: e098 433e 024a 62be b317 473e 13cd cdbe
000000a0: 2093 f2be 78b9 dc3e f5e8 873e 622e f2bd
000000b0: aebe bcbe e9fe 39be 3c87 dabe cae3 eabe
000000c0: 09c1 c93d 0cec 053d 0dce 46be ffc3 15bd
000000d0: 04e4 c33e 6d92 d03d 9cc1 e13e 2417 883e
000000e0: 26e7 2cbe 99de 08be 79a2 16be 0714 023e
000000f0: 37dc 0e3e a389 873e 13ea c4be a5cc 9cbe
00000100: d137 fd3e 5e35 9c3e 52e2 773e 6efd cb3e
00000110: f10c 26be 1a95 673e b11b 7e3d 6100 a3be
00000120: b775 fcbe 233e db3e acb4 413e 7e60 20be
00000130: 86ef c73e 3592 6bbc 5c53 6d3a b86a e8bd
00000140: c7c5 2dbe 9572 d0be a38a 0fbe 9923 f4be
00000150: f801 d5be 6498 68be ac14 583e 55b8 f8be
00000160: 7555 873e 7cf4 793e 5d62 983e 32ba c83e
00000170: 685e ebbe d60e c5be 33f1 f3be df9c bdbe
00000180: 8198 b13e facc 27be 5ab3 2b3e c8ed a4bd
00000190: 9b2b 913d 3284 ed3e 7de0 dcbe e5cb b73c
000001a0: e969 f3be 4a73 b83e 1dbd ab3e 3d8a 2ebe
000001b0: 830a cc3d 6c8b c53e ebe8 d23e 89a6 dcbe
000001c0: f866 91be 29c4 d9be b171 023f ebd2 e5be
000001d0: 58fa d73e b832 013f 4f45 c03c 56d0 91bd
000001e0: a5ea 913e ee2e f8be ee5b c9be b08b d93e
000001f0: 8e98 793d edc6 733e c30f af3e a2a5 60be
00000200: dd41 d23d 4ef3 47be 53b9 c3be dfbc 41be
00000210: c73c cdbe e40b 7b3e 13ec c23e 6556 bdbe
00000220: 0871 f83e 2efc 673d d1d2 adbe 6752 b03e
00000230: f8b3 4cbe de25 80be 2533 f13e 55c0 f03e
00000240: 39c5 233e 193e cebc 9fad 8abe 0b8c a7be
00000250: eccb ed3e a0ce 773e d8fc 963e d784 9cbe
00000260: 8c0d b5bd 8fdd 9f3e d8b8 dd3d f21b 7abe
00000270: 880d 17be b884 263d cf9a c3be 1854 d43e
00000280: d09f c23d 03fd 92be bc67 b73e 2fd7 4bbb
00000290: 9819 803d 2a4f 0e3d 2955 f03e 2a2e ba3d
000002a0: 1daa 77be 42ea 96be 01bb c5bd 8d88 d53e
000002b0: 9d3c c73e 5da9 34be 7308 4dbe 7712 043e
000002c0: 4976 4bbe 3193 ec3c e524 97be 249a 50be
000002d0: ddf3 ae3e d27a 7cbd 85b4 00bf d01b 8dbd
000002e0: 9ccf d1bc 33f1 963d f116 ad3d 7911 9fbd
000002f0: 7598 1cbe 4890 c83e 63a0 5fbc 43ac e9be
00000300: b4ec 93be 1548 1e3e ed97 a2be 293e 3dbe
00000310: bbfb 9f3c f52f c53e 372c 9abe 2dba 47bd
00000320: e903 8b3e c3a7 da3e 7e6b 1a3e 81cf c23e
00000330: 90c0 53be dd8d e0be 22e9 d0be c9ed 7b3e
00000340: 04f7 f93d df98 d53e 2671 8dbd d662 bbbe
00000350: be15 303e c799 aa3e e115 2d3d e592 dfbe
00000360: 5fd3 0f3e beb7 ea3e 48de 92be 9797 ed3d
00000370: 75ed df3a 2a96 cbbe 0c41 bc3e c31b b7be
00000380: 1743 3e3e aaf2 373e b4c1 70be 597d 983d
00000390: 643a dfbe a30c 8dbe 9a85 a93e 097a 74be
000003a0: ac4f 073d c4e8 6f3e d949 983e ffe4 ebbd
000003b0: 60a5 503e 2452 bf3e 935f babd fba7 87bd
000003c0: 0e1f 56be b46b dd3e 6652 4c3e 16a6 643d
000003d0: 655d c9be c9a5 6b3e 7aaf dcbe 6b32 f63e
000003e0: 733d 7f3e 3652 be3e 6d16 fdbe 97fa d43e
000003f0: 98d6 53be b145 953b 25b8 59be c76b f5be
-0.19990651 -0.4299934 -0.25050566 -0.14565642 0.2529435 0.060858317 -0.3120283 -0.4974397
0.19197673 0.39431942 0.14842315 0.38907957 -0.18833764 0.02153556 -0.31339255 0.24937503
-0.03318564 -0.34904605 0.44475436 0.40360475 0.025666773 -0.427684 0.29931906 -0.31312823
0.02405115 0.3722156 -0.16970451 0.44089007 -0.41652524 0.23507604 -0.40683338 0.1267323
0.21517763 0.14895475 -0.3599488 0.39893964 0.19101286 -0.22098544 0.19442634 -0.40195522
-0.47377872 0.4311025 0.2654492 -0.11825253 -0.36864227 -0.18163647 -0.426813 -0.45876914
0.09851272 0.032695815 -0.1941454 -0.03656387 0.382599 0.101841785 0.44093025 0.26580155
-0.16885051 -0.13366164 -0.14710416 0.12702952 0.13951193 0.26472196 -0.38459834 -0.3062488
0.49456647 0.30509466 0.24207428 0.3984179 -0.16215874 0.22615471 0.062038127 -0.31836227
-0.4930856 0.42820844 0.18916577 -0.15661809 0.3904993 -0.01437812 0.0009053254 -0.1134848
-0.16969977 -0.4071242 -0.1401773 -0.4768341 -0.41603065 -0.22714382 0.21101636 -0.48578134
0.26432386 0.2440967 0.29762545 0.39204556 -0.45970464 -0.3848788 -0.47644958 -0.37033746
0.34686664 -0.16386786 0.16767636 -0.08053166 0.07088395 0.4638992 -0.4314002 0.022436092
-0.4754174 0.3602546 0.3354272 -0.17044921 0.099629425 0.38582933 0.41193327 -0.43095806
-0.2839887 -0.4253247 0.5095473 -0.4488748 0.42183185 0.50468016 0.023470549 -0.07119815
0.28499332 -0.48473305 -0.3932795 0.42489386 0.060936503 0.23806353 0.34191713 -0.21938184
0.10266469 -0.19526407 -0.3822733 -0.18919705 -0.40085432 0.24516255 0.38070735 -0.36979976
0.48523736 0.05663698 -0.33949903 0.34437868 -0.19990528 -0.2502889 0.47109333 0.47021738
0.15993203 -0.025176095 -0.27085587 -0.32724032 0.46444643 0.24199915 0.2948978 -0.305701
-0.088404745 0.31223723 0.10826272 -0.24424723 -0.14751256 0.040653914 -0.38204047 0.41470408
0.09503138 -0.28708658 0.3582133 -0.0031103601 0.062548816 0.034743465 0.46939972 0.09090836
-0.24185987 -0.294756 -0.09654809 0.41705742 0.38913432 -0.17642732 -0.20022754 0.12897669
-0.19869341 0.02887878 -0.29520336 -0.203713 0.34170428 -0.061640568 -0.5027545 -0.068900704
-0.025611691 0.07370224 0.08451641 -0.077670045 -0.15292533 0.39172578 -0.013649079 -0.45639238
-0.28891528 0.15457185 -0.31756535 -0.18480743 0.019529214 0.3851315 -0.30111858 -0.048761535
0.2715142 0.42706117 0.15080068 0.38048938 -0.20678926 -0.43858233 -0.40802866 0.24602427
0.122053176 0.41718194 -0.06906347 -0.36598843 0.17195794 0.33320448 0.042257193 -0.4366676
0.14045475 0.4584331 -0.28685212 0.11601179 0.0017084318 -0.39763004 0.36768377 -0.35763368
0.1858028 0.17963663 -0.23511392 0.07445783 -0.43599236 -0.27548704 0.33109742 -0.23874678
0.033034965 0.23428637 0.2974384 -0.11518287 0.20375586 0.37367356 -0.091002606 -0.066238366
-0.20910284 0.43246233 0.19953308 0.055822454 -0.39329067 0.23012461 -0.43102628 0.4808534
0.24925785 0.37172097 -0.49431172 0.41597435 -0.2068733 0.004555427 -0.21261652 -0.4793379

gnn.gnn_node.convs.0.linear.bias f4 [128]
00000000: 4a3b f83e 7f3c bb3b 9c8f b4be 0631 0b3e
00000010: 5297 eabe d07d e73e ed9b 95bb 8be3 f33e
00000020: 5c42 fe3e 45c2 473e 967f 1bbd 98c3 063d
00000030: 39f0 f6be e5bc b8be 490a ec3e 3e8f bb3e
00000040: b196 fd3e 0154 7c3c bd0c fa3e 1795 d63e
00000050: fc93 60bd 1b26 363e 0299 0cbe 89d6 c8be
00000060: 693f af3d c632 ab3d 5a8e c13e 2fb6 813e
00000070: 4b2f b83e 1b78 f0be 14c6 01be 9bbf a33e
00000080: 7195 f03e e2b4 a3bd 4f70 e43e 707f dabd
00000090: 1365 c43e 9549 843e b79e c4be 3a1a 35bd
000000a0: 457e 8e3e 314c c83d 8626 e4be 3448 ddbe
000000b0: 0bf5 cdbc 2be7 b7be 19ff 88be c73b fcbd
000000c0: 2460 6a3d c7c2 01be 4dc4 893e 6758 843d
000000d0: 3336 8f3d 3ff3 af3d 10a3 e5be db8b 0cbe
000000e0: 87f8 6ebe f980 383e f1e2 d1be 3d6f 273e
000000f0: 3f8b d4be da5d b1bd ed60 453d e458 a93e
00000100: d50d 40be c7e6 9c3e 7bb2 d03e d42e 49be
00000110: 3e47 3fbd 0b7d 1fbc a77d 8cbe 88d1 f33e
00000120: 6eb9 e8be 162b b33e 9394 33be 588c 9cbd
00000130: 4e67 453d 86e8 2d3e c8ea 1dbd 6800 9dbb
00000140: ac46 d2be 8351 e8be eb43 95be e481 8a3e
00000150: dd09 8f3e 8ca1 fa3e 2f07 703e 89d6 8e3d
00000160: 2065 3ebd e730 973e 8d5b 7f3e 5c9c 7a3c
00000170: b436 38be 878e 2e3d a644 ad3e eb79 c43e
00000180: 3003 d3be 27cf dbbe fa46 a43e e256 563e
00000190: 65fa 6ebe 45f2 fdbd fb0d 4ebb 178f b9be
000001a0: 991a f2be af45 bcbb c142 2a3e f4d2 70be
000001b0: c8fd b3be 3959 aabe 762e 91be 4750 f83e
000001c0: 12dc afbe 595c bdbe 5003 f0be ec92 dbbd
000001d0: 88b6 f13c a578 ee3e 50af d83e ea47 dfbe
000001e0: 28ff dd3e 965c f33c 9be1 8cbe 6a97 bebd
000001f0: a1bb 37be a9af 763c 3143 ab3e 8fd6 8bbe
0.48482734 0.005713999 -0.35265815 0.1359292 -0.45818573 0.45213175 -0.004565707 0.4763454
0.49660003 0.19507702 -0.037963472 0.032901376 -0.4823015 -0.36081615 0.46101597 0.36632723
0.4952903 0.0154008875 0.48837844 0.41910622 -0.05482863 0.17787974 -0.13730243 -0.39226177
0.085570164 0.08359294 0.37803918 0.25334308 0.35973582 -0.46966633 -0.12673217 0.3198212
0.46989015 -0.07993485 0.44616935 -0.10668838 0.38358364 0.2583739 -0.3840234 -0.044214465
0.2783071 0.09780157 -0.4456064 -0.4321915 -0.02514126 -0.35918555 -0.26757124 -0.12316089
0.057220593 -0.12671958 0.26907578 0.06462174 0.069927596 0.085913174 -0.4485097 -0.13725226
-0.23336993 0.18017949 -0.40993455 0.16351028 -0.41512486 -0.08660479 0.04818814 0.3307563
-0.18755277 0.3064482 0.4076117 -0.1964677 -0.0466988 -0.009734402 -0.27439615 0.47620797
-0.45453972 0.3499381 -0.17537145 -0.07643956 0.048194222 0.16983232 -0.038553983 -0.004791308
-0.41069543 -0.45374689 -0.2915338 0.27052224 0.27937213 0.48951375 0.2344024 0.06974513
-0.04648316 0.29529497 0.24937268 0.015296068 -0.17989618 0.042616393 0.33841437 0.38374266
-0.4121337 -0.42931482 0.320854 0.2093158 -0.23337705 -0.12399725 -0.0031441438 -0.3624198
-0.47285917 -0.0057456116 0.16627027 -0.23517972 -0.35154557 -0.33271196 -0.2835576 0.48498747
-0.34347588 -0.36984518 -0.46877527 -0.107213825 0.029505983 0.4657642 0.42321253 -0.43609554
0.4335873 0.029707234 -0.27515873 -0.09306224 -0.17942668 0.015056529 0.334497 -0.27312133

gnn.gnn_node.convs.1.linear.weight f4 [128, 128]
00000000: a2c9 993d bd09 dfbc 35b6 76bc 593d 633d
00000010: 70de 94bd 9838 d73c 7db2 69bd fd9d ef3c
00000020: 863c afbd e1fb b73d 98ef 733d b6d6 d23c
00000030: 06ff b03c ba54 843c e018 78bc 91d5 983d
00000040: 2510 56bd 6159 ccbc 4561 643d b8f6 ce3d
00000050: c6ec 14bd 9c73 793d 7e35 0d3d 7c97 31bd
00000060: b63b 26bd 1ae6 5cbd e0dd 3e3a 9cdd 2bbc
00000070: 110c ac3d 3d29 903c b319 1c3d c686 9c3d
00000080: 99b4 2a3c e657 ca3d 9af5 62bd a4ee a9bb
00000090: 7bcf cc3d 8a71 8abc a05d a33c a251 3bbc
000000a0: 162f ac3d 925a 76bd 318b 27bd 4a95 533d
000000b0: 942e 10bd 211e 73bd 1557 f8bc e867 3f3b
000000c0: e620 b53c b092 f03a 907e 4c3d e3bd ac3d
000000d0: 3c12 7f3d f87d d8bc baff 403d c5c8 903d
000000e0: e10c 76bd 07f6 10bd b935 583d b9b7 113d
000000f0: de67 a43d da00 6f3c 279e ce3b 5463 1ebd
00000100: 5504 653d f665 a23d 8e4c a03c 09a7 543d
00000110: f093 003d 3d7e af3c 6876 9bbb 924a 1fbd
00000120: 092c 4d3d 5b59 333d 254a 95bd 98a2 bcbd
00000130: 1490 c7bc a9bf b23d 5b82 a3bc 7afa 483d
00000140: cad3 86bd bfd9 94bd ac94 7a3c 213c 203d
00000150: f9f8 5fbd 8e66 a1bc 38c6 42ba cff5 05bd
00000160: c43c 793d 47d2 853d a370 023d 9ac2 04bd
00000170: 695d c2bd a313 37bd 5bef ca39 9c4f 2fbd
00000180: 489f b43d f80d 90bd 96da acbd 4201 523b
00000190: 9020 9a3d f9ca b93c 338b c03b a8df 64bc
000001a0: 5fba 813c b104 483c fb07 1dbd a953 a6bd
000001b0: 20f1 ac3d 76c9 0e3b 2dce 9e3c 0eab ba3d
000001c0: e508 6abc d969 89bd 9579 c73d a150 71bc
000001d0: 33d0 91bd 3ce5 c73d cefc 21bd 658f 483d
000001e0: 4800 8f3d 8d30 873d 2f42 793d 634c 75bd
000001f0: 2867 94bd 0835 c23d 2a91 25bd 0746 8ebd
00000200: 4cb3 883d 5f65 bd3d f3f7 ca38 200c 24bd
00000210: 0119 e53c 9464 92bd 53e9 a83d 163b 3fbc
00000220: b887 0d3d 35f5 5fbd 63cd 533d 03f0 2dbd
00000230: a54b 8b3d 2776 26bd d386 bc3d 7995 aebc
00000240: 8277 cc3d 48fe 03bd fe2c 98bd 3803 3dbd
00000250: 2ebb b9ba 809c f2bc 721c 6f3d f569 5b3d
00000260: e4e4 293c 6a1d 213d 5f06 b73d b54c 57bc
00000270: 28dd 40bd edda 4cbd d72b 8b3d 11ba bb3d
00000280: 1be2 283d efcd 823d 16ba eabb 7bd0 2f3d
00000290: 8e17 943d 5225 aa3d 247b 80bc 9a1a 05bd
000002a0: c5c9 92bd 2c4a 7d3b 22af cabb 29a1 603d
000002b0: b3f7 7c3d bf36 1bbd ebc3 b93b 31b2 97bc
000002c0: 8e4c 083d 7b64 293d 867b 4abc 6cd8 873d
000002d0: 0a94 a43d 1072 753d 522b 393d 52a1 923d
000002e0: dbc9 a0bd 5772 0b3d c441 4d3d 12c1 51bc
000002f0: 1eb2 113d 8e24 783d 00c9 633d bccb 2e3d
00000300: 9409 8f3d b7d2 9b3d f6f1 c03d f9a7 58bd
00000310: 3b90 8c3d 1f8e 103d a82c 0ebc dd99 1fbc
00000320: 43ea 9e3d fd8d fe3c a550 fb3b 3e47 1d3d
00000330: dae7 f0bb f54e e4bc 14b6 97bd c08b a0bc
00000340: 27b3 4bbd 09e0 833d fad4 9e3d 78c4 2dbd
00000350: aaa1 083d 0dc0 b43d 73b9 18bd 5b0b ab3c
00000360: 3f3c ae3d dc65 c8bc de10 86bc 4b43 833d
00000370: 2deb b33d ddac 30bd 42a2 9a3c 9d8a e43c
00000380: 3559 2c3d 9d5a 86bd 7efc 81bd d434 38bd
00000390: bff4 9e3c b207 c13c 5b8a 8e3d 45ef 9f3d
000003a0: 0326 a63c 689b e9bc ab29 a3bd dc4f 2dbd
000003b0: 39a2 6dbc c519 78bd 22bd 9d3c 5a16 ca3c
000003c0: b0cb ff3c bb0e 86bd c02e 8ebd 8961 aebd
000003d0: e6df 333d 8bc7 aa3d f983 173d 948a febc
000003e0: 1b47 4cbb 7540 a0ba 4d1f 97bd 1a31 923d
000003f0: a31e e4bc fbd8 743d 0570 5abd e54d c63b
0.075091615 -0.027226323 -0.01505809 0.055478428 -0.07268989 0.026272103 -0.057054985 0.02925014
-0.08556466 0.08983589 0.059554666 0.025737148 0.02160598 0.016153682 -0.015142649 0.074626096
-0.05226149 -0.024944963 0.055756826 0.101056516 -0.036358617 0.06090127 0.034474842 -0.043357357
-0.04058429 -0.05393038 0.0007280987 -0.0104898475 0.08400739 0.017597789 0.038110446 0.076428935
0.010419034 0.098800465 -0.055410005 -0.005185919 0.10000511 -0.016899843 0.019942105 -0.011433037
0.084074184 -0.06014497 -0.040904228 0.051656045 -0.03520067 -0.059354905 -0.030314961 0.002920622
0.022110414 0.0018354263 0.049925387 0.084346555 0.06227325 -0.026427254 0.04711888 0.07069544
-0.060070876 -0.03539088 0.05278561 0.035575602 0.080276236 0.014587605 0.0063054743 -0.038668945
0.055912334 0.07929604 0.019567754 0.05191711 0.031391084 0.0214225 -0.0047443397 -0.038889475
0.050090823 0.043786388 -0.072895326 -0.092107 -0.024360694 0.087279625 -0.01995962 0.049066998
-0.06583364 -0.07268094 0.015294235 0.039119843 -0.0546808 -0.019702222 -0.00074300496 -0.032705124
0.060848966 0.06534248 0.0318457 -0.03241215 -0.09490473 -0.04469646 0.00038706776 -0.04280053
0.08819443 -0.07033914 -0.084401295 0.0032044207 0.07525742 0.022679793 0.005875969 -0.013969339
0.015835939 0.01220815 -0.03833769 -0.08121426 0.084444284 0.002178756 0.019385422 0.09114657
-0.014284347 -0.06709642 0.09739987 -0.014728696 -0.07119789 0.0976052 -0.039547734 0.048964877
0.069824755 0.06601057 0.060854133 -0.0598873 -0.07246238 0.09482771 -0.040421642 -0.069469504
0.06674823 0.092478506 9.678295e-05 -0.040050626 0.027966024 -0.0714809 0.08247628 -0.011671802
0.03455326 -0.054677207 0.051709544 -0.04246522 0.068015374 -0.040640023 0.09205403 -0.021311508
0.09983732 -0.032224923 -0.074304566 -0.046145648 -0.0014170164 -0.02961564 0.058376737 0.053567845
0.010369513 0.039334692 0.08936762 -0.013140847 -0.04708591 -0.05001347 0.06795471 0.09166349
0.041231256 0.06386935 -0.0071632965 0.04292343 0.07231055 0.083078995 -0.015683718 -0.032496072
-0.07167391 0.0038648946 -0.0061854282 0.054841194 0.061759662 -0.037894007 0.005669107 -0.018517585
0.033276133 0.04135559 -0.012358552 0.06633076 0.08036049 0.05992323 0.04520733 0.07159676
-0.07851001 0.03404459 0.050111547 -0.012802379 0.035570256 0.060581736 0.05561161 0.042674765
0.06984249 0.0760855 0.094211504 -0.052894566 0.06863447 0.035291787 -0.008677639 -0.009741274
0.077595256 0.031073565 0.0076695257 0.03839802 -0.0073518576 -0.02786968 -0.074077755 -0.019597888
-0.0497314 0.06439216 0.07755466 -0.042423695 0.0333573 0.08825693 -0.037286233 0.020879438
0.08507585 -0.024462633 -0.016365465 0.064093195 0.087850906 -0.043133605 0.018876199 0.027898127
0.042077262 -0.06560252 -0.06346987 -0.044972256 0.019403813 0.02356324 0.06959983 0.07809309
0.020281797 -0.028516486 -0.07966932 -0.042312488 -0.014504009 -0.06057145 0.019255225 0.024668861
0.031225055 -0.06545778 -0.069425106 -0.08514697 0.043914698 0.08338841 0.036991093 -0.031071939
-0.0031170312 -0.0012226241 -0.07379017 0.07138272 -0.02784664 0.05977724 -0.053329486 0.006051766

gnn.gnn_node.convs.1.linear.bias f4 [128]
00000000: bfaa 5c3d be6c 9db9 000e c539 dc10 be3d
00000010: b336 9b3d 95f6 b1bc 98f3 283c 069b 6abd
00000020: ce58 44bd 6b4d 9cbc 1d32 413d 3efc 113d
00000030: af1c 853b 85f5 573a 88a0 4a3d 535c 9abd
00000040: 769e af3d 4f57 cdbd 9ea8 42ba 7102 a23c
00000050: 3ca3 f73c 238d e03c 6a21 3a3d c3cc aebd
00000060: 2420 e23b b9c2 55bd f76b 77bc 3607 31bb
00000070: fbc3 823d 62bc f1bd a97a ea3b 51cc cd3c
00000080: ad8b d1bc d6be 30bd 540e de3c 6f9a 87bd
00000090: b0e9 f1bb 3a2d b03d 41c0 8cbd 3646 12bd
000000a0: 62d3 b23b 65a5 9abd 383f 803d 1f3d b93d
000000b0: c622 b23d 4593 55bd f5ae b4bc 6aed 443c
000000c0: 576f 60bc 086a 713d f995 03bd ef63 debc
000000d0: 7f49 873a 1369 46bd 8516 913d 819c d0bd
000000e0: 14f6 c6bd 820f 0e3d 6989 4a3d 3e4c 25bd
000000f0: 063b 913d 70c5 c8bd 41cd 533d 60d7 873d
00000100: 2af4 863d 5ee7 283d 5910 35bd f5c4 0c3d
00000110: d493 afbc f254 4c3d b9f6 aebd c46e 14be
00000120: d07e 89bd b236 633d 664a 1a3d 1a47 15bd
00000130: f3aa 1f3d 9344 b0bd 15d1 84bd 18ee 803d
00000140: 208a 183d 255a 253b b3ea aebd 5607 c33c
00000150: 09e6 8fbd 3e0d 6bbd c0d4 ccbc 52d7 85bd
00000160: 5f65 69bd 114e 483d b910 493d 4cb1 8ebc
00000170: d190 26bd 41d5 48bd ef78 4dbd 6aee 713b
00000180: babf 02bd cc3d eebd b8dc cebc 488a 57bd
00000190: 1be3 c1bc 9e69 383d c061 ce3d bcc5 88bd
000001a0: 17ec 2cbd 70dd c1bc 984b 053d 6fe2 033d
000001b0: d8c1 2d3c 6ef8 c4bb 7649 17bc d89e 213d
000001c0: da81 b8bd dcc1 6e3d 30b2 0b3d 4568 b33d
000001d0: 87e2 b739 23b3 bbbd 64c5 4a3b 232e 16bc
000001e0: dc7e c5bc 56f9 4ebd 76a9 ac3b c703 5d3d
000001f0: ff54 f9bb 8f0c 31bc 56e6 82bd d206 92bd
0.053873774 -0.00030026393 0.000375852 0.092805594 0.075787924 -0.021724025 0.0103119835 -0.057276748
-0.047936253 -0.019079885 0.047166932 0.035640948 0.0040622572 0.00082381844 0.0494695 -0.07537141
0.08575146 -0.100264184 -0.00074256386 0.019776555 0.030229203 0.02741105 0.045442022 -0.08535149
0.006900804 -0.052187655 -0.015101424 -0.0027012355 0.063850366 -0.11803509 0.0071557355 0.02512184
-0.025579298 -0.043150745 0.027106442 -0.06621253 -0.007382594 0.08602376 -0.06872607 -0.03571149
0.0054573277 -0.07551078 0.06262058 0.09044861 0.08698039 -0.0521424 -0.022056082 0.012019495
-0.0136984205 0.05893901 -0.032125447 -0.027147261 0.0010321586 -0.04844005 0.070843734 -0.10186101
-0.097149044 0.03468276 0.04944745 -0.040355913 0.07091336 -0.09803283 0.051709417 0.066328764
0.06589539 0.041236274 -0.044205043 0.03436752 -0.021432795 0.049885698 -0.08543152 -0.14495379
-0.06713641 0.055472083 0.037668608 -0.03644476 0.03898139 -0.086068295 -0.06485192 0.06295413
0.0372411 0.0025230732 -0.08540859 0.023807209 -0.070262976 -0.057385676 -0.02500379 -0.0653521
-0.05698144 0.048902575 0.049088214 -0.017418526 -0.04066545 -0.0490315 -0.05016416 0.0036915787
-0.031921126 -0.116328806 -0.025251731 -0.05262211 -0.023667863 0.0450226 0.10077238 -0.0667834
-0.04221734 -0.02366516 0.032542795 0.032198366 0.010605298 -0.0060110604 -0.009233823 0.039458126
-0.09009142 0.058290347 0.03410548 0.08760122 0.00035073256 -0.09165027 0.0030940408 -0.009166273
-0.024108343 -0.050530754 0.0052692248 0.05395868 -0.0076090093 -0.010806217 -0.06391589 -0.07130207

gnn.gnn_node.batch_norms.0.weight f4 [128]
00000000: 91ad 7d3f a7ec 7b3f 2441 7d3f 3183 7c3f
00000010: 1f00 803f 5f2b 803f c35e 803f 814b 7d3f
00000020: a2a3 803f 409b 7f3f 6ff5 803f b957 7e3f
00000030: f821 813f 3a4e 7f3f 433c 7f3f 56a4 803f
00000040: 13ab 803f 97eb 803f e338 7d3f dffc 803f
00000050: cd50 7f3f 13b3 813f f24f 813f 6649 7f3f
00000060: c647 7f3f 8ad4 813f cd61 7b3f 1042 813f
00000070: e8ab 803f 5936 7f3f e5d7 7d3f afab 803f
00000080: 05f3 803f 6d81 7d3f efa2 803f a22b 813f
00000090: 9cfe 7f3f 961c 793f 6b7a 813f 72ab 7e3f
000000a0: c6b1 7f3f 7b23 7c3f 04c1 7e3f 2c34 803f
000000b0: 747c 803f 70a5 803f 6fca 7f3f 5b06 813f
000000c0: 73fc 7e3f 4a6c 7c3f 5c17 7f3f 035d 7e3f
000000d0: 0eaf 7f3f d101 7d3f 999c 7d3f b0ea 803f
000000e0: 9f5d 7e3f 5909 813f 7055 813f 17bb 7e3f
000000f0: 65ea 803f b993 7d3f 733b 803f 0053 833f
00000100: 59f1 803f 7dad 803f 8545 7e3f 4fa0 803f
00000110: ee3d 7e3f f511 7d3f e76f 7f3f ac5a 813f
00000120: 164d 803f 82fa 803f 7139 7e3f cef6 7c3f
00000130: f531 803f 6001 813f 6599 803f 77e8 7d3f
00000140: 0106 7e3f 569c 813f c916 7e3f b6ef 803f
00000150: 3db8 813f 1ced 803f bdd4 7e3f a934 7e3f
00000160: 8539 813f dbc3 7c3f 108f 803f 0ce2 803f
00000170: d6d7 803f 60d2 803f 5231 803f ef30 7d3f
00000180: eed7 7c3f 22bd 803f ce08 803f ddd1 7e3f
00000190: 49a5 7b3f 9275 7d3f daba 803f 0b4d 7f3f
000001a0: a7b5 7e3f ff6a 7e3f ca95 7d3f b76f 813f
000001b0: f077 803f 9eed 803f dfb0 7e3f a6c0 813f
000001c0: 3aa7 803f a54b 803f 95d6 7d3f d74c 813f
000001d0: 499b 803f 27d6 7f3f b625 7e3f 1ded 7e3f
000001e0: 68a6 803f 1842 7d3f 7a02 803f e4f3 7d3f
000001f0: d50f 7c3f eadf 7e3f 9fc2 7e3f 143f 7e3f
0.99092966 0.9840798 0.9892752 0.9863768 1.0000037 1.0013236 1.0028919 0.98943335
1.0049937 0.9984627 1.00749 0.99352604 1.0088491 0.9972874 0.9970133 1.0050151
1.0052208 1.0071896 0.9891493 1.007717 0.9973267 1.0132774 1.0102522 0.9972137
0.9971889 1.0142987 0.9819611 1.0098286 1.0052462 0.996923 0.99157554 1.0052394
1.0074164 0.99025613 1.0049723 1.0091441 0.9999788 0.97309244 1.0115484 0.99480355
0.99880636 0.9849164 0.9951327 1.0015922 1.003798 1.0050488 0.99918264 1.0080065
0.99603957 0.98602736 0.9964502 0.99360675 0.9987649 0.98830897 0.99067074 1.0071621
0.99361604 1.0080978 1.0104198 0.99504226 1.0071532 0.9905353 1.0018142 1.0259705
1.0073653 1.0052944 0.9932483 1.0048922 0.9931325 0.98855525 0.99780124 1.0105796
1.0023525 1.0076449 0.993064 0.98814094 1.0015246 1.0078545 1.0046812 0.9918284
0.9922791 1.0125835 0.9925352 1.0073154 1.013435 1.007236 0.9954336 0.99299103
1.0095679 0.9873635 1.0043659 1.0068984 1.0065868 1.0064201 1.0015051 0.9890279
0.9876698 1.0057719 1.0002687 0.99538976 0.9829908 0.99007523 1.0057023 0.99726933
0.9949593 0.99382013 0.99056685 1.0112218 1.0036602 1.0072515 0.99488634 1.0136917
1.0051033 1.0023085 0.9915555 1.0101575 1.0047389 0.99936146 0.9927629 0.99580556
1.0050783 0.98928976 1.0000756 0.9920027 0.9846166 0.99560416 0.9951572 0.99315

gnn.gnn_node.batch_norms.0.bias f4 [128]
00000000: f5ed 0a3c 291c 0fbc 4db7 eebb 6fdd c5bb
00000010: e437 0d3b e161 15bc e935 86bb 5c85 9f39
00000020: 2667 2a3c a0dc bd3b ed92 da3b 24bf 87bb
00000030: d8cd 193c 5280 84bb 0fcb 933b 7b86 60bc
00000040: 0d80 503b 059b cc3b 2c94 d6bb 554f 69bc
00000050: 675a 12bc a479 083c 80bc ba3b b1a7 5fbb
00000060: 94bb 2b3c 803c 913c 4e5e b5bc 3a9e 033c
00000070: b483 0a3c b35d eebb 335c 11bc c470 083c
00000080: 62a3 6b3b 4d45 1dbc b821 8438 f4d4 193c
00000090: 996a bb3b 8bbf 6fbc 073e 2d3c 5847 553b
000000a0: dbfb 50bc c53c 063b 9a08 98bb 09fb 13b9
000000b0: 917a e83b 2cad 8c3b 7e83 ad3a 6acf 0c3c
000000c0: 1de6 d53a f857 a53a 5872 d9bb 83ad cbbb
000000d0: 9913 b33b 3ae2 d5ba c8be e4bb 84a2 f23b
000000e0: f41e 1ebc 2945 dd3b 8dc1 4a3c f59a d8bb
000000f0: a84c fd3b 20b8 e9bb 70e5 6aba afce 9d3c
00000100: b39a ea3b 1476 c0bc 4702 89bb 9abc db3b
00000110: 2da7 e3bb ba72 1fbc 4243 f0ba 2075 b93b
00000120: dd35 9b3b 22a3 d53b b50f e7bb d078 afbc
00000130: db5f 673b 0a3c 0a3c d3cb 473c 2af9 dbbb
00000140: f591 b5bb a96d 463c 22ac cebb ec4f d43b
00000150: 927f ed3b 9ccf c0ba c5a9 2539 0f69 11bc
00000160: de82 593c 258a 08bc d957 c03b f005 823b
00000170: 5a74 993b 0e22 d33b 7e8e f3bb b8c4 04bc
00000180: dcaa 44bb 972a a33b 575b db3b ba34 133c
00000190: ce76 83bc aae6 dabb 6705 043c 0b02 393b
000001a0: cf2d afbb e5bb c9bb 9e0a d3bc 8b03 0c3c
000001b0: a188 813b a8d4 063c f7ba f5bb e0f0 cfba
000001c0: d2da 803b 967c 5b3c cfe7 07bc fc83 0b3c
000001d0: b46a bd3b 9c31 4d3a c2e2 c13b 259d 9ebb
000001e0: b0e6 f9bb d74b f8bb b67b 333b a87e 033c
000001f0: e33a a5bc 9810 bfbb 8504 24bb 3947 e8bb
0.008479585 -0.008734741 -0.0072850347 -0.00603836 0.0021548206 -0.009117574 -0.004095782 0.00030426204
0.010400569 0.005794123 0.006670347 -0.004142659 0.009387456 -0.0040436173 0.0045102905 -0.013703938
0.0031814605 0.0062440657 -0.006548425 -0.014240106 -0.008932686 0.008329783 0.0056987405 -0.0034127051
0.010481734 0.017729044 -0.022139695 0.00803333 0.008454252 -0.0072743534 -0.00887208 0.008327667
0.0035955538 -0.009599042 6.300531e-05 0.009389151 0.0057194945 -0.01463307 0.0105738705 0.0032543745
-0.0127553595 0.0020482999 -0.0046396973 -0.0001411253 0.007094689 0.0042931046 0.001323804 0.008594373
0.001631919 0.0012614718 -0.0066359453 -0.0062157526 0.0054649827 -0.0016318031 -0.0069807507 0.0074046273
-0.0096509345 0.0067526293 0.012375248 -0.006610269 0.0077300854 -0.007132545 -0.00089605805 0.019263593
0.007159555 -0.023493804 -0.0041811797 0.0067058327 -0.006947419 -0.009731943 -0.0018330591 0.0056597143
0.0047366456 0.006519691 -0.007051433 -0.021419913 0.0035304937 0.008437166 0.012194592 -0.0067130523
-0.005541081 0.012111106 -0.006307141 0.006479254 0.0072478736 -0.001471031 0.0001579887 -0.008875146
0.01327583 -0.0083337175 0.0058698473 0.003967993 0.0046830596 0.0064432686 -0.007432758 -0.008103542
-0.0030009067 0.0049794423 0.006694238 0.008984739 -0.016047861 -0.0066803293 0.008057929 0.0028229977
-0.005346037 -0.006156432 -0.025761899 0.008545767 0.003953055 0.008229412 -0.0074990946 -0.0015864633
0.0039323354 0.013396403 -0.008295014 0.008515354 0.0057805423 0.0007827522 0.005916924 -0.0048405104
-0.007626377 -0.0075774 0.002738697 0.008025803 -0.020169681 -0.0058308356 -0.0025027108 -0.0070885685

gnn.gnn_node.batch_norms.0.running_mean f4 [128]
00000000: a412 de3e 708d 7dbe 7f1a c0bd 76dc d83e
00000010: 71bc 2cbe 3c62 3d3d ac6e b23e 1c25 153f
00000020: bd8b 533f 1d2a 50be 6b98 a8be e91c 01be
00000030: f943 a0be 6bdc 87be f500 083f 6f0b 2b3e
00000040: 7358 0b3f a3d6 9dbe 3303 983d c1cc 7c3e
00000050: ff40 92be 52ce 9ebe 28d5 153d cc3c a7be
00000060: 2b22 f1bc 228a 423e cc5b 91bd 4021 c6be
00000070: 0e02 6fbe 2684 febe 8846 003f e1d2 edbd
00000080: 83ae d43e 645a 12bf 6627 433f b4da eb3d
00000090: 2ac9 293e 24f0 48be 9d68 16bf 43df e23e
000000a0: bf0b db3d 6a9c 82bd b798 903d 9c24 c5bd
000000b0: 0666 78bd 132f adbd 2a20 a1be 3746 04bf
000000c0: 4f09 b63a 4e6e 8fbd b4cb bc3e ec41 fa3e
000000d0: f965 8abe eba7 b0be 6a5f 4ebe a2ff f1be
000000e0: 3207 2dbd 2f03 24be 9e48 12bf d6b9 5b3d
000000f0: 48f0 e2be fb22 e23e 9ee2 043f 623a 14bd
00000100: 123f 85be 5bd6 ed3d 8e59 30bc 6872 dbbe
00000110: 4131 2fbe 9140 e2bd 3432 18bf ac58 0a3f
00000120: c6f3 33be ad4a de3e 3377 30bf d19f c73e
00000130: ea82 333e e6ca 60be c869 0e3e 3b37 82be
00000140: 126e 3fbf a4f5 22bf 56e3 81bb 0588 373e
00000150: 2710 76bd 454d be3e 5316 073f 657b efbd
00000160: 00d1 d83d e35d 3c3e 3593 f83e 5b88 cb3e
00000170: 2c8f c53d 5673 5ebe d07c b93e 56af 3cbe
00000180: ba46 1cbf c34c 9fbe dc02 353f c5d2 903e
00000190: fa03 85be 3307 e6be 24e8 bf3e 43bd 983d
000001a0: 1a67 abbc 9f8e 1abe 1546 953d d631 133e
000001b0: b571 2ebe 8787 d4bc af89 74be 9000 2d3e
000001c0: aba6 acbe e93c 2abe 6fbf 34bf 2ac1 633d
000001d0: 0f62 2fbe 4f9f 673e 6bae 1c3f 2482 1bbf
000001e0: 3ddc e43e bcd8 e03e c97a 84bd 3228 3ebe
000001f0: f8b2 c7bc a846 63be cb90 103f d4d0 8abe
0.43373597 -0.24760985 -0.09380054 0.42355698 -0.1686876 0.04623626 0.3485006 0.5825975
0.826351 -0.20328565 -0.32928786 -0.12608685 -0.3130186 -0.26535353 0.5312646 0.1670358
0.5443184 -0.30827817 0.07422485 0.24687482 -0.28565213 -0.31016785 0.036580235 -0.32663572
-0.029435238 0.18998006 -0.07097587 -0.38697243 -0.23340628 -0.49710196 0.5010762 -0.116124876
0.41539392 -0.57169175 0.7623199 0.11516324 0.16580644 -0.19622856 -0.5875338 0.4431096
0.106956 -0.0637749 0.07060378 -0.09626123 -0.060644172 -0.08456244 -0.31469852 -0.5166964
0.0013888272 -0.07003461 0.36874163 0.4887842 -0.27030924 -0.3450311 -0.20153585 -0.47265345
-0.04224319 -0.1601684 -0.57142055 0.053644024 -0.44323945 0.44167313 0.5190829 -0.03618849
-0.2602468 0.11613151 -0.010763539 -0.42860723 -0.17108633 -0.11047471 -0.59451604 0.5404155
-0.17573461 0.43416348 -0.68931884 0.38989118 0.17530409 -0.219524 0.1390754 -0.25432763
-0.7477733 -0.6365607 -0.003963868 0.17922981 -0.060073998 0.37168327 0.5276844 -0.116934575
0.105867386 0.1839519 0.4854981 0.39752468 0.096464485 -0.21723685 0.36228037 -0.1842626
-0.6104542 -0.31113252 0.7070749 0.28285804 -0.25979596 -0.44927368 0.37481797 0.07457974
-0.020923186 -0.15093468 0.07288758 0.1437448 -0.17035563 -0.02594353 -0.23880647 0.16894746
-0.33720908 -0.16624798 -0.70604604 0.055604137 -0.1712725 0.22619365 0.6120364 -0.60745454
0.44699278 0.43915355 -0.06468732 -0.18570021 -0.024377331 -0.22194922 0.56470937 -0.27112448

gnn.gnn_node.batch_norms.0.running_var f4 [128]
00000000: 33da 6141 19a9 6040 10a7 3240 c95e 1e41
00000010: 12c5 6740 bf18 9b3f 7dfb b140 1736 9941
00000020: 0c64 0d42 7c17 1540 9245 d740 71af b33f
00000030: 3b5a ab40 319c d740 2439 8341 fe69 3740
00000040: 3f01 4c41 b5b5 a540 6d78 e83e 9efb 6d40
00000050: f137 6140 3c3d 9340 c970 8d3f ca29 7340
00000060: 8647 973d f9b6 d73f 1091 003f 78ba 1441
00000070: af7f 3240 d90f 8241 7a9f 6b41 35ff 8e3f
00000080: c038 4841 1f39 8f41 1ea7 f041 c889 ce3f
00000090: f4eb 5340 bd2a 3440 2a6d 9c41 79ee 2841
000000a0: 3683 313f 4b74 163f e177 9f3f 85cc 373f
000000b0: 6dc9 943e 4993 7d3e 198a b340 e8cc 6841
000000c0: a191 913e 1600 bb3e 1f0b ae40 8495 7141
000000d0: f8ea 8f40 9a2f e040 7103 5640 a94f 2b41
000000e0: 8d81 713e 4c48 8e3f 35d8 9c41 a48a d83d
000000f0: 9ea1 5341 c6a6 2441 f767 4f41 76d7 c53f
00000100: f91e 3a40 196c 903f 2cdf ae3f fdb5 0b41
00000110: a58c c33f 01f8 f13e 4a8f b941 9591 4e41
00000120: 09dd 2640 d7ec 1c41 fb25 cd41 6d95 f440
00000130: 9fbc bb3f 18e5 1340 3532 a93f deaf 5440
00000140: ac2c f241 eca7 a541 a01e fb3d 140c 813f
00000150: c890 653f 8fad fc40 a2b5 6441 e625 a03f
00000160: 0671 573f 8ecc ce3f 3232 3041 a9db 1841
00000170: 9559 0d3f d300 3640 5aff a640 aeca 2240
00000180: 2011 a941 24ef a040 6f9a c341 030a 7840
00000190: 6620 7640 3d5d 1b41 6820 d840 4332 163f
000001a0: 223e 223f c413 863f b795 513f a9b5 993f
000001b0: 87ae 6340 b219 e63e 95e5 b740 f20e 8640
000001c0: 0b80 d740 45c3 3640 8ffe cc41 bdba 583f
000001d0: 91c7 0140 540c cb40 8ce3 a141 ded9 8a41
000001e0: 0584 4a41 8d3a 2f41 c5bb c23e f981 fa3f
000001f0: 3906 ae3c 5565 7440 e48f 6e41 9872 8f40
14.115771 3.510321 2.7914467 9.898141 3.6214032 1.2116927 5.5619493 19.151411
35.347702 2.3295584 6.7272425 1.4037915 5.3547645 6.7378163 16.4029 2.8658442
12.750304 5.178431 0.45404378 3.7184825 3.5190394 4.601225 1.1050044 3.7994256
0.07386689 1.6852714 0.5022135 9.295525 2.7890432 16.257738 14.726435 1.1171633
12.513855 17.902891 30.0816 1.6135798 3.3112764 2.8151085 19.553303 10.558221
0.69340837 0.587712 1.2458459 0.7179645 0.29059926 0.24763216 5.6106076 14.550026
0.2843142 0.36523503 5.4388576 15.099003 4.4974327 7.0058107 3.34396 10.706948
0.23584576 1.1115813 19.60557 0.105733186 13.226957 10.290716 12.962882 1.5456378
2.9081404 1.1282989 1.3661857 8.731931 1.5277296 0.47259524 23.194965 12.9105425
2.607241 9.807822 25.643545 7.6432405 1.4666938 2.3108578 1.3218447 3.323234
30.271812 20.706993 0.12261701 1.0081811 0.89674044 7.8961864 14.294344 1.2511566
0.84156835 1.6156175 11.012255 9.553628 0.55214816 2.8438003 5.218671 2.5436206
21.133362 5.029192 24.450407 3.875611 3.8457274 9.710263 6.753956 0.58670443
0.6337606 1.0474782 0.8186907 1.2008563 3.5575273 0.4494148 5.746775 4.1893244
6.7343802 2.8556683 25.624296 0.8465994 2.0278056 6.345255 20.236107 17.35638
12.657231 10.951795 0.38033882 1.9570915 0.021243202 3.8186848 14.91013 4.4827385

gnn.gnn_node.batch_norms.1.weight f4 [128]
00000000: e745 813f 8fa3 7d3f 63b4 803f c864 803f
00000010: 6375 813f 539f 803f a76a 7e3f dfe4 7f3f
00000020: 6207 803f 76b6 783f 46a7 7e3f 393f 7f3f
00000030: eca2 7e3f 5a69 803f de12 803f 8145 813f
00000040: 037b 803f 1967 7b3f a72a 7d3f 3839 7e3f
00000050: f1de 803f aec3 763f 9182 803f 402d 7b3f
00000060: e6d2 793f 8b9e 7d3f c8dc 7d3f 62e4 7b3f
00000070: faa9 803f 20f8 793f b971 7a3f 09e0 7e3f
00000080: c5db 803f 8fd9 793f 1d56 803f 1f18 7d3f
00000090: 471a 813f 0755 7a3f 876a 7c3f 565a 7f3f
000000a0: 6539 7e3f 89cd 7c3f 947e 7f3f 939f 7e3f
000000b0: 7bf4 803f 1269 7f3f 7bcc 803f 5e2b 813f
000000c0: 39e8 7d3f 0934 813f 4068 7f3f b4c6 7d3f
000000d0: de3f 783f 48c0 703f 69bd 803f e0f1 7b3f
000000e0: 4730 7e3f 0f24 7c3f b1e4 7c3f f2f1 7d3f
000000f0: c296 793f 086d 7b3f 4072 793f 6ef2 7f3f
00000100: 0206 803f 0d1f 833f 640b 783f bc9e 7b3f
00000110: 91f3 7d3f ca72 7f3f 689c 7d3f c6ed 753f
00000120: 8567 713f 0d37 803f ea20 7e3f 247e 7e3f
00000130: 9056 7e3f 520c 7a3f 21f3 713f 2862 803f
00000140: bf42 7e3f ac21 833f 01d2 7b3f efcf 7c3f
00000150: 61f3 7f3f c6df 7f3f b157 803f db5b 7c3f
00000160: 6d56 783f 3589 7d3f ead7 7c3f eb09 7f3f
00000170: d06c 773f ea53 7d3f aa91 813f 0813 7e3f
00000180: 16cb 7d3f 543d 733f 52ac 7d3f b195 793f
00000190: 1c81 773f dc7a 813f 9dd1 813f f69f 7e3f
000001a0: 73cc 7b3f 465d 7d3f 9ee7 7b3f 7c83 813f
000001b0: ede2 803f 6d68 813f 75d8 7c3f 85f6 7b3f
000001c0: f946 7e3f 24e8 7f3f c241 7f3f d689 7e3f
000001d0: 3405 783f 806a 7c3f 570b 823f b2ca 7e3f
000001e0: 5df9 7d3f 42e2 7e3f 977f 7f3f b97a 7d3f
000001f0: 88bd 7d3f 43e2 7c3f 1c3f 7e3f e09b 7f3f
1.0099458 0.99077696 1.005505 1.0030756 1.0113949 1.0048622 0.9938149 0.99958605
1.0002253 0.97153413 0.9947399 0.99705845 0.9946735 1.0032151 1.0005758 1.0099336
1.003754 0.9820419 0.9889321 0.9930606 1.0068036 0.96392334 1.0039846 0.9811592
0.9758743 0.9907004 0.9916501 0.9839536 1.0051873 0.97644234 0.97829777 0.995606
1.0067068 0.97597593 1.002628 0.9886493 1.0086144 0.9778599 0.9860005 0.99747217
0.9930633 0.9875112 0.9980252 0.9946224 1.007461 0.997697 1.0062402 1.009136
0.9918247 1.0094005 0.9976845 0.9913132 0.96972454 0.940434 1.0057803 0.98415947
0.99292415 0.9849252 0.98786455 0.99197304 0.97495663 0.98213243 0.97439957 0.99979293
1.0001833 1.0243851 0.9689238 0.98289084 0.9919978 0.9978453 0.9906678 0.9606594
0.94298583 1.00168 0.9926897 0.99411225 0.99350834 0.9767505 0.9451161 1.0029955
0.99320596 1.0244651 0.98367316 0.9875478 0.9998074 0.99950826 1.0026761 0.9857766
0.97006875 0.99037486 0.9876696 0.9962451 0.9665041 0.9895617 1.0122578 0.9924779
0.9913801 0.95015454 0.99091065 0.97494036 0.9668138 1.0115619 1.0142094 0.9946283
0.9835884 0.9897045 0.98400295 1.0118251 1.0069252 1.0109993 0.9876779 0.98423034
0.99327046 0.99963593 0.99709713 0.9942907 0.9688294 0.98600006 1.0159711 0.9952804
0.99208623 0.9956399 0.9980406 0.99015385 0.99117327 0.9878275 0.9931505 0.9984722

gnn.gnn_node.batch_norms.1.bias f4 [128]
00000000: 4922 33bc 0f1d 66bc 32ad db3c f6b2 283c
00000010: 2c25 1bbc 1ff5 a53c db43 eb3c 664c fd3b
00000020: dd1b 923d 9830 8bbd 2dc7 f1bc c527 67bd
00000030: b631 9abd c6e7 513d 5314 9b3b 7e27 21bd
00000040: 9774 65bc c21d af3c a3e3 37bb fd99 0d3d
00000050: 2277 5dbd 8bd4 3a3c ef79 8d3d 2b9e 513d
00000060: 27f5 8c3c c602 c13b 427f 993d 94b3 d63c
00000070: ae20 9d3d 530f f9bc 1e6e 42bd f904 cabc
00000080: 0fd0 c33c b1d4 783c 52ea fbbc 916d b93c
00000090: 9273 c8bc 3ed7 9bbb 4dcc 8abd 15e3 e93c
000000a0: c19b 91bc d07c 433d 96e7 8f3c 2cd6 87bd
000000b0: b152 1b3d 04e1 943b e62d 0a3d 1980 bcbc
000000c0: 57d9 9f3c 9744 b4bd dcae f13b 3de2 15bc
000000d0: cddf 1d3c 84e8 cdbc 3fdd 0a3d 25de b1bc
000000e0: b68b 90bd 5962 48bd 703d 0dbd 9314 32bd
000000f0: 4ff5 993d b0fd 5abd ee97 0f3c b1da edbb
00000100: 9400 7abd 23cb e1bc 73a2 293c 70ed ee3c
00000110: dfff cabc 82f6 38bd ce80 02bd bfa7 14bd
00000120: f9c0 50bc dd80 acbc ef5a 673d 24b0 a1bc
00000130: 9a40 fa3b b25f 15bb 44b0 9cbd 877a 6c3d
00000140: 53ba 46bd 99a0 cf3b 5af7 3cbd ef46 82bc
00000150: 5efd 6bbd bf23 fd3c d9c2 553d 9195 d93c
00000160: 1b6c 943d f5d8 9bbd 74fc 2bbd 21bf 69bb
00000170: 319d 8dbc 76f9 69bd 51d3 ae3d 30ab 49bd
00000180: 142a 893d 4021 603d 0512 233d f5e0 0c3c
00000190: ef5d 7abd f9ef d2bc c08e 51bd eae6 01bd
000001a0: 6525 793d 99cf a73d 4cba 6cbd cf3c 8c3a
000001b0: 4048 5cbc fa3f ad3c ed0f 2e3b ff70 7d3b
000001c0: 4707 cabb 4894 80bb 32d0 293b 4d97 45bd
000001d0: 7084 70bd 2b5b 2c3c 4a13 6f3c 0e0c 233c
000001e0: e9e2 b73c 017c f6ba f613 723d 98f0 1f3d
000001f0: f253 edbc bad2 783c bf3d 82bd 468c 7b3d
-0.010933467 -0.014045014 0.026815984 0.010296574 -0.009469312 0.020258484 0.02871888 0.0077300547
0.07134221 -0.06796378 -0.02951392 -0.05643441 -0.07529013 0.051246427 0.0047326474 -0.039344303
-0.014004848 0.021376494 -0.0028059266 0.034570683 -0.054068692 0.011403213 0.069080226 0.05117623
0.017206741 0.005890223 0.074949756 0.026208676 0.07672249 -0.030402815 -0.047468297 -0.024660574
0.023902921 0.015187428 -0.030751381 0.022635253 -0.02446917 -0.0047558835 -0.067772485 0.028550664
-0.017774465 0.047726452 0.017566483 -0.06632647 0.037920658 0.0045434255 0.03373518 -0.0230103
0.019512815 -0.08802145 0.007375581 -0.009148178 0.009635878 -0.025135286 0.033902403 -0.021712372
-0.07057898 -0.048921917 -0.03448242 -0.043476652 0.07517492 -0.05346459 0.00876425 -0.007258736
-0.061035708 -0.027562683 0.010353672 0.029165953 -0.024780212 -0.045156963 -0.03186112 -0.036292788
-0.012741321 -0.02105754 0.056483205 -0.01973731 0.0076370956 -0.0022792635 -0.076508075 0.05773404
-0.048517536 0.0063362834 -0.04613433 -0.015902964 -0.057614677 0.030900834 0.052187774 0.026560577
0.07247182 -0.07609741 -0.041988805 -0.00356669 -0.017286869 -0.05712267 0.08536399 -0.049235523
0.06697479 0.05471921 0.039812107 0.008598556 -0.06112474 -0.025749194 -0.051161528 -0.031714357
0.060826678 0.08193893 -0.057794854 0.0010699275 -0.01344496 0.02114867 0.0026559785 0.0038672087
-0.0061654183 -0.0039239265 0.0025911448 -0.048239995 -0.058720052 0.010519783 0.014592001 0.0099516045
0.022447066 -0.0018805267 0.059101067 0.039047807 -0.028970692 0.01518696 -0.063594334 0.061413072

gnn.gnn_node.batch_norms.1.running_mean f4 [128]
00000000: bc31 b93d ddee 9b3d d729 1e3d 824c 233e
00000010: c120 f93d d28f 503d d36f b7bd 3e93 15bd
00000020: 6098 82bd 04dc e6bd b423 04bd f354 ad3c
00000030: c1ad 343d 50e9 62bd 236b 7dbd fe0c fdbd
00000040: 3ad4 9a3d fcfb 10be 0e11 c13c d463 a3bd
00000050: 2e7d a33d f83f b13c b7bf 8e3d c3b6 1cbe
00000060: 18c2 793d c12a a7bd 2c0d 2dbe cfd0 e13c
00000070: 1767 913d 12d8 dabe fb45 74bd d948 553d
00000080: 5848 79be f2bd d1bd 998d b73d 591d 46be
00000090: bb0f 473d 005d 243d 011a 0fbe 7f9f 233d
000000a0: ad16 50bd 441a edbd 620d a33d b3b8 803d
000000b0: aa07 b63d 365a 65bd 8a0d 773d f004 9a3d
000000c0: 7914 adbd 83b1 1f3d 270b 9dbd d75c 5ebd
000000d0: 8fbc 63be c547 1ebe 8b33 a83d ef14 9cbe
000000e0: f883 03be 4dfa 383d c930 afbc e40e 96bd
000000f0: dda8 b53d b1c7 06be 6a0a 703d bdc7 973d
00000100: 649a c53d 8d94 573e cbad babd 4a1e 0dbe
00000110: 0966 7fbd bb70 af3d 47b6 c7bd 50de 94be
00000120: af06 40be 312f 393d dbe8 99bd 5877 b6bd
00000130: ef94 623d c207 8ebe 00f5 7bbe 6a9a 813d
00000140: 011a fe3c d859 0f3e 684f d5bd 05bd 40bd
00000150: f096 adbd 3115 d23d dbb2 483d 7e68 c3bd
00000160: e943 b8bc 4837 4b3d 4b9b edbd a2b7 78bd
00000170: 38ca bdbd 7987 18bd d62c 223d 03b5 69bd
00000180: df4b 99bd e07e 10be 5668 35bd 0bfb a5be
00000190: 562a a8bd ad9b 2d3e 27ae e53d 5e7e dfbd
000001a0: 2158 c9bd c329 c2bd a7ee 143d a13a a53d
000001b0: 69ed cb3c 318e 973d 2bd7 1c3d 3514 05bd
000001c0: 8349 ecbd 8d9a 7cbd 6d07 653d 3a42 023e
000001d0: 34e3 53be 1ebd 09be 94b5 753d c7ac 1ebd
000001e0: 08f9 74bd 878f 59bd 31f0 b8bd 8058 903d
000001f0: 45fa 363d b48b babd edbc d9bd 361f 5dbd
0.09042689 0.07613919 0.03861412 0.15947154 0.121644504 0.050918408 -0.08956876 -0.036517374
-0.063767195 -0.112724334 -0.03226061 0.021158671 0.044111017 -0.055398285 -0.06186975 -0.12355994
0.0756001 -0.14158624 0.023567703 -0.07978025 0.079828605 0.021636948 0.069701605 -0.15304093
0.060976118 -0.081624515 -0.16899556 0.027565388 0.07099741 -0.42742974 -0.05963705 0.052071426
-0.24344003 -0.10241307 0.089625545 -0.19347133 0.048598986 0.040127754 -0.13974763 0.03994703
-0.050802875 -0.115772754 0.07961537 0.062852286 0.088881806 -0.055994235 0.060315646 0.07520473
-0.084511705 0.038987648 -0.07668143 -0.054287758 -0.22239898 -0.15457065 0.08212956 -0.3048472
-0.12843311 0.04516058 -0.021385567 -0.07327059 0.08870099 -0.13162114 0.05860368 0.07411144
0.09648588 0.21052761 -0.0911518 -0.13781086 -0.062353168 0.085664235 -0.097515635 -0.2907586
-0.1875255 0.04521102 -0.07515117 -0.08909482 0.055317815 -0.27740294 -0.24605179 0.0632828
0.031018259 0.13999116 -0.10415536 -0.047055263 -0.08476055 0.10257948 0.048998695 -0.09541415
-0.02249332 0.049613267 -0.116018854 -0.060722 -0.09267086 -0.03723857 0.03959354 -0.05705739
-0.074851744 -0.14110899 -0.044288956 -0.32418093 -0.082112 0.16953917 0.112148575 -0.109127745
-0.098312624 -0.09480622 0.03636041 0.08067823 0.02489348 0.07400168 0.038291138 -0.032489974
-0.11537459 -0.06167083 0.055915285 0.12720576 -0.2069214 -0.13451049 0.05998762 -0.038738992
-0.059807807 -0.053115394 -0.09030188 0.0704813 0.04467227 -0.091086775 -0.10631738 -0.053984843

gnn.gnn_node.batch_norms.1.running_var f4 [128]
00000000: 2d8a d83e 7c48 8d3e bb2a 193e cfad 9e3f
00000010: f51a 573f 3ca5 ba3e e317 323f 9e51 403e
00000020: c479 983e e208 663f be95 d43d b977 983e
00000030: 342e 123e 0f92 a13e 5fb9 c03e 05da 073f
00000040: 274a 223f a59c b63f be73 3a3e c019 ab3e
00000050: ceed 363e e0de d83f 8174 103e 5ea5 a33f
00000060: 73e3 003f 2474 e73e ffec 243f 652e b53d
00000070: 3810 793e fbd9 fc40 3280 af3e e693 143e
00000080: feda ee3f 2058 253f 90e1 973e cd1e e63f
00000090: 39f2 cf3d b2b6 803e 5f9d 353f 61f4 f83d
000000a0: 7d54 733e 30c7 433f 05e3 973e 1c1a 9f3e
000000b0: ce42 a73e 8f62 f43e ce88 0b3e bf3f 863e
000000c0: bc72 da3e 8493 843e 3142 293f 1e5b 2c3e
000000d0: 6744 4240 7856 1340 522a 663e 0696 9540
000000e0: 9153 2c3f 5241 0f3f 479f b93d c8d3 433e
000000f0: de1f 933e f8fd 303f 2bce 903f 4d44 7a3e
00000100: 6815 273f b748 2e40 e24f 283f ecad 8f3f
00000110: 1372 2d3e eacc 813f deda d43e 1399 aa40
00000120: bb88 e73f f7a4 0f3e 192f e33e aa98 c63e
00000130: 7970 af3e 6768 9e40 a970 7f40 5fe8 7b3e
00000140: c620 173e 064d a63f 4bb0 063f b9f7 dc3d
00000150: 4420 a73e 069c e63e e2b9 643e d373 313f
00000160: 45bc 8b3e 35f4 6b3e 176a 693f 6758 b63d
00000170: d970 3e3f e94a b13d dcd8 303e 3da8 e83d
00000180: f62d 553f ccb8 9e3f fb25 5a3e 764a a540
00000190: 9257 1b3f 623e b43f 4a05 473f b9b0 613f
000001a0: be65 163f 140d d83e c3e6 6b3e 0b3c 5d3e
000001b0: f585 013e ce10 313e 3543 b63e e21f a63e
000001c0: c6f7 303f e0e2 d53e 85b9 353e c44a 9e3f
000001d0: 8229 9e3f 5513 633f 1ef2 233e e89d 0c3e
000001e0: e08f c13e 96ba 703e c6b8 1a3f 7d90 743e
000001f0: a255 0b3e 7d23 e73e ed42 d23e 659b 7c3e
0.4229292 0.27594364 0.14957707 1.2396792 0.8402551 0.3645419 0.695677 0.18781134
0.297804 0.89857304 0.103801236 0.2977884 0.14275438 0.31556746 0.37641427 0.53067046
0.633944 1.4266554 0.18208215 0.33418083 0.17864153 1.6943016 0.14106943 1.2784841
0.5034706 0.45205796 0.6442413 0.0884674 0.24322593 7.901609 0.34277493 0.14509544
1.8660581 0.64587593 0.29664278 1.797815 0.10153622 0.25139385 0.70943254 0.121559866
0.23762698 0.7647581 0.2966539 0.31074607 0.32668155 0.47731444 0.13626406 0.2622051
0.4266566 0.25893795 0.66116625 0.16831633 3.035425 2.3021526 0.22477081 4.6745634
0.6731501 0.55959046 0.09063583 0.19123757 0.2873525 0.69137526 1.1312917 0.24440117
0.6526704 2.7231882 0.6574689 1.1224952 0.16938047 1.014066 0.41573232 5.331186
1.8088602 0.14027773 0.4437187 0.38788348 0.34265497 4.9502444 3.9912512 0.24600361
0.14758596 1.2992256 0.5261275 0.10789437 0.32641804 0.4504091 0.22336534 0.6931736
0.27292076 0.23042376 0.91177505 0.0890358 0.7439094 0.08656866 0.17270225 0.11360214
0.83273256 1.2400146 0.21303551 5.1653395 0.60680497 1.4081538 0.77742445 0.8816028
0.58748996 0.42197478 0.23037247 0.21604936 0.12648757 0.17291567 0.3559815 0.324462
0.6912807 0.41774654 0.17746551 1.2366567 1.2356417 0.88701373 0.16010329 0.13732111
0.3780508 0.23508677 0.6043819 0.23883243 0.13606885 0.45144263 0.41066685 0.24668653

synth_conv1.conv1d.weight f4 [1, 1, 6]
00000000: a5f0 bcbe 31a5 b5bd fd42 593e 1a7d 66be
00000010: 8520 553d be04 643d
-0.36902347 -0.088693984 0.2121696 -0.2250866 0.052032966 0.055668585

synth_conv2.conv1d.weight f4 [1, 1, 9]
00000000: ff71 7ebe cc0a a5bd 2cba 37be 866d 85be
00000010: a7e7 9b3c c8c0 073e 096e bdbe 157a aabe
00000020: dfe2 a03e
-0.24848174 -0.080587 -0.17942113 -0.26060122 0.019031359 0.13257134 -0.36998013 -0.33296266
0.3142309

synth_conv3.conv1d.weight f4 [1, 1, 12]
00000000: 902a db3e d2ef 28be da35 d9be b293 d13e
00000010: acad 033e 13bc 3d3e 2aa1 0f3e c367 a13e
00000020: 127c c53d f6e1 353e dd95 043e dcbc a7be
0.4280591 -0.16497734 -0.42423898 0.40932995 0.1285922 0.18528776 0.14026323 0.31524476
0.09642805 0.17761979 0.12947793 -0.32761276
