GCN/results250/gcn-epoch-10-val_loss-0.997.pt (torch, 104335 bytes, 23 tensors)

node_encoder.node_type_embedding.weight f4 [3, 3]
00000000: c90e 74be c9dc b63d b400 c7be d260 6f3f
00000010: 0277 513f 824d 04bd 5023 893c ce0d 99be
00000020: 8529 3abf
-0.23833765 0.0892883 -0.38867724 0.9350711 0.81822217 -0.03230048 0.016740471 -0.29893345
-0.72719604

synth_encoder.synth_emb.weight f4 [7, 3]
00000000: 8cbf 383f bb05 893c 5f0e 603e 21d5 33bf
00000010: d03e bfbe c730 6abb 58dc e13e 99b7 68bf
00000020: 1504 f23e c6b7 a4bf e14c b9bf 439e 383f
00000030: 5117 123d 6466 9d3e 5b95 68bf dbf9 5a3f
00000040: 99f2 a33e 91e6 57bf 623b 943f 7af5 4c3e
00000050: 5884 76be
0.7216728 0.016726365 0.21880482 -0.70247084 -0.3735261 -0.003573464 0.4411342 -0.9090515
0.4726874 -1.2868583 -1.4476587 0.7211649 0.035666768 0.3074218 -0.908529 0.855375
0.32021025 -0.8433619 1.1580622 0.20015517 -0.24073923

gnn.gnn_node.node_encoder.node_type_embedding.weight f4 [3, 3]
00000000: c90e 74be c9dc b63d b400 c7be d260 6f3f
00000010: 0277 513f 824d 04bd 5023 893c ce0d 99be
00000020: 8529 3abf
-0.23833765 0.0892883 -0.38867724 0.9350711 0.81822217 -0.03230048 0.016740471 -0.29893345
-0.72719604

gnn.gnn_node.convs.0.linear.weight f4 [128, 4]
00000000: 6387 7fbe b0a2 8ebe 4145 ddbd e4af 91be
00000010: ab37 643e 7ca7 f7bc ec13 c8be d84d efbe
00000020: ada5 203e c300 e43e 8cba 553e 2768 aa3e
00000030: aecc 59be 7179 cdbd 1757 fdbe e9cf e03c
00000040: bb2c 2dbe b6a1 c8be ebfe f03e 29ef b53e
00000050: 4712 8f3c af20 d0be ddaa a53e 2bff b3be
00000060: f352 8fbe 9f26 343e 0f82 9ebe b34d f83e
00000070: f0f0 05bf c594 143e d8f8 01bf 0707 843c
00000080: 0eea 563e 2564 b7bc 119a 14bf f1a4 f33d
00000090: 7d97 d13d ac89 a1be 6ff2 463e 32ee e1be
000000a0: 1dc8 10bf 237e a43e fc28 5b3e 66f4 2cbe
000000b0: 97d3 84be 781b 5fbe 4155 f1be 6a17 debe
000000c0: b0bb 77bd b10c 06be c590 b7be 643b a1bc
000000d0: 6337 a63e fd76 a03d fbf2 003f 561a 553e
000000e0: d0f8 48be 74fe 35be dace 64be 66df 75bd
000000f0: c6a3 983d f755 8c3e abb5 b4be a461 babe
00000100: e98d d03e 95be 103e c41b c43d c7fb 9e3e
00000110: a069 1cbe 989e 853e e2d4 493d cf6b cbbe
00000120: 348e e1be 18fe d13e 0c44 253e e723 23be
00000130: b4ed c83e d980 233e 4d16 633e c1cc 8abe
00000140: bed3 2ebe ca22 1abf 5a55 9fbe c412 8fbe
00000150: 284b e7be 7ac5 a5be 7130 c83d 77e2 d5be
00000160: 1909 9d3d 003d 993e 2925 ca3e 5c54 9a3e
00000170: e4c3 03bf f18a eebe 9250 06bf 1e59 9ebe
00000180: fc5a b93e 81c3 58be ae58 de3d a93e 78bd
00000190: 5a36 a43d 6016 123f f319 b4be 7813 16be
000001a0: be54 edbe 4def f63e 4ea3 c43e f230 0bbe
000001b0: 927c 12bd de9c c03e 9c09 103f 26b3 dcbe
000001c0: ac82 a9be 9fb2 00bf 8ba3 e83e 2e63 d9be
000001d0: 7d4e 0a3f 6ad7 263f 6305 b1bd 894a c2bc
000001e0: c09a a33c 917e 30bf 8bb1 0fbf 24d7 6d3e
000001f0: 5838 63bd 90d0 503e f05d e43e 1ea2 a4be
00000200: 08c5 2e3e 0c52 f9bc 5c4e 6fbe d102 a9be
00000210: 6796 a2be 9e0e bd3e 5b5d 183f 635c 4abe
00000220: 1d1d 2e3f 21a8 f5bd f791 0ebf 7e99 b83d
00000230: 0964 e7be 74c1 7ebe 6ae5 143f 392d 9b3e
00000240: 4829 593e 95e0 06bd 4918 8cbe 997a a9be
00000250: 0b77 ec3e 573b b73e 845a b73e e6c7 93be
00000260: ae5d 9fbd b27d 953e 5963 c03d af6a 8bbe
00000270: 530c b9be 8bde ebbd 1b3b fabe 9e96 9c3e
00000280: f61a 2a3e 7252 f9bd 9195 f13e 6e71 6bbd
00000290: e0bf fb3d e91a 0b3e 0cac 013f 86b1 e23c
000002a0: 95ec a7be e55f ebbe 4c13 65be e5fd dc3e
000002b0: 17db 7f3e e359 cabe 36d5 cfbe bfb0 203e
000002c0: 6ebb 51be 4e0b 283d fc8c 87be 70e1 7dbe
000002d0: 3dc4 823e be3e a8bd 7c15 09bf f983 14be
000002e0: 40dc f9bd 4a0e fabc e5eb 05bd ed01 e0bd
000002f0: f7a8 83be 87cb b23e f185 a63d b780 c7be
00000300: 78ef bebe 50d6 273e 5c6a 96be 47a3 66be
00000310: a995 1fbd e361 df3e b206 5dbe 12f9 7abd
00000320: a76c 9a3e 4a77 b13e eedf 4c3d 951c a33e
00000330: b338 b9bd 01b0 13bf 494d 15bf cd0c 4f3d
00000340: 86f9 833d f50e 033f 0b69 443d 0073 babe
00000350: 11a2 b63d f8f9 b03e 39b7 353e 6ceb e8be
00000360: 747b ec3d 6cc4 f03e f63f 68be 2fd5 d83d
00000370: 487a bbbd 9c0a fabe 4790 8f3e 23d7 a8be
00000380: 0f8d c23d 4401 973d 9048 91be 51af 243e
00000390: 820d f6be 49f9 a9be 5111 a23e 0689 5dbe
000003a0: 6e52 babd ce47 e83d 18f2 4a3e 65c0 84bd
000003b0: cf3b 95bb 1ab3 aa3e 5400 b6bd bb32 1dbe
000003c0: b746 b6be 0011 943e b4c8 933d b667 643d
000003d0: ee83 18bf 683b f03d b1a9 edbe b809 e43e
000003e0: a638 1f3e b743 593e 48e2 25bf 5f95 8b3e
000003f0: f6fe 83be 63b5 9abc 2c3b 71be 9206 edbe
-0.2495399 -0.27858496 -0.10804225 -0.28454506 0.2228686 -0.03023123 -0.390777 -0.46739078
0.156882 0.4453183 0.20871943 0.33282587 -0.21269485 -0.10032929 -0.49480507 0.02744289
-0.16911595 -0.39185876 0.47069487 0.35534027 0.01746477 -0.40649936 0.3235692 -0.35155615
-0.27992973 0.17592858 -0.30958602 0.4849678 -0.52320766 0.14509876 -0.5077033 0.016116632
0.20987722 -0.02238662 -0.58047587 0.118966945 0.10233972 -0.31550348 0.19428419 -0.4412704
-0.5655535 0.32127485 0.21402353 -0.16890106 -0.2594268 -0.21787822 -0.47135356 -0.4337724
-0.060481727 -0.13090779 -0.35852638 -0.01968164 0.32464132 0.07835195 0.5037076 0.20810828
-0.19626164 -0.17772847 -0.22344533 -0.060027502 0.07453112 0.27409336 -0.35294852 -0.3640262
0.4073327 0.14135201 0.095756084 0.31051466 -0.15274668 0.2609756 0.049275286 -0.3973069
-0.44053805 0.4101417 0.16139239 -0.15931664 0.39243853 0.1596712 0.22176476 -0.2710934
-0.1707296 -0.60209334 -0.31119806 -0.27944005 -0.45174527 -0.32377225 0.097748645 -0.4177434
0.07667751 0.29929352 0.39481476 0.30142486 -0.5147078 -0.4659038 -0.5246669 -0.30927366
0.36202228 -0.21168329 0.10856758 -0.060606632 0.08018179 0.5706539 -0.35176048 -0.14655864
-0.46353716 0.48229447 0.38405842 -0.1359289 -0.03576333 0.3761968 0.5626466 -0.4310543
-0.33107507 -0.50272554 0.45437273 -0.4245848 0.54026014 0.65172446 -0.086436056 -0.023717182
0.019971251 -0.68943125 -0.56130284 0.23226601 -0.055473655 0.2039206 0.4460292 -0.32154936
0.17067349 -0.03043463 -0.23369735 -0.3300996 -0.31755373 0.36925215 0.5951745 -0.19761805
0.68013173 -0.11994959 -0.55691475 0.09013651 -0.45193508 -0.24878484 0.5816256 0.3030794
0.21207154 -0.032929022 -0.27362278 -0.33101347 0.46184573 0.3578746 0.35811245 -0.28863448
-0.0778154 0.2919746 0.09393949 -0.2722983 -0.36142215 -0.11517056 -0.4887322 0.30583662
0.16611847 -0.12173928 0.47184423 -0.05748122 0.122924566 0.13584484 0.5065315 0.02767254
-0.32797685 -0.459716 -0.22370642 0.43162456 0.2498592 -0.39521703 -0.40592355 0.15692423
-0.20481655 0.041026406 -0.2647475 -0.24793029 0.25540343 -0.08215092 -0.5354841 -0.14503469
-0.122002125 -0.030524392 -0.03269567 -0.10937867 -0.25714847 0.34920904 0.08131016 -0.3896539
-0.37292075 0.16390347 -0.2937802 -0.22523223 -0.038961086 0.4362937 -0.21584585 -0.06127269
0.3016102 0.34661323 0.050018243 0.31857744 -0.09044018 -0.57690436 -0.5832105 0.050549317
0.06444077 0.511947 0.04795174 -0.36415863 0.089176305 0.3456571 0.17745675 -0.45492113
0.11546984 0.47024858 -0.22680649 0.105875365 -0.09154183 -0.4883622 0.28039762 -0.32976636
0.09499561 0.07373288 -0.28375673 0.16082503 -0.4805718 -0.33198002 0.31653836 -0.21634302
-0.090977535 0.11341821 0.19818914 -0.06482009 -0.004554249 0.3333977 -0.08886781 -0.15351383
-0.35600826 0.2891922 0.072160155 0.05576297 -0.5957631 0.11730081 -0.46418527 0.44538665
0.15548953 0.21217237 -0.647984 0.272624 -0.25780457 -0.01888532 -0.23557729 -0.46294075

gnn.gnn_node.convs.0.linear.bias f4 [128]
00000000: 2d5c b73e 8bda 7c3d f6ed d4be 5db5 a23e
00000010: 862a ffbe 6f91 da3e db9f ab3d 5b77 0f3f
00000020: 436c 3a3f d02c 2e3e 6fe3 cdbd e21b a93d
00000030: f3db e1be 5ef3 edbe 13e6 0c3f 62ff a63e
00000040: 715b 203f a235 e33c b435 063f 88ac 463e
00000050: 5fb7 843d 1e6a 883e 1169 79be 312e c7be
00000060: 5549 1b3e 3c6f d83c 8afe b43e 8e60 bf3d
00000070: 9b02 c93e b7b2 b1be bcf3 ccbc 9379 523e
00000080: b129 ad3e 74bc dfbd b468 2b3f 1fed 80be
00000090: 449e c83e 3c43 623e 46b6 c3be 0cc4 513c
000000a0: 193d 493e b31f d33d 97a0 b4be 9f31 75be
000000b0: 04e7 80bd 7bf8 a6be 8ee1 9bbe 2d82 7abe
000000c0: e2fe c63c 6f85 59be 0264 be3e de19 763e
000000d0: de3e 0bbd 6cc0 31bd 9cae f8be c3ff 17be
000000e0: e03c 68be cafb 1e3e 013a 07bf 2766 0e3e
000000f0: ff85 1bbf d665 cbbd 9f78 3c3e d9ec b83e
00000100: 10cd 41be b6dc 7d3e e640 cf3e 3484 42be
00000110: a3b5 6abc eda3 0ebd 75c9 a0be ae7a 2b3f
00000120: 7379 f4be c90a ee3e 270d 86be 30f2 1e3e
00000130: 40a0 a63d aabc 343e 3bec bf3d d104 06bd
00000140: 8f4d f5be 03b7 cebe 15d8 64be ceb5 183e
00000150: c954 af3e b396 103f 4620 c93e b819 b43d
00000160: abad fa3d a14c d33e 094d e03e 56e8 103e
00000170: b0de e3bd ddc6 cbbb f3bb e93e 9996 033f
00000180: 751a 00bf ba19 d6be 8c45 133f 0a2a a43e
00000190: 2818 07be 72f1 22be 6552 093e 6095 7bbe
000001a0: 2cf8 e3be 2252 09be a9ca 223e 230c 3cbe
000001b0: ef9c d5be 7cbd cfbe 27ad bbbe 1bc6 e53e
000001c0: 57a8 f8be 0b26 82be d2aa fcbe 1a70 57be
000001d0: 4c11 12bd 0e78 d63e fc80 113f a584 b4be
000001e0: 7910 c43e 3947 133e e0f3 dbbd 9783 86bd
000001f0: 75e6 66be f8ff 423d 3f98 f43e d4db 96be
0.35812512 0.061731856 -0.415878 0.31778994 -0.4983713 0.42689082 0.083800994 0.56041497
0.72821444 0.17009282 -0.10053145 0.08257271 -0.4411312 -0.46474737 0.55038565 0.32616717
0.6263953 0.027735535 0.52425694 0.19401753 0.06480288 0.2664346 -0.24356486 -0.3890243
0.15164693 0.026420228 0.35350448 0.09344588 0.392598 -0.3470666 -0.025018565 0.2055419
0.3382087 -0.109246165 0.6695664 -0.2518091 0.39183247 0.2209596 -0.38225 0.012803089
0.19652213 0.103087805 -0.3527877 -0.2394471 -0.06294063 -0.3261145 -0.30445522 -0.2446372
0.02429146 -0.21242307 0.37185675 0.24033305 -0.0339955 -0.0433964 -0.48570716 -0.14843659
-0.22679472 0.15525737 -0.5282288 0.13906156 -0.60751337 -0.09931533 0.18405388 0.361182
-0.18925881 0.24791226 0.404792 -0.18995744 -0.014325532 -0.0348243 -0.314037 0.6698407
-0.47748908 0.46492603 -0.2618191 0.15522075 0.08136034 0.17650095 0.09371229 -0.032719437
-0.47910735 -0.40374002 -0.22348054 0.14913103 0.34244373 0.5647995 0.39282435 0.08793968
0.12240156 0.412694 0.43808773 0.14151129 -0.11126459 -0.0062187747 0.45651206 0.5140167
-0.5004037 -0.41816503 0.57527995 0.32063323 -0.13192809 -0.15912417 0.13410337 -0.24568701
-0.44525278 -0.13410237 0.15897621 -0.18364005 -0.41721293 -0.40574253 -0.36655542 0.44877705
-0.48565933 -0.2541965 -0.49349076 -0.21038857 -0.035661027 0.4188847 0.5683744 -0.3525745
0.38293818 0.14382638 -0.10739875 -0.065680675 -0.2254885 0.047607392 0.47772405 -0.2946459

gnn.gnn_node.convs.1.linear.weight f4 [128, 128]
00000000: b2fc 0ebc 01b6 1dbd 4b93 7cbd 0695 26bc
00000010: a33d a7bd 9de2 8d3b e760 b4bd 1625 4abd
00000020: 743c 13be 70ac 513d 93a7 5fbc 3a88 ad3c
00000030: c974 16bc 195f 10bd b4aa cebd 6693 ec3c
00000040: 702e e7bd 2b54 9dbd 7cc8 ba3c 9303 953c
00000050: 84c1 55bd be89 353d a7af 96bc ce00 63bd
00000060: 3a75 76bd ab6f 2cbe 3e2e 1bbd ffc2 9bbd
00000070: e522 883d 07c6 74bd e0f9 693b 574f 9b3c
00000080: 321f 84bd d472 463d 6d64 08be 83af febc
00000090: ed9f 7f3d 7745 89bd 5fe4 7cbd c558 4abd
000000a0: d870 a4bb bd9d 00be 08ef 87bd 8ee0 153d
000000b0: df64 17bd f10a d7bd 1093 babd 3e3a 8bbd
000000c0: 3675 193c 16ae 42bd 4214 20ba c83d 5d3c
000000d0: 9139 ab3a 670e adbd 2b3f ecbb bb83 be3c
000000e0: 3746 a3bd 746c 4cbd 773b 97bc 235a 423c
000000f0: 7f4e 983c 62a2 9dbc a947 4dbd 22cb 5dbd
00000100: 0a02 653d 0c64 f93c 1573 7b3b 5e21 a3bb
00000110: 77ef 8f3c b4e5 c63c f89d a7bd 34f3 cabd
00000120: c887 313d d636 13bd 73fd f0bd 6b0d 12be
00000130: fda8 82bd bce0 943d 83ba 3fbd 8a77 1e3c
00000140: 09da f8bd a3d5 1ebe fda0 fdbc 44f0 47bd
00000150: fd26 97bd a67f c1bd a4cf 2abd 5453 2ebd
00000160: 51ed ef3c 3757 e03c 00a6 cfbc c428 a1bd
00000170: afab 0cbe cab2 e5bd 83c5 15bd 91b6 74bd
00000180: 0a6b 2f3c f2e3 96bd 859b 18be 10eb 53bd
00000190: 95d1 603c bb23 14bd c599 f3bc 4d64 17bd
000001a0: 839a 8d3b 8873 04bd d15d adbd 9794 ecbd
000001b0: 30c8 953d c82a 7bbc 72f8 d4bc 8db2 4c3d
000001c0: 0c84 abbd 9131 38bd 33b2 4b3d e2a6 32bd
000001d0: 0a02 0bbe 1c53 5d3d 3b38 cbbd 0d11 ba3c
000001e0: d6a1 13bc 95e4 183c 7f25 463d 3ae9 f4bd
000001f0: 43f8 94bd 406d bb3c e13f d7bd 8e66 90bd
00000200: 6e88 933c a2c2 383d 0674 b3bc dc6b dabd
00000210: 0982 903c 48f7 cbbd 5d3d bb3b 6f53 90bd
00000220: 7a62 e9bc f387 c0bd 7757 703d b0fb 82bd
00000230: a84b 9d3d 341f adbd 6671 083d 8fd2 5dbd
00000240: f34a d93c be06 fabc 8a57 eabd ea88 dcbd
00000250: 763f 32bd 9b40 b9bd 749f d23c 11cc 253d
00000260: 982a 01bd e1cf 05bd ee95 c73d 97fa f2bc
00000270: 6fd1 afbd bc7b 57bd f656 21bc 603c a73d
00000280: dbea e5bb 08d4 0c3d 223c 8ebd 1329 00bc
00000290: fb3a 133d f380 903d 1638 173c 58fc e0bd
000002a0: 6931 07be b6d1 6dbc 2b1b 91bd bb37 babc
000002b0: 6bc9 cf3c 956f efbd 34d6 5339 b28f f0bc
000002c0: a6d3 38bc 3bf2 503c 9541 b2bd 08bb 7f3b
000002d0: f459 7f3d 27be 473d 5997 abbc 9f68 953d
000002e0: 6e99 22be b3d1 03bb 1171 ec3c 03d6 68bd
000002f0: 735d bf3c 0216 90bc 2c50 98bc 8507 913c
00000300: 2649 ff3c bf5c 1f3d 31ba 883d dc3c 06bd
00000310: 83aa c13c 4611 fe3b a564 a4bc 0f43 9ebd
00000320: 3467 963d 024e e7bc 8ed5 eabc 3ffd f4bc
00000330: f626 c1bd b62e aebd b544 0fbe 27dc 10bd
00000340: 62fd 95bd 71a9 863d 5586 e9bb 27e3 2c3d
00000350: bbc4 f1ba 9813 c23c 93cb e6bd ea4a 8ebc
00000360: 6848 823c f3e0 d5bd 4638 b3bd c111 8f3b
00000370: 0879 133c f090 ddbc 9311 87bd a9dd 1b3c
00000380: 2ab8 0e3d b3ba 72bd 7344 03be 347a cbbd
00000390: 74d8 663c 18af 3bbc af79 5439 29dd 323c
000003a0: d96e ab3c 593f 50bd 0417 cbbd 2b38 e8bd
000003b0: 8322 25bc 652a b8bd 43c9 b7bc c275 2fbc
000003c0: 8806 963b c59f 90bd e03a c0bd f76b ffbd
000003d0: fc57 663d 4036 4b3d fccb 04bd ddbe 84bc
000003e0: b097 7dbd f00d 9cbd 6165 14be 8719 af3d
000003f0: 46f3 70bd 5f46 073d 3e99 fabd 5a5e e1bc
-0.008727239 -0.03850365 -0.061663907 -0.010167366 -0.08166053 0.004329993 -0.08807545 -0.049351774
-0.1437853 0.05118984 -0.013650793 0.021183122 -0.009183117 -0.035246942 -0.10091153 0.028878879
-0.11288154 -0.076820694 0.022800677 0.01819018 -0.052186504 0.044320814 -0.018394304 -0.05542069
-0.06017039 -0.16839473 -0.037885897 -0.07605552 0.066472806 -0.059759166 0.0035701916 0.01895873
-0.064512625 0.048449352 -0.1331956 -0.03108955 0.062408376 -0.067027025 -0.06174123 -0.049401063
-0.005018335 -0.12560172 -0.066373885 0.036591105 -0.036961433 -0.10500134 -0.09110081 -0.06798218
0.009366324 -0.047529303 -0.0006106534 0.013503499 0.0013063421 -0.08450013 -0.0072096786 0.023256173
-0.07972377 -0.049908116 -0.018460972 0.011862311 0.018592117 -0.01924247 -0.05011717 -0.0541488
0.055910148 0.030443214 0.0038368155 -0.004978343 0.01757024 0.024279453 -0.08184427 -0.099096686
0.04334238 -0.035940968 -0.117670916 -0.14262931 -0.06379888 0.07269427 -0.04680873 0.009672055
-0.12150962 -0.15511183 -0.030960554 -0.04881312 -0.07380483 -0.09448175 -0.041701928 -0.042559937
0.029287966 0.027385337 -0.02534771 -0.078691036 -0.13737367 -0.11215742 -0.036565315 -0.05974442
0.010706672 -0.07367696 -0.14903076 -0.051737845 0.013721843 -0.036166888 -0.029736409 -0.03696089
0.0043213977 -0.03233674 -0.0846516 -0.11551779 0.07313573 -0.015330024 -0.025997374 0.049974967
-0.08374795 -0.044969145 0.04973049 -0.043616183 -0.13574997 0.054034337 -0.099228345 0.022713209
-0.009010753 0.009331842 0.048375603 -0.11958547 -0.07273915 0.022879243 -0.10510231 -0.07050811
0.01800939 0.04510749 -0.02190591 -0.10665104 0.01764013 -0.099592745 0.005714102 -0.07047164
-0.02848934 -0.0940093 0.058677163 -0.06395662 0.07680446 -0.08453217 0.03331127 -0.054155882
0.026524996 -0.030520793 -0.11442478 -0.10768302 -0.043517552 -0.09045526 0.025710799 0.040477816
-0.03153476 -0.032668952 0.09745394 -0.029660506 -0.08584868 -0.052608237 -0.009847393 0.081658125
-0.0070165223 0.034381896 -0.06945063 -0.007822293 0.03594492 0.07055845 0.0092296805 -0.10985631
-0.13202442 -0.014515331 -0.0708526 -0.022731652 0.025364598 -0.116912045 0.00020202325 -0.029365394
-0.01128093 0.012753065 -0.08703915 0.0039021391 0.062341645 0.048765328 -0.020946192 0.072953455
-0.15878841 -0.0020114004 0.028862508 -0.056844722 0.02335999 -0.01758862 -0.018592916 0.01770378
0.03116281 0.03890681 0.06676138 -0.032772884 0.023640877 0.007753524 -0.020067522 -0.07727634
0.07343903 -0.02823544 -0.028666284 -0.029905913 -0.09431259 -0.08505003 -0.13991053 -0.035366204
-0.073237196 0.06575287 -0.0071266093 0.042208817 -0.0018445471 0.023690984 -0.112692975 -0.017369706
0.015903667 -0.10443296 -0.08750968 0.00436613 0.009001024 -0.02704665 -0.06595149 0.009513297
0.0348436 -0.05926008 -0.1281908 -0.09935418 0.014089692 -0.01145532 0.00020263226 0.0109169865
0.02092688 -0.050841663 -0.09916499 -0.11338838 -0.010079029 -0.08992461 -0.022434836 -0.010709228
0.0045784153 -0.070617236 -0.093862295 -0.124717645 0.056236252 0.049612284 -0.032421097 -0.016204292
-0.06191224 -0.07619846 -0.14491798 0.08549791 -0.058825754 0.033026095 -0.1223626 -0.02751081

gnn.gnn_node.convs.1.linear.bias f4 [128]
00000000: 4b2d ea3a 70ad c63b 752f 2b3d 2e70 0dbd
00000010: d3b7 743d 5f81 04bd 03f7 173c 565f d2bd
00000020: eb77 9bbd 4b56 2fbd c66f a93c 5d71 1f3e
00000030: 1db5 433d e0b4 01bc b8bc e33c 6014 d1bd
00000040: cfed 0a3e f461 bfbd ce9b 833c 801e 9439
00000050: 2185 a33d 7028 183e 69a4 403d 6c4f 15be
00000060: 2420 d93a 61c9 9bbd bcfe 89bd 11a9 6e3c
00000070: c294 4b3d 58e1 18be 0186 03bb 7b3a fe3a
00000080: a68a 54bd a986 8ebd 13a1 d33d 9f5b 04be
00000090: cbf0 da3c 05a3 863d 2577 64bd 7ea6 7dbd
000000a0: c726 913b 5273 cbbd 046c c83d 8ea1 993d
000000b0: 66b7 693d baed 4dbd 8b56 75bd 859e acbc
000000c0: fedb 19bd 3ea3 a93d 94de c83c 298d 97bd
000000d0: f0d7 a339 8b43 b5bd ea28 683d da18 3cbd
000000e0: f906 edbd de88 1d3e e614 153c bae6 28bd
000000f0: ffed 453d 1090 d4bd 6f37 303d cfa3 d83d
00000100: e932 433e 6598 103e 0ba9 4dbd bfe2 1f3d
00000110: e99f 0abd 7668 a03d c18c 01be f496 f0bd
00000120: e177 093c f08a 733c fec0 9b3b 8205 87bd
00000130: b462 443c fc70 7bbd bc95 8abd 9492 d23d
00000140: 9435 a73c 6fde 0b3e f5bd bebd a2a0 283a
00000150: f318 aebb 579b 14bd 90bf a2bd b824 97bd
00000160: b9ca c5bd 22af 0b3d 9a6a 4c3d 591e 94bd
00000170: 56de 9dbd 7899 86bd a353 11bd cc5e d93d
00000180: 31bf 6fbd d373 27be ecc5 aa3d 755c 58bd
00000190: 396e 90bd 83ef 4c3e a16c 943a 635e adbc
000001a0: a053 ba3c 8513 2ebd 4e68 87bc 2a6f 1f3e
000001b0: 36d8 92bc 44df 013d d029 f0bd 9762 f53c
000001c0: f018 afbd 97e0 1c3d 30be d53c 8aca 4e3e
000001d0: 3590 11bd 6358 bfbd 564f 83bb a45f a93c
000001e0: 9c2b 243b 22e2 ed3c d7a0 1e3b d91b a23c
000001f0: 4bdf 0fbd 39cf 31bd 4cba 90bd 8bb9 9bbd
0.0017866282 0.006063156 0.041793305 -0.03453081 0.05974562 -0.03234994 0.009275201 -0.1027209
-0.07591232 -0.042806905 0.02068318 0.15570588 0.047780145 -0.007916659 0.027799949 -0.10208964
0.1356728 -0.09344855 0.016065504 0.00028251484 0.07984377 0.14859176 0.047031794 -0.14581078
0.0016565365 -0.07606769 -0.0673804 0.014566676 0.049702413 -0.14929712 -0.0020068886 0.0019396091
-0.051890038 -0.06959278 0.10333457 -0.12925576 0.026726147 0.06574062 -0.055777688 -0.061926357
0.0044296714 -0.09934105 0.09786227 0.07501517 0.057059668 -0.05027554 -0.059896987 -0.021071682
-0.037563317 0.08283089 0.024520196 -0.07399971 0.0003125067 -0.088507734 0.056679644 -0.045922138
-0.115735956 0.15384242 0.009099221 -0.041235663 0.048322674 -0.1037904 0.043021616 0.10578119
0.1906239 0.14120634 -0.05021004 0.0390346 -0.03384391 0.07832424 -0.1265135 -0.11747542
0.008390398 0.014864668 0.004753231 -0.065928474 0.011986423 -0.061387047 -0.06766841 0.10281864
0.02041129 0.1365907 -0.09313575 0.00064326276 -0.005313033 -0.036280956 -0.07946694 -0.073800504
-0.09657807 0.034102567 0.04990635 -0.07232351 -0.07708423 -0.065722406 -0.035480153 0.10613784
-0.058531944 -0.16352777 0.08338532 -0.05282255 -0.07052273 0.20013241 0.0011323878 -0.021163171
0.022744954 -0.042499084 -0.016529229 0.1556975 -0.017925363 0.031707063 -0.11726725 0.029954238
-0.08549678 0.038300123 0.026091665 0.2019445 -0.035537917 -0.0934303 -0.0040072603 0.020675488
0.0025050407 0.029038493 0.0024204755 0.01978867 -0.03512506 -0.043410514 -0.07066783 -0.07603749

gnn.gnn_node.batch_norms.0.weight f4 [128]
00000000: c6d3 8c3f e6e2 6b3f abc5 6b3f 8fb3 863f
00000010: d55f 7d3f 02a8 843f cf2c 7b3f 76fc 853f
00000020: de7b 7b3f c1a7 773f b022 773f 2429 863f
00000030: e725 8d3f d054 593f a6c3 6b3f 5468 8d3f
00000040: c3e9 843f b4a7 6b3f ff7e 753f 4afa 6a3f
00000050: 337a 8e3f 7ba4 823f 3170 6b3f ee27 893f
00000060: 42b6 6e3f a24c 8f3f 54b8 793f 9fd5 693f
00000070: 28d7 833f 9eca 853f 59e9 783f 0daf 753f
00000080: b52f 8f3f 7f44 783f 8101 6e3f f0c6 853f
00000090: 7db3 883f c583 733f 5498 7e3f 66d1 773f
000000a0: 007c 7d3f fc76 743f 1b5a 6b3f 728e 703f
000000b0: 51c8 6d3f 760f 9a3f d11d 823f 8264 823f
000000c0: f8b8 803f 11d7 703f 85e1 723f 85a5 8d3f
000000d0: 4df5 6e3f 7ed4 623f 4f48 6c3f 4ed9 793f
000000e0: 95a9 6b3f 90f8 803f 8311 793f a98e 863f
000000f0: 9bb6 843f 8edf 7f3f 6aeb 7e3f 0206 8b3f
00000100: e407 773f 74d7 8f3f a2da 883f 194b 893f
00000110: eebe 793f 69ec 793f f483 7b3f 6f0f 823f
00000120: 46a0 7b3f 1191 7b3f 0752 4e3f e2cf 653f
00000130: fa92 843f 4fba 853f 19cf 643f af17 7a3f
00000140: 1ad5 6d3f 5621 7d3f 2c8b 7a3f a63c 803f
00000150: ce18 8b3f 618b 7c3f af5e 7a3f 4f6a 7a3f
00000160: e63a 533f 7f83 6a3f e40d 683f 041b 733f
00000170: d3a3 803f 102f 793f 414e 803f e843 803f
00000180: e0eb 863f ea0a 7e3f e73a 883f 604b 8d3f
00000190: 6a10 7f3f a44d 773f 0366 823f 12ed 5c3f
000001a0: 0610 833f 7c4a 613f b807 863f 31d6 663f
000001b0: ecb3 803f 794b 893f 88bd 753f 8fee 8f3f
000001c0: 3a34 7e3f 379e 803f d846 833f f082 723f
000001d0: 08ac 6d3f 67a9 8c3f 6440 843f a8f3 8a3f
000001e0: 0b83 903f 4af9 853f b400 703f 9995 733f
000001f0: 7a17 793f f96a 6f3f 2efe 7d3f adf4 8a3f
1.1002128 0.92143095 0.9209849 1.0523547 0.98974353 1.0363772 0.9811525 1.046767
0.9823588 0.9674035 0.96537304 1.0481305 1.1027192 0.8489504 0.9209541 1.1047463
1.0383838 0.9205277 0.95896906 0.9178816 1.1131042 1.0206445 0.91968066 1.071531
0.93246853 1.1195261 0.9754689 0.91341585 1.0300035 1.0452459 0.9723106 0.9597023
1.1186434 0.96979517 0.92971045 1.0451336 1.0679775 0.9512294 0.99451184 0.9680389
0.99017334 0.95494056 0.91934365 0.93967354 0.92883784 1.2035968 1.0165349 1.0186923
1.0056448 0.94078165 0.94875365 1.1066138 0.9334305 0.8860549 0.92297834 0.97597206
0.92055637 1.0075855 0.97292346 1.0512286 1.0368227 0.9995049 0.99577963 1.0861208
0.96496415 1.1237626 1.0691721 1.0726043 0.9755696 0.9762636 0.9824822 1.016096
0.9829143 0.9826823 0.80593914 0.8977033 1.0357354 1.0447482 0.89378506 0.9769239
0.9290329 0.9887899 0.9786861 1.0018508 1.0866945 0.98650175 0.97800726 0.97818464
0.82511747 0.916069 0.90646195 0.949631 1.0049995 0.97337437 1.0023881 1.0020723
1.0540733 0.99235404 1.0642976 1.1038628 0.9963442 0.96602845 1.0187382 0.8629924
1.0239265 0.8800428 1.0471106 0.9017058 1.0054908 1.0726157 0.95992327 1.1244677
0.9929844 1.0048283 1.0255995 0.94731045 0.92840624 1.0989197 1.033215 1.0855608
1.1289991 1.0466702 0.9375107 0.9515014 0.9730145 0.935226 0.9921597 1.0855919

gnn.gnn_node.batch_norms.0.bias f4 [128]
00000000: 1c78 c23c 5dc7 d4bd 7d3b f2bc 51c4 143c
00000010: 6353 513d fb50 14bd 4f12 523e e37f 233d
00000020: 5bca 953d 4503 9e3d 0963 913d 12b6 3dbd
00000030: acdf da3d f915 9abd 0264 513d dbfd 1dbd
00000040: d126 18bd 81a0 bebd 0eaa b33c 78a9 d0bd
00000050: 7299 15bd 6c43 323b bd09 bfbc ba25 493d
00000060: c2c0 4f3c fb8f d23b 9a88 8ebd 6a7f 993d
00000070: 6111 57bb 8bc8 59bd 3d6e 3f3e 5f5e 2a3e
00000080: df1f f13c 64d7 8dbd 401b 643c 96c7 283e
00000090: 2d31 d2bc 206a a0bd 62aa 863d dcb8 193e
000000a0: 7f47 85bd 3b0e 1bbd 85d4 f63d 1744 f93d
000000b0: 72c5 c7bc 79c2 1b3d b4d0 d63d 3690 cf3d
000000c0: 9bb8 73bc 3b24 0e3e 8b4f a2bd 2b19 efbc
000000d0: f107 1a3e c450 013d 622f dfbc 229d 3fbd
000000e0: efa2 81bc a00a 043d 9c2a 673d 060e 9fbd
000000f0: 3c9c f03d 1dec 433e 34e6 cb3a 671a 53bc
00000100: 9995 12bc 89a9 93bd 3c8a c0bc b3c3 d43d
00000110: e6e5 68bd 663b eabc c694 5e3d 66af 2bbc
00000120: 642a f93c 8f96 923b 6fd1 9abd ab5d e6bc
00000130: cba4 ea3d cc03 cd3d 1961 8bbb 4d68 f3bc
00000140: c951 6fbd df4e 343d 539a 9fbd 4150 813d
00000150: 3f00 c4bc caba ce3b 6b73 d03d 6a37 a4bd
00000160: b36b 143c 2baa 183d f0c0 80bb ec53 e13d
00000170: 2149 b33d 41e2 8e3d a688 8d3d bbfc 38bd
00000180: addc b83d d034 34bc 1a5b a63a 30d0 073e
00000190: e19f 81bd a3c7 bdbc 9fb7 423e 70c7 7a3d
000001a0: ad0f bf3d 99f4 bebd c12b 64bc 2bf0 793d
000001b0: f3bf ef3c aadf c53d 10ec 54bc 08fb 71bc
000001c0: 8112 d63d c45d 0f3e 1cd7 ea3c e0bb 0cbc
000001d0: d059 7b3d 6089 c53c 6bee e73d 641f c23d
000001e0: f9d5 893c dcca b23d 140d d03c 5d04 b6bb
000001f0: a32e 9dbd bb20 34bd c3f0 15bd bfb8 9c3d
0.023738913 -0.10389588 -0.029569382 0.009080009 0.051104914 -0.03621004 0.20514797 0.039916884
0.07313987 0.07715467 0.070989676 -0.046316214 0.10687193 -0.07523722 0.051120766 -0.038572174
-0.037146393 -0.093079574 0.021931674 -0.101885736 -0.03652329 0.002720083 -0.023320073 0.049108244
0.012680234 0.006425855 -0.069596484 0.074950054 -0.0032816755 -0.05316977 0.18694396 0.16637562
0.029434143 -0.06925848 0.0139225125 0.16482386 -0.025658214 -0.07832742 0.06575467 0.15011925
-0.065077774 -0.037855368 0.12052254 0.1217119 -0.024386141 0.03802726 0.10489026 0.10134928
-0.014875556 0.13881008 -0.07925328 -0.029186806 0.15042092 0.031571165 -0.027244274 -0.046780713
-0.015824763 0.032236695 0.05643712 -0.07766347 0.11748549 0.19133039 0.0015556277 -0.012884713
-0.0089468 -0.07210071 -0.023503415 0.10388889 -0.056859873 -0.028592777 0.0543411 -0.01047883
0.030415721 0.0044735144 -0.075594775 -0.028120836 0.11457213 0.1001049 -0.0042535183 -0.02971282
-0.058427606 0.04402053 -0.07793107 0.06314135 -0.023925899 0.006308888 0.10178264 -0.08018382
0.009058881 0.03727166 -0.00392925 0.11002335 0.087541826 0.06976748 0.06910829 -0.045162898
0.090264656 -0.01099892 0.0012691945 0.13263011 -0.063293226 -0.023166483 0.19015358 0.061225355
0.09329162 -0.09323997 -0.013926447 0.061020058 0.029266333 0.09661801 -0.012995735 -0.014769323
0.10452748 0.14000612 0.028667025 -0.008589715 0.06136495 0.024113357 0.113247715 0.094786435
0.016825663 0.087300986 0.025396861 -0.0055547194 -0.07674911 -0.043976527 -0.03660656 0.07652425

gnn.gnn_node.batch_norms.0.running_mean f4 [128]
00000000: d1bf 0b3e f0a1 d9bd 5e1d 68be 8456 053f
00000010: 3bb2 91be fb09 48bd fe43 0f3f 9873 263f
00000020: 5e67 743f 6f0f 84be 1960 c9be cdae 6dbc
00000030: 4178 1cbe 82b4 e3be d9ea 003f 7cf6 d23d
00000040: 6b6d 2a3f 4052 babe 6d9a db3d fdd2 3ebe
00000050: eccf 9b3d 5c0b 11be f2e5 46be 6595 61be
00000060: 4fe6 7d3d 1d33 bdbb 607c 06be 2223 1dbf
00000070: 9a80 4abe fbc4 a4be ba12 0f3f d1f9 b6be
00000080: 3fdc 033e 900c 1dbf df3f 693f f21b 6abe
00000090: da5e 443e 0f6c 8ebe 6525 1abf 41a7 ff3e
000000a0: b7fc dfbd 7059 33be 8d16 763e f1d1 613e
000000b0: 9eae fbbd bb0e 86bd 458f 9abe c28d 19bf
000000c0: 8dcc 52bd 0592 30be 1068 ed3e f55c 1b3f
000000d0: 88b5 d4be b4f4 07bf 08ea 78be fc02 e1be
000000e0: 4306 b63d b1ae 37be e754 13bf a599 bbbc
000000f0: 4b35 04bf a525 ed3e b59c 273f a6a5 bb3c
00000100: 59f6 82be eab2 6dbc fee7 abbc fdc0 eebe
00000110: 3949 e5bd f657 53be a23f 35bf 33d8 253f
00000120: ff75 75be 37d8 fc3e 9b26 3bbf 6604 fa3e
00000130: c6b9 ad3e 0759 70be 3ec7 df3e 1ac8 7fbe
00000140: f09c 48bf 1b4b 27bf 14e3 4a3e c005 f9bd
00000150: 1d94 c73d dddc 703e cff7 1d3f c379 9abd
00000160: fc41 9b3e 8c8e a93e 66c0 133f 8ec2 cc3e
00000170: db94 253e 4ad5 7abe c430 1f3f 5945 963d
00000180: bdf2 25bf ebcb afbe 8187 5c3f 251d 963e
00000190: 62a4 6abe 0ca2 00bf 65c0 ef3e eb82 b23e
000001a0: 6ba8 253d 84a1 6bbe 2114 843d afc1 b83e
000001b0: f57d a9be d4fa 40be 348b 8dbe dfc8 c73d
000001c0: 1b2d a4be 9e41 923d c965 20bf 9fc1 55be
000001d0: 7bfe 94be 65a8 0e3e c895 2d3f fc4c f2be
000001e0: 967d 4d3e 6257 fc3e 35cd 673e 3658 39be
000001f0: bca8 efbd 1576 26be 7390 2a3f 2c46 04be
0.13647391 -0.1062659 -0.22667453 0.5208514 -0.28456292 -0.048837643 0.5596312 0.6502013
0.95470226 -0.25793025 -0.3933113 -0.014507008 -0.15280248 -0.44473654 0.5035835 0.103009194
0.6657321 -0.36390877 0.10722814 -0.18635173 0.07608017 -0.1416449 -0.19423655 -0.22029646
0.061987218 -0.0057739154 -0.13133383 -0.61381733 -0.1977562 -0.32181534 0.5588795 -0.3573747
0.12876986 -0.61347294 0.91113085 -0.22862223 0.19176808 -0.27816817 -0.6021331 0.49932292
-0.109368734 -0.17514586 0.2403204 0.22052743 -0.12289165 -0.06545778 -0.3018743 -0.5998193
-0.051464606 -0.17243202 0.46368456 0.60688716 -0.41544747 -0.5310776 -0.24308026 -0.4394759
0.08887913 -0.17937733 -0.57551426 -0.022900412 -0.5164382 0.46317783 0.6547349 0.022906136
-0.25578573 -0.0145079885 -0.020984646 -0.46631613 -0.11195607 -0.20639023 -0.7080022 0.6478302
-0.23970793 0.4938371 -0.7310578 0.4883148 0.33930796 -0.23471461 0.43706697 -0.24978676
-0.7836447 -0.65348977 0.19813186 -0.121593 0.09745047 0.23521753 0.6170625 -0.075427555
0.3032378 0.33116567 0.5771545 0.39992183 0.16170065 -0.24495426 0.62183785 0.07337446
-0.64823514 -0.34335265 0.8614426 0.2931911 -0.2291427 -0.50247264 0.46826473 0.34865507
0.04044382 -0.23010832 0.06449152 0.3608527 -0.3310391 -0.18845683 -0.27645266 0.0975511
-0.32065663 0.07141422 -0.6265531 -0.20874642 -0.29100403 0.13931425 0.67806673 -0.4732436
0.20067438 0.49285418 0.22636874 -0.18100056 -0.117021054 -0.16255982 0.6662666 -0.12917393

gnn.gnn_node.batch_norms.0.running_var f4 [128]
00000000: c060 9e40 48e2 0140 6821 2a41 8ac8 dc41
00000010: f2c0 3341 160a 973f 0106 bf41 470a 2642
00000020: 3cb4 a542 8ea3 9240 9cf5 5341 5316 2b40
00000030: 00b5 ad3f f7fa c441 56d7 d441 fe8b 5f40
00000040: 0f72 0042 a5c1 2441 a568 b13f 0a44 5b40
00000050: e198 6f40 2cf2 e13f 14c7 0241 fb3a e13f
00000060: 0c0d f53e 8e0e 533e 70c4 0240 329b 0542
00000070: c224 2940 ec62 4a41 df7c 0042 4aaa 3241
00000080: 1fe6 8940 c381 0d42 fe66 9542 bf2b f640
00000090: ab59 dc40 0795 0141 4c50 f741 025d b441
000000a0: dc4a a53f 7164 8640 7777 c340 ba7c a240
000000b0: c68b 753f 317c 673e cd78 e040 ce50 e941
000000c0: 5e54 f03e 70ef 3d40 2371 5b41 4cd7 2042
000000d0: 7c2f 7341 c884 bc41 4041 ee40 0d7f 4d41
000000e0: fa5d 263f c18d e03f 547a f241 53a6 763e
000000f0: 270e d141 e4da 8e41 32c5 0d42 1be0 5140
00000100: d456 7040 325b 213f 5df4 0d40 8445 7341
00000110: 2b04 ba3f 1a38 2f40 b856 4642 3fec 0242
00000120: 1f69 c240 8a84 bc41 bacb 2b42 8821 b841
00000130: 6323 0741 d864 5540 d2c9 4641 0499 8640
00000140: b748 4d42 e702 0442 3da6 2f40 d295 6540
00000150: 4e22 4340 080e da40 2f5e 0442 b12d d13f
00000160: 5391 0541 00ea 0841 91e7 de41 04fa 9c41
00000170: ab68 3f40 3a9c 9440 95ca cc41 d596 2640
00000180: 3ffa 1542 f69c 0a41 f351 8042 a603 1141
00000190: 0e42 ad40 94fe 9241 2972 9b41 c7f8 1541
000001a0: 687d 593f 067a 8740 351f c33f 6a13 1d41
000001b0: 8d37 4f41 099c 6640 aeed 3341 55da 9e40
000001c0: 15a0 0841 dc82 e73f b621 e741 6c1a d040
000001d0: db5b fe40 d5f1 e540 b8fb 2d42 a4a0 5641
000001e0: 2aba b240 5ee3 cf41 e452 a140 6ce0 2840
000001f0: d2a3 743f c728 8e40 14c2 0d42 df79 bf3f
4.9493103 2.029436 10.633156 27.59792 11.234606 1.1799953 23.877932 41.510036
82.85202 4.582465 13.247463 2.6732376 1.3570862 24.622541 26.605145 3.4929194
32.111385 10.2972765 1.386006 3.4260278 3.743706 1.765203 8.173603 1.7596124
0.47861516 0.20611021 2.0432396 33.401558 2.6428685 12.649151 32.121944 11.1665745
4.309341 35.37672 74.70116 7.69284 6.885946 8.098884 30.914207 22.545414
1.291347 4.199761 6.108333 5.0777254 0.959164 0.22605969 7.014746 29.164455
0.46939367 2.967739 13.715121 40.21025 15.199093 23.564835 7.445465 12.843518
0.64987147 1.754326 30.30973 0.24086885 26.13191 17.85688 35.442574 3.2793033
3.7552996 0.6302978 2.2180398 15.204472 1.4532522 2.7377992 49.584686 32.73071
6.075332 23.564716 42.94895 23.016373 8.446139 3.33428 12.424273 4.2061787
51.32101 33.002834 2.7445214 3.5872693 3.0489688 6.814213 33.091976 1.6342069
8.34798 8.557129 27.86307 19.622078 2.9907634 4.6440706 25.598917 2.602956
37.49438 8.663321 64.16006 9.063391 5.4143133 18.374306 19.430742 9.373237
0.8495698 4.2336454 1.5243899 9.81724 12.951062 3.6032736 11.245527 4.964152
8.539083 1.808681 28.89146 6.5032253 7.948713 7.1857705 43.49582 13.414219
5.585225 25.98602 5.0413685 2.6386976 0.9556247 4.4424777 35.43953 1.4959067

gnn.gnn_node.batch_norms.1.weight f4 [128]
00000000: d740 7d3f f6f1 783f 191d 593f 1b0e 113f
00000010: 8dc9 743f 85da 543f 8fe6 7b3f 9da3 893f
00000020: cdad 793f e334 803f a695 813f 4603 643f
00000030: 6343 453f af56 793f 1427 6e3f eb44 713f
00000040: 9bf3 613f b439 743f 9bf3 633f ad1c 803f
00000050: 65bc 513f 33ba 513f 640d 6d3f 3c15 7c3f
00000060: 6cd9 693f c7ef 7b3f f846 763f 1f79 523f
00000070: ec62 7e3f 7c5a 853f 8be7 813f f84c 773f
00000080: b89c 873f 0256 193f 37a9 4a3f e392 803f
00000090: cf51 4f3f be48 6a3f 6734 6d3f ec2c 773f
000000a0: 0ac1 783f c32b 7a3f fa1c 443f 482a 513f
000000b0: 6b5b 823f dfdb 583f a923 523f a179 5a3f
000000c0: 1ce2 7b3f 44de 663f ec05 3f3f ad10 6f3f
000000d0: e0d4 753f 39b0 763f b643 7e3f 5c47 843f
000000e0: a69e 603f 05fd 5b3f 6575 303f 02dc 7a3f
000000f0: e821 4a3f c453 593f 33ac 533f c37b 4b3f
00000100: 64e1 693f e4f2 763f cb2e 383f e899 7e3f
00000110: c99d 763f 1f8c 653f e344 7a3f f70e 7c3f
00000120: 3e5b 623f b6db 7d3f 8366 7e3f 3b97 6f3f
00000130: 7f05 3d3f 8caa 813f 523e 7c3f 6a04 3f3f
00000140: fcf2 7a3f 32a4 6c3f b67b 573f 6bda 7a3f
00000150: 3bb1 463f ef43 4c3f 5e4b 263f 746b 633f
00000160: 70b5 753f 77b7 733f 2618 793f 4d49 5b3f
00000170: f742 733f 05dd 743f c9c2 6a3f 6df3 6f3f
00000180: 1288 773f ca98 6c3f fedc 6c3f 70f5 7c3f
00000190: 665e 823f c26b 5f3f 11d8 233f 0793 4d3f
000001a0: b1fb 673f a58b 563f 38e3 443f a0eb 673f
000001b0: f43b 843f 9ef5 463f ffea 4e3f 5e94 7c3f
000001c0: fb26 763f b712 7f3f 8a80 2d3f 7897 5e3f
000001d0: b21c 813f 044b 653f be20 783f 3111 6b3f
000001e0: 52b2 5e3f c936 6e3f 648b 7a3f a1ca 743f
000001f0: 4ae4 4e3f 783c 763f 1843 7b3f 719a 5f3f
0.9892706 0.97244203 0.84810024 0.5666215 0.9562004 0.83145934 0.9839868 1.0753056
0.97530824 1.001614 1.0123794 0.89067495 0.7705595 0.97397894 0.9302838 0.94245785
0.8826234 0.9540055 0.8904359 1.0008751 0.8192809 0.8192474 0.9259856 0.984699
0.91347384 0.98412746 0.9620204 0.82216066 0.9936969 1.0418239 1.0148786 0.9660182
1.0594702 0.5989686 0.7916445 1.0044826 0.80984205 0.91517246 0.92658085 0.9655292
0.97169554 0.97723025 0.76606715 0.8170514 1.0184149 0.84710497 0.82085663 0.8534184
0.9839189 0.901829 0.7461841 0.9338482 0.96027946 0.96362644 0.9932207 1.0334277
0.8774208 0.8593295 0.6892913 0.97991955 0.78957987 0.8489344 0.8268463 0.7948572
0.91359544 0.9646437 0.719464 0.9945359 0.9633451 0.8966693 0.9776136 0.98460335
0.88420475 0.9916338 0.9937517 0.93590134 0.7383651 1.0130172 0.98532593 0.7461611
0.98027015 0.9243804 0.8417314 0.9798953 0.7761418 0.7979116 0.6495875 0.88835835
0.95979977 0.9520182 0.9730247 0.85658723 0.95024055 0.9564975 0.9170347 0.93730813
0.96692 0.9242064 0.9252471 0.9881201 1.0185058 0.872738 0.64001566 0.8030247
0.90618426 0.8380683 0.7690921 0.9059391 1.0330796 0.7771853 0.80827326 0.9866389
0.9615323 0.9963793 0.6777426 0.8694987 1.0086882 0.8956759 0.9692496 0.91823107
0.86990845 0.93052346 0.97868943 0.9562169 0.8081709 0.9618602 0.9814925 0.87345034

gnn.gnn_node.batch_norms.1.bias f4 [128]
00000000: 9d47 fbbb 97cf a639 b866 2f3c e699 0cbc
00000010: ec82 373b cea6 60ba fffe c2bb 0c67 cbbc
00000020: 718d 823c ce27 f3bb e7d6 053b 0bc8 1dbc
00000030: b185 29bd a5db 1b3c 5868 f6bb 5f94 59bb
00000040: 1d7b 56ba 069b a4bb 4343 bfbb a9b2 03bc
00000050: 9c77 54bc cac5 a63a ddca 583c 0c53 b93b
00000060: ae55 79ba d3f8 a33b cb04 643c 4d90 4a3c
00000070: dc88 823c 8e1d ecbc 95a2 d5bc 7dbb a63a
00000080: 655a 493b 82ad c3bb 10f5 cebc eddc 54bc
00000090: 1db0 9ebc 6d13 1dbc 26ed 99bc 8fd4 efba
000000a0: 7861 2fbc 6e47 1f3a fe2b 453c ad09 9dbc
000000b0: a332 b7ba 421b 76bc d803 613b 5045 813b
000000c0: da92 c939 4383 e8bc 6846 81bb 8be3 d23b
000000d0: 681a bfbb f17a debc 766b 2f3c a9b7 9dbc
000000e0: 0b10 84bb 8987 e0bc 2340 c7bc b8e7 aabb
000000f0: c4cc ea3c fc16 c5bc 0eb6 c4bb c1c3 abb8
00000100: 88b8 5cbc 9d68 813c 21a0 90b9 8983 053b
00000110: eb94 5cba fb65 ae3b 8c64 c33b d05d d7bc
00000120: 87a4 343c 48fa 933a c1e7 e13b 6fbe ca3b
00000130: b43c b33c e8d7 c5ba 7fe9 8ebc 37d4 0dbc
00000140: 3075 2bbc 0cc5 0f3c 341d 503b 4bab e03a
00000150: 7874 debc f2a1 2e3c e234 53bb 43bc 66bb
00000160: b04d 5b3c 87d6 11bc 83f3 19bb 0efd b7bb
00000170: d4e3 6cbb 7772 15bc aa52 833c f081 84bd
00000180: e2c0 043c ea2f 41bb eff0 8a39 5c7e ccbb
00000190: aaa7 c1bc 10b1 743c e908 4abc 043b c1bc
000001a0: 8d22 0b3c c0dc 1b3c cac1 95bc 789a 2e3c
000001b0: 6ad9 493b 0262 b9bc d7cd aabb 1cd5 1b3c
000001c0: db42 e93b 818e 1dbc 53ee 0b3c 2f4f c2bb
000001d0: 8b3b adbc 39d0 3a3a 779a 1aba 00e9 a1bc
000001e0: 5896 b1bc e8f4 45bc 461a bc3a 23d7 8a3b
000001f0: 8539 003b ddd7 0abb cdd6 edbb 28fe 9dbb
-0.007668449 0.00031816654 0.010705642 -0.008581614 0.002800162 -0.0008569778 -0.005950808 -0.02482941
0.015936585 -0.0074205166 0.0020422281 -0.0096302135 -0.041387264 0.009512817 -0.007519763 -0.0033200008
-0.00081817975 -0.005023363 -0.0058368756 -0.008038201 -0.01296797 0.0012723741 0.01323196 0.005655652
-0.00095113635 0.0050040274 0.013917158 0.012363506 0.0159344 -0.028822687 -0.026078502 0.0012720671
0.0030724045 -0.0059716115 -0.02526334 -0.012992126 -0.019371087 -0.009587151 -0.018789839 -0.00182976
-0.010704391 0.00060760125 0.012034414 -0.019169653 -0.0013976883 -0.015021147 0.0034334566 0.0039450303
0.0003844712 -0.028382903 -0.0039451607 0.0064358166 -0.0058320053 -0.027158232 0.010706773 -0.019252615
-0.004030233 -0.027408378 -0.024322575 -0.0052156113 0.028662093 -0.024058811 -0.006003148 -8.1903774e-05
-0.01347173 0.015796954 -0.00027585126 0.002037259 -0.00084145245 0.0053222156 0.005962914 -0.02628985
0.0110255545 0.00112898 0.0068940823 0.0061872522 0.021879531 -0.0015094252 -0.017445324 -0.008656553
-0.010464951 0.008775007 0.0031755688 0.0017140893 -0.027155146 0.010658728 -0.0032227566 -0.0035207428
0.013385221 -0.008901245 -0.0023491092 -0.0056148833 -0.0036146538 -0.009121529 0.016030628 -0.06470096
0.0081026275 -0.0029478022 0.0002650092 -0.006240649 -0.023639519 0.014934793 -0.012331226 -0.023587711
0.008492124 0.00951308 -0.018280882 0.010656945 0.0030799755 -0.022629742 -0.0052125263 0.009511258
0.0071185655 -0.009616495 0.008540708 -0.0059298496 -0.021146556 0.00071263645 -0.0005897651 -0.019764423
-0.021678135 -0.012082316 0.0014351092 0.004237072 0.0019565534 -0.0021185793 -0.0072582723 -0.0048215576

gnn.gnn_node.batch_norms.1.running_mean f4 [128]
00000000: 0d43 78be 4e81 04be 02a0 d23e 8079 09bf
00000010: 2db8 55be 9f91 6fbe 2df5 6fbe 58ff b7be
00000020: f426 a0be 9ae0 d4be e374 71be bfee 323f
00000030: 4f44 d23e 01fc 42be 079e 50be 4057 6bbe
00000040: ab2e 133f 13ac acbe 314b 59be 0557 95be
00000050: 2800 c93e 8198 c03e 2ea9 a0bd afa2 20bf
00000060: 403a 5ebe 2dbe bfbe f410 febe c377 0bbe
00000070: 8f58 06be 1de7 febe edb7 07bf bceb 3cbe
00000080: fda8 3abf 5a05 28be 6b9b f23e 318b cebe
00000090: 8fe1 b13e 86a7 25be 167a acbe a957 71be
000000a0: 10b3 0bbe e5ad bbbe d933 f43e 72b8 94be
000000b0: c1fc 1abe a8d2 c6be 382c 95be 2789 8dbd
000000c0: cf6f 85be 7086 0c3f f0f6 87be 3020 afbe
000000d0: c5bd 89be a1a6 cfbe 7fdf 13be ce37 0dbf
000000e0: f149 acbe 7750 473f 7c78 a9be 2884 45be
000000f0: 226f 31be ced3 8bbe 34b9 8dbe bf3e 003f
00000100: cdeb 3f3f ee70 ef3e d3c8 81be 0808 7cbe
00000110: bf96 4abe 231f 013f 015e bcbe c903 3fbf
00000120: 24c9 283f 7cf3 2bbe 8e27 86be 1e90 a5be
00000130: 780e 6a3e 3f3a 0bbf d2a6 f6be 55a9 ae3e
00000140: 34f7 29be b22b 4a3f 0631 9cbe cbcd 3dbe
00000150: 2532 a33e df03 843e c7ec 55bd bdbf 413e
00000160: fe5b a9be b67d 6dbe 3f88 0ebe 61df b4be
00000170: a082 a6be 67fa 1abe f0c3 25be c6cc 143f
00000180: a1fb 90be 6189 07bf 6a70 2a3f 398a 0ebf
00000190: 6c79 d1be db8f 3e3f 11ee a7be 6a09 59be
000001a0: e07d e13e 8606 7abe 7f69 ccbe cf51 033f
000001b0: ad4c 82be d5e5 a03e 0dc5 efbe 681c 25be
000001c0: a732 efbe cd6d 1abe e77e 22be 3bd7 403f
000001d0: 8dcb 27bf 71a2 a3be a6d8 5dbe 4823 443e
000001e0: 15bb db3e 0c04 0b3f f065 88be 3e66 4dbe
000001f0: f378 93be 7629 b1be 3bcd b1be 1847 4abe
-0.24244328 -0.12939951 0.411377 -0.5370102 -0.20871039 -0.23395394 -0.23433371 -0.35937
-0.3127972 -0.41577607 -0.23579745 0.6989555 0.4106774 -0.19041444 -0.20372783 -0.22982502
0.57493085 -0.33725032 -0.2122009 -0.29167953 0.39257932 0.3761635 -0.078447685 -0.62748235
-0.21701908 -0.3744978 -0.4962231 -0.13619904 -0.1311972 -0.497857 -0.53015023 -0.184493
-0.72914106 -0.16408291 0.473842 -0.4034057 0.347424 -0.16177186 -0.33686894 -0.23568596
-0.13642526 -0.36656108 0.47695807 -0.2904697 -0.1513548 -0.38832593 -0.291353 -0.06910925
-0.26061866 0.54892635 -0.26555586 -0.34204245 -0.26902595 -0.40556815 -0.14440726 -0.55163276
-0.33650163 0.77857155 -0.33099735 -0.19288695 -0.1732755 -0.27310032 -0.2768036 0.5009574
0.7496918 0.46765846 -0.2534853 -0.24612439 -0.19784068 0.50438136 -0.3679047 -0.7461515
0.65931916 -0.167921 -0.26202053 -0.32336515 0.22857082 -0.5438575 -0.4817415 0.34113565
-0.16598207 0.78972924 -0.30506152 -0.18535535 0.31874195 0.25784203 -0.05222776 0.18920799
-0.33077997 -0.23192486 -0.13919161 -0.35326675 -0.32521534 -0.15134583 -0.16188025 0.5812496
-0.28316978 -0.52944 0.6657778 -0.5567966 -0.4091295 0.74438256 -0.32798818 -0.21194997
0.44041348 -0.24416551 -0.39924237 0.51296705 -0.25449124 0.31425348 -0.46830025 -0.16124117
-0.46718332 -0.15080948 -0.15868722 0.75328416 -0.6554497 -0.3195987 -0.21664676 0.19154084
0.4291617 0.5430305 -0.26640272 -0.20058534 -0.28803214 -0.34601945 -0.3472689 -0.19753683

gnn.gnn_node.batch_norms.1.running_var f4 [128]
00000000: 6210 e340 c55d 4440 96fe 8e41 bb07 e941
00000010: cf1a 1f41 7367 0841 7fa5 df40 5183 3141
00000020: 796f 1f41 088d 6541 fa3e f840 c80d 4242
00000030: 58e1 7441 2dd7 7f40 1f10 a640 a1b9 8340
00000040: a2e6 0942 4a37 4441 75e0 eb40 2e5a 1e41
00000050: d278 4c41 2a76 7841 5e9a da3f 0e05 2e42
00000060: 4083 e640 5dcb 6441 1521 9341 b1bf 4740
00000070: 22b6 da3f 5203 d241 1738 0142 f506 8a40
00000080: 014a 5b42 22f7 ed40 c74b b441 b46a 8a41
00000090: e5c9 1c41 74b7 8440 fbf0 fc40 715b bf40
000000a0: 083d d53f cb34 4e41 bed4 bd41 f222 4d41
000000b0: f89a 8440 40da 5a41 96f2 4541 114e 5740
000000c0: 6bb8 cc40 0b1b 1842 fb79 2d41 41b1 7141
000000d0: 76e9 1241 bdf5 8e41 9744 1240 4fdd cc41
000000e0: 9a32 3e41 75e2 7342 0f2c 9341 6684 6940
000000f0: 66b5 0441 b0f5 ca40 23c3 4641 0776 d441
00000100: 396c 6242 2f59 9941 82fb 4b41 80c0 f440
00000110: 1ccb 8240 34cd 0142 dee4 5841 aa52 7c42
00000120: b6f3 8442 25d0 2b40 aa5f 0241 940c 1e41
00000130: ef4f bd40 e0dd a041 6c65 9541 86d4 f040
00000140: 6e82 5140 a9ed 7342 03df 1b41 6347 3040
00000150: a43a 5441 a3df c540 5c31 1440 0369 0641
00000160: 0a46 3341 aae9 0141 b4ac 0640 3a6e 9141
00000170: 3ea9 5b41 184b 2840 91aa c140 728e 2c42
00000180: ca4d 2241 9d63 f341 9323 4042 d185 1242
00000190: 7332 8c41 2161 5742 df8e 9541 7f23 5b40
000001a0: d43d 6d41 7f21 cf40 b6b9 9b41 cd0b ce41
000001b0: 14f9 e840 f0b7 e440 61ab b941 94f9 2d40
000001c0: 52d3 9541 48a6 4440 46bf c940 e5de 6542
000001d0: a0a7 f541 9f97 1a41 16ce bf40 65a2 9240
000001e0: 329d e941 0b2a 2842 c3d5 d740 0e1d ba40
000001f0: a869 4241 d849 7241 d4c9 5241 1422 7c40
7.09575 3.0682232 17.87431 29.128775 9.944045 8.525256 6.988952 11.09456
9.964715 14.346931 7.7576876 48.51346 15.305016 3.9975083 5.189468 4.11641
34.475227 12.263498 7.3711495 9.897017 12.779497 15.528849 1.7078359 43.504936
7.2035217 14.299649 18.391153 3.121075 1.7086833 26.251621 32.304775 4.3133492
54.82227 7.4364176 22.537 17.302101 9.799291 4.147394 7.9044166 5.9799123
1.665925 12.887889 23.728878 12.821032 4.143917 13.678284 12.371725 3.3641398
6.397512 38.02641 10.84228 15.105775 9.181997 17.86999 2.2854364 25.60806
11.887354 60.97115 18.396513 3.648706 8.294287 6.342491 12.422641 26.55763
56.605686 19.168547 12.748903 7.6484985 4.0872936 32.450394 13.555876 63.080727
66.476 2.6845791 8.1483555 9.878071 5.9160075 20.108337 18.674522 7.525943
3.2735858 60.98209 9.741946 2.754357 13.264317 6.1835494 2.3155127 8.400638
11.204599 8.119547 2.104291 18.178822 13.728819 2.6295834 6.052071 43.139107
10.143991 30.42364 48.03474 36.63068 17.524633 53.844852 18.694761 3.4240415
14.827595 6.472839 19.46568 25.755762 7.280405 7.1474533 23.208681 2.718358
18.728184 3.072649 6.304599 57.46767 30.706848 9.662017 5.993907 4.5823236
29.201756 42.041058 6.744844 5.8160467 12.150795 15.143028 13.174274 3.93958

synth_conv1.conv1d.weight f4 [1, 1, 6]
00000000: 7f6c 56bf e6d9 58bf 0944 2c3f d4fb 31bf
00000010: bc39 d1be 261e 533e
-0.837593 -0.84707487 0.67291313 -0.69524884 -0.4086436 0.2061697

synth_conv2.conv1d.weight f4 [1, 1, 9]
00000000: fa5d 28bf 5a8a 1ebf 0354 db3d 92a0 28bf
00000010: db6d e8be fa5d aa3e 5c16 2dbf e336 84bf
00000020: 30c1 393f
-0.65768397 -0.6192986 0.10709383 -0.6587001 -0.45396313 0.33274823 -0.6761224 -1.032925
0.72560406

synth_conv3.conv1d.weight f4 [1, 1, 12]
00000000: e5e2 4f3f c5e5 cb3e 0b86 42bf 98a6 5f3f
00000010: def0 2f3f 0227 b9bd f7e9 033f 8876 473f
00000020: eabc 20be 3ae4 f13e 8179 4c3f 8159 3cbf
0.8120559 0.39823738 -0.75985783 0.87363577 0.6872691 -0.09040643 0.5152888 0.7791524
-0.15697065 0.47244436 0.798729 -0.7357407
