GCN/results250/gcn-epoch-9-val_loss-1.037.pt (torch, 104335 bytes, 23 tensors)

node_encoder.node_type_embedding.weight f4 [3, 3]
-0.20630471 0.14849238 -0.3119601 0.93650854 0.83774745 -0.010538417 0.028367776 -0.28405792
-0.7590067
00000000: 8b41 53be 630e 183e 3cb9 9fbe 06bf 6f3f
00000010: 9e76 563f 53a9 2cbc 8a63 e83c 0a70 91be
00000020: 434e 42bf

synth_encoder.synth_emb.weight f4 [7, 3]
0.6997127 -0.008889568 0.24470234 -0.6384115 -0.3261761 -0.053202182 0.38674828 -0.963642
0.5207171 -1.2155442 -1.3732864 0.6440267 0.014390067 0.28496253 -0.8896455 0.820903
0.2810688 -0.8022946 1.1472707 0.19876264 -0.24099708
00000000: 5f20 333f 8da5 11bc 4093 7a3e f06e 23bf
00000010: 8e00 a7be 88ea 59bd df03 c63e 3eb1 76bf
00000020: b74d 053f f496 9bbf d9c7 afbf efde 243f
00000030: 51c4 6b3c 9ce6 913e cfbf 63bf b326 523f
00000040: 40e8 8f3e 2e63 4dbf c4d9 923f 6f88 4b3e
00000050: f0c7 76be

gnn.gnn_node.node_encoder.node_type_embedding.weight f4 [3, 3]
-0.20630471 0.14849238 -0.3119601 0.93650854 0.83774745 -0.010538417 0.028367776 -0.28405792
-0.7590067
00000000: 8b41 53be 630e 183e 3cb9 9fbe 06bf 6f3f
00000010: 9e76 563f 53a9 2cbc 8a63 e83c 0a70 91be
00000020: 434e 42bf

gnn.gnn_node.convs.0.linear.weight f4 [128, 4]
-0.20395295 -0.3193083 -0.14992179 -0.24490628 0.22064756 -0.046829578 -0.40254954 -0.45293036
0.13568105 0.42607898 0.20344174 0.33878595 -0.22979765 -0.106494956 -0.4715623 0.065238036
-0.13885103 -0.37098303 0.4697941 0.36461937 -0.038154818 -0.45942608 0.28179637 -0.30274442
-0.22576493 0.22273369 -0.2760508 0.51645774 -0.4909699 0.16745296 -0.47776133 0.053782962
0.20146528 -0.012763993 -0.53541785 0.20356928 0.11685293 -0.24997294 0.21959914 -0.45484936
-0.5377622 0.34555197 0.20062612 -0.1897042 -0.29957196 -0.23790735 -0.48269376 -0.41591302
-0.0049421554 -0.07557454 -0.301066 -0.031022584 0.31133175 0.06602915 0.5002548 0.2081436
-0.20204848 -0.20685203 -0.24264343 -0.021405015 0.11968203 0.2490267 -0.39132378 -0.3188134
0.40220892 0.16247632 0.114761464 0.329481 -0.14258513 0.24373864 0.024956483 -0.4292295
-0.4643606 0.40396717 0.16108659 -0.1537194 0.38451254 0.14494184 0.21170336 -0.27373147
-0.20135197 -0.5963264 -0.3004528 -0.28515086 -0.524802 -0.3162251 0.15556005 -0.43215322
0.08770578 0.29570445 0.38857904 0.30838335 -0.57583445 -0.4729785 -0.516379 -0.28104597
0.35553256 -0.2305053 0.096702136 -0.029625326 0.052935045 0.49322823 -0.4202882 -0.081476666
-0.4799059 0.43039146 0.35405308 -0.1857681 -0.028922712 0.35066438 0.51421297 -0.49275398
-0.3774965 -0.50195944 0.49591944 -0.4286853 0.51030284 0.60451293 -0.07737209 -0.10685605
0.0679496 -0.6403072 -0.5204359 0.28081918 -0.021874687 0.19644958 0.39109102 -0.31387964
0.17599294 -0.09752089 -0.29519963 -0.27594256 -0.37182283 0.28136688 0.45163703 -0.3442477
0.6323332 -0.10688911 -0.5274309 0.13667244 -0.40030038 -0.21635756 0.5827248 0.32032123
0.25604486 -0.038816348 -0.28591916 -0.31425187 0.42699438 0.25576136 0.33190024 -0.3434661
-0.092281215 0.26063234 0.051970817 -0.2945697 -0.30047747 -0.0755479 -0.4659734 0.3342578
0.12721407 -0.19317755 0.4505368 -0.08436703 0.100710854 0.12121895 0.51313335 -0.014419637
-0.24598159 -0.46593085 -0.2509588 0.48104262 0.32794312 -0.36031622 -0.39334995 0.17850584
-0.22537228 0.04682098 -0.25199148 -0.25130048 0.20467234 -0.16714752 -0.5847911 -0.06817126
-0.09754823 -0.0070558693 -0.020083746 -0.10503886 -0.23512371 0.34417042 0.039658237 -0.43172088
-0.3579203 0.11443941 -0.34313557 -0.17047782 -0.012334931 0.41968924 -0.28401142 -0.12277512
0.29303965 0.34070787 0.045016486 0.3092873 -0.122609794 -0.54138184 -0.5351655 0.114580765
0.07216305 0.46255058 -0.013155627 -0.4061947 0.09027287 0.31162688 0.10626019 -0.50933486
0.10473622 0.45995802 -0.2246105 0.09044598 -0.11746565 -0.5181898 0.2735911 -0.2930704
0.09474113 0.13139468 -0.23064014 0.118567675 -0.4892867 -0.32532698 0.32918265 -0.1948906
-0.08887262 0.11782958 0.19460027 -0.087766275 0.07654694 0.27849594 -0.1663907 -0.058406144
-0.31364217 0.32874843 0.10582734 0.06715991 -0.5041799 0.14260472 -0.4637388 0.45640352
0.1250049 0.25743172 -0.5982697 0.33254087 -0.22971067 -0.049154907 -0.27027816 -0.4252836
00000000: 0bd9 50be 617c a3be 1985 19be b6c8 7abe
00000010: 6ff1 613e 5fd0 3fbd f91a cebe 7de6 e7be
00000020: f9ef 0a3e 0627 da3e 0853 503e 5a75 ad3e
00000030: 1350 6bbe 071a dabd 9d70 f1be 859b 853d
00000040: f72e 0ebe 7df1 bdbe da88 f03e 64af ba3e
00000050: 3a48 1cbd e539 ebbe 9d47 903e 5101 9bbe
00000060: ec2e 67be 4d14 643e 8856 8dbe 9336 043f
00000070: 6860 fbbe ca78 2b3e 229d f4be 864b 5c3d
00000080: ea4c 4e3e 1120 51bc 2511 09bf 7774 503e
00000090: 9750 ef3d e8f8 7fbe 99de 603e 04e2 e8be
000000a0: c9aa 09bf 30ec b03e ef70 4d3e d141 42be
000000b0: 7f61 99be fc9d 73be a323 f7be 8df2 d4be
000000c0: cef1 a1bb d3c6 9abd 5325 9abe 1323 febc
000000d0: e066 9f3e 4a3a 873d b310 003f 9923 553e
000000e0: cce5 4ebe 05d1 53be 8577 78be 9259 afbc
000000f0: da1b f53d db00 7f3e 975b c8be 833b a3be
00000100: 54ee cd3e 3160 263e 0f08 eb3d bcb1 a83e
00000110: d601 12be 9f96 793e 8a71 cc3c f8c3 dbbe
00000120: acc0 edbe c9d4 ce3e e2f3 243e 9e68 1dbe
00000130: d4de c43e a26b 143e c4c8 583e 8826 8cbe
00000140: 362f 4ebe d9a8 18bf f3d4 99be 4bff 91be
00000150: 6d59 06bf 42e8 a1be 224b 1f3e 3043 ddbe
00000160: 179f b33d 9366 973e d5f3 c63e 6ce4 9d3e
00000170: e369 13bf 3d2a f2be 6a31 04bf 42e5 8fbe
00000180: 5d08 b63e 9509 6cbe c50b c63d d0b0 f2bc
00000190: 6bd2 583d 6988 fc3e 0430 d7be 3ddd a6bd
000001a0: 3ab6 f5be 455c dc3e 7246 b53e fe39 3ebe
000001b0: 53ef ecbc 488a b33e 76a3 033f 404a fcbe
000001c0: 3947 c1be 6a80 00bf 27e9 fd3e a47c dbbe
000001d0: 35a3 023f 5cc1 1a3f 4275 9ebd 58d7 dabd
000001e0: 2929 8b3d 2ceb 23bf 4a3b 05bf 88c7 8f3e
000001f0: 8b32 b3bc 142a 493e 153d c83e d5b4 a0be
00000200: 7e37 343e 08b9 c7bd 6824 97be 5848 8dbe
00000210: 905f bebe 520f 903e f83c e73e 3c41 b0be
00000220: 97e0 213f ade8 dabd b605 07bf dcf3 0b3e
00000230: 2cf4 ccbe d68c 5dbe 742d 153f 2501 a43e
00000240: 5018 833e e4fd 1ebd ff63 92be 9fe5 a0be
00000250: 029f da3e 27f3 823e d4ee a93e cada afbe
00000260: effd bcbd 9a71 853e 5adf 543d d7d1 96be
00000270: 2fd8 99be dbb8 9abd 1194 eebe d723 ab3e
00000280: 6844 023e 56d0 45be c2ac e63e 9fc8 acbd
00000290: 7e41 ce3d a441 f83d b55c 033f 5740 6cbc
000002a0: 99e2 7bbe 7d8e eebe ac7d 80be 384b f63e
000002b0: 29e8 a73e 5e7b b8be 2a65 c9be 3cca 363e
000002c0: fec7 66be 5bc7 3f3d 0705 81be 75aa 80be
000002d0: a095 513e b828 2bbe dfb4 15bf 609d 8bbd
000002e0: 5ec7 c7bd ec34 e7bb ab86 a4bc 9d1e d7bd
000002f0: 45c4 70be 1b37 b03e ad70 223d 850a ddbe
00000300: 5441 b7be 365f ea3d 77af afbe bd91 2ebe
00000310: 7318 4abc 82e1 d63e f269 91be 8671 fbbd
00000320: 4b09 963e 4371 ae3e 3563 383d e85a 9e3e
00000330: d81a fbbd 0098 0abf 9b00 09bf 52a9 ea3d
00000340: 39ca 933d 6ed3 ec3e b38a 57bc c0f8 cfbe
00000350: fce0 b83d 8f8d 9f3e f19e d93d c563 02bf
00000360: f17f d63d 9e7f eb3e 4b00 66be be3b b93d
00000370: d591 f0bd 16a8 04bf 2214 8c3e 530d 96be
00000380: a307 c23d 548c 063e ee2c 6cbe 9cd3 f23d
00000390: c983 fabe 4291 a6be a18a a83e 6791 47be
000003a0: d902 b6bd a350 f13d 4b45 473e cebe b3bd
000003b0: a4c4 9c3d 0597 8e3e 5362 2abe 483b 6fbd
000003c0: b595 a0be b751 a83e 01bc d83d 238b 893d
000003d0: ef11 01bf f906 123e 2c6f edbe b9ad e93e
000003e0: 4901 003e 17ce 833e 3428 19bf cc42 aa3e
000003f0: 4639 6bbe a856 49bd e661 8abe c6be d9be

gnn.gnn_node.convs.0.linear.bias f4 [128]
0.3984395 0.072250634 -0.4150626 0.28446278 -0.49032903 0.4639353 0.058626924 0.5361956
0.6610704 0.15331931 -0.07253324 0.08903786 -0.49663246 -0.47485173 0.55765325 0.36666825
0.6082704 0.046106275 0.51984394 0.20040894 0.050369285 0.20293234 -0.23702264 -0.4028623
0.15691559 0.087274544 0.36667487 0.12499824 0.34339932 -0.36541167 -0.05444211 0.25836393
0.39591894 -0.07901061 0.63284594 -0.23936616 0.4050638 0.22412589 -0.37237242 0.0021447376
0.18824652 0.09708285 -0.31610703 -0.24018775 -0.07811486 -0.29095742 -0.30534598 -0.20324568
0.07274824 -0.15204333 0.37745565 0.18671238 0.016986908 0.008917704 -0.49203226 -0.16863765
-0.2767141 0.14196777 -0.50955504 0.22158259 -0.54978967 -0.088545404 0.1341531 0.3954219
-0.21787982 0.3107812 0.4568974 -0.17212963 -0.044941537 -0.01792888 -0.2834117 0.6555701
-0.47665212 0.4525006 -0.24864893 0.12116287 0.098746516 0.18093611 0.075963624 -0.03165493
-0.445922 -0.39807087 -0.22606783 0.16541405 0.34688422 0.618207 0.32670993 0.08337854
0.07578797 0.39946547 0.3855049 0.10734934 -0.13026425 0.008632166 0.44589725 0.5048899
-0.44086745 -0.38451615 0.53060704 0.3257939 -0.13392429 -0.16639163 0.11113817 -0.25552928
-0.410514 -0.097061016 0.16557388 -0.19471952 -0.41740236 -0.4118067 -0.38195604 0.5000601
-0.45426956 -0.24933432 -0.4897124 -0.20173167 -0.0063322242 0.46337733 0.5256052 -0.41457465
0.41604212 0.12203001 -0.15741676 -0.07835764 -0.22632672 0.037403096 0.46769223 -0.3534237
00000000: 4300 cc3e 24f8 933d 1683 d4be 1ba5 913e
00000010: 680c fbbe ed88 ed3e c922 703d 1d44 093f
00000020: e93b 293f bdff 1c3e 4f8c 94bd 7b59 b63d
00000030: 9c46 febe c41f f3be 5dc2 0e3f f1bb bb3e
00000040: 9cb7 1b3f efd9 3c3d 7e14 053f 0038 4d3e
00000050: 0650 4e3d 7fcd 4f3e 10b6 72be f843 cebe
00000060: 7bae 203e ffbc b23d cfbc bb3e 14ff ff3d
00000070: 09d2 af3e 3d17 bbbe b1fe 5ebd 4748 843e
00000080: e3b5 ca3e 51d0 a1bd 3102 223f 671c 75be
00000090: 8664 cf3e 4281 653e 99a7 bebe ba8e 0c3b
000000a0: b2c3 403e 60d3 c63d c8d8 a1be c7f3 75be
000000b0: affa 9fbd 5ff8 94be 4f56 9cbe a31f 50be
000000c0: 07fd 943d 3fb1 1bbe de41 c13e 8831 3f3e
000000d0: 2128 8b3c 901b 123c a7eb fbbe 59af 2cbe
000000e0: 78ad 8dbe 0060 113e 3372 02bf 8ce6 623e
000000f0: 04bf 0cbf 4b57 b5bd 6e5f 093e bd74 ca3e
00000100: e31b 5fbe b71e 9f3e 75ee e93e c042 30be
00000110: 9e14 38bd 96df 92bc 571b 91be 71d3 273f
00000120: bf0b f4be 29ae e73e d39d 7ebe 3d24 f83d
00000130: 9d3b ca3d 5147 393e d192 9b3d 9aa8 01bd
00000140: e34f e4be f2cf cbbe 537e 67be 4d62 293e
00000150: cf9a b13e d042 1e3f 8646 a73e 5ec2 aa3d
00000160: b936 9b3d bd86 cc3e e660 c53e f9d9 db3d
00000170: fe63 05be ee6d 0d3c a54c e43e 7740 013f
00000180: 61b9 e1be 4ddf c4be ddd5 073f 75ce a63e
00000190: 7323 09be 9162 2abe 699c e33d bcd4 82be
000001a0: e42e d2be edc7 c6bd 338c 293e 8e64 47be
000001b0: c3b5 d5be 54d8 d2be be8f c3be f003 003f
000001c0: 0596 e8be 7f51 7fbe 95bb fabe bf92 4ebe
000001d0: 8c7e cfbb cb3f ed3e 108e 063f 2143 d4be
000001e0: 7903 d53e dfea f93d dc31 21be f879 a0bd
000001f0: 31c2 67be fd33 193d 5b75 ef3e f4f3 b4be

gnn.gnn_node.convs.1.linear.weight f4 [128, 128]
0.0050512822 -0.03514584 -0.05721142 -0.0042965757 -0.083654955 0.011922938 -0.08257046 -0.040289883
-0.13912958 0.06426483 0.0004556642 0.026186408 -0.013036629 -0.03139647 -0.088109955 0.034740258
-0.10668981 -0.06979039 0.03420496 0.029239677 -0.047804043 0.05400857 -0.013265887 -0.05168452
-0.058704473 -0.13530701 -0.02841664 -0.062377293 0.07667598 -0.050041396 0.0072161313 0.0332201
-0.053202737 0.053411253 -0.12460727 -0.030974846 0.064924836 -0.057723068 -0.04730883 -0.045042608
0.0057598916 -0.1183493 -0.06272111 0.038786206 -0.03457278 -0.11496492 -0.07932303 -0.050813593
0.009632065 -0.036382 0.003917509 0.017722046 0.018694999 -0.07160934 -0.00488511 0.02992163
-0.08195301 -0.04344478 -0.009336968 0.016014261 0.026102196 -0.015454695 -0.046087068 -0.04953099
0.060024712 0.044098616 0.009814805 0.01079352 0.026391517 0.026368197 -0.06849505 -0.0933372
0.03989708 -0.027873272 -0.1134991 -0.1374592 -0.059618343 0.08256222 -0.04606163 0.014580355
-0.116300635 -0.13817948 -0.02709759 -0.03795309 -0.07111595 -0.08783413 -0.037755955 -0.038569253
0.029184848 0.027668957 -0.019303584 -0.07623699 -0.13355859 -0.09430063 -0.033060696 -0.04509912
0.027209174 -0.07502313 -0.14281233 -0.04566404 0.021325124 -0.021597452 -0.024745531 -0.036832307
0.0019019837 -0.030385995 -0.06842849 -0.112123504 0.071152955 -0.017463641 -0.020650653 0.05851004
-0.071310624 -0.05947279 0.05876864 -0.041900843 -0.12321212 0.060763586 -0.09366079 0.030567423
-0.0046754316 0.014098811 0.0464831 -0.10858058 -0.07157688 0.03493465 -0.09865676 -0.07506775
0.017917857 0.04910655 -0.022009017 -0.10601101 0.01631013 -0.09871611 0.0069622085 -0.06988103
-0.027203664 -0.08381587 0.06388675 -0.06473481 0.08129975 -0.08658163 0.033682767 -0.053669035
0.027616192 -0.027576284 -0.11214074 -0.104157045 -0.04468745 -0.08738723 0.024952218 0.043871522
-0.028029626 -0.01883552 0.104019344 -0.02304859 -0.08136045 -0.04853433 -0.008672935 0.08931046
-0.005705169 0.037048165 -0.06870287 -0.007439797 0.036023356 0.07701766 0.013511996 -0.109257124
-0.12931488 -0.0127338 -0.07010376 -0.021957763 0.027355766 -0.11573024 0.0055553634 -0.021487586
-0.010513641 0.02112165 -0.0859304 0.004607542 0.071562916 0.054600045 -0.019792391 0.07632528
-0.14554244 0.002152016 0.032743152 -0.05375309 0.028072312 -0.016767245 -0.017866349 0.017200096
0.035278518 0.041787498 0.06580596 -0.027719734 0.027502537 0.010452371 -0.014506632 -0.076421216
0.07361975 -0.027660068 -0.027308304 -0.029380908 -0.09402656 -0.07762639 -0.13947016 -0.029939044
-0.06906564 0.07062063 -0.006254761 0.04757067 -0.002358143 0.023968464 -0.1118578 -0.013509615
0.016679103 -0.10361898 -0.08678933 0.0048800632 0.009583161 -0.021731641 -0.06526062 0.011397505
0.04202871 -0.056946 -0.12745045 -0.09817958 0.017655289 -0.007609798 0.0011724007 0.011624343
0.020937905 -0.050437428 -0.09945388 -0.11283684 -0.010374958 -0.08922777 -0.024169577 -0.010864504
0.011981565 -0.07064197 -0.08852872 -0.12538715 0.062505074 0.050198518 -0.031556755 -0.01047208
-0.06118694 -0.07565694 -0.14418505 0.090913445 -0.057435464 0.034872685 -0.12151679 -0.024139352
00000000: 3a85 a53b 16f5 0fbd 8656 6abd 4aca 8cbb
00000010: 4a53 abbd 6d58 433c b41a a9bd 0107 25bd
00000020: fc77 0ebe 479d 833d 37e6 ee39 e184 d63c
00000030: 9697 55bc 9699 00bd fe72 b4bd cd4b 0e3d
00000040: 3080 dabd 44ee 8ebd 801a 0c3d 0c88 ef3c
00000050: 2cce 43bd 1738 5d3d 2a59 59bc 26b3 53bd
00000060: 1a74 70bd ec8d 0abe 03ca e8bc 557f 7fbd
00000070: 4c08 9d3d 35f8 4cbd 4c75 ec3b cd11 083d
00000080: 1deb 59bd c2c5 5a3d 1932 ffbd f6be fdbc
00000090: 50f7 843d 066f 6cbd e7c6 41bd 997e 38bd
000000a0: 79bd bc3b 1e61 f2bd ed73 80bd 49de 1e3d
000000b0: 309c 0dbd ba72 ebbd 1d74 a2bd ea21 50bd
000000c0: cfcf 1d3c 4b05 15bd 735e 803b d32d 913c
000000d0: 4126 993c eba7 92bd 4613 a0bb 351e f53c
000000e0: fbd6 a7bd 27f3 31bd 15fa 18bc 5730 833c
000000f0: 46d4 d53c b035 7dbc cbc5 3cbd 02e1 4abd
00000100: 79dc 753d c0a0 343d 47ce 203c 4ed7 303c
00000110: 0633 d83c 1e02 d83c 2247 8cbd 9327 bfbd
00000120: 1f6b 233d 7d56 e4bc 3772 e8bd 1bc2 0cbe
00000130: 5d32 74bd 6216 a93d 1fab 3cbd 71e2 6e3c
00000140: 072f eebd ec7e 0dbe c4fb ddbc b374 1bbd
00000150: 3da5 91bd 61e2 b3bd fda5 1abd cbfa 1dbd
00000160: 1015 ef3c 02aa e23c 8d22 9ebc 2422 9cbd
00000170: 95c3 08be b020 c1bd a76a 07bd dbb9 38bd
00000180: c6e5 de3c baa5 99bd 653d 12be 370a 3bbd
00000190: 07b2 ae3c 24ed b0bc 24b7 cabc 79dd 16bd
000001a0: fc4b f93a 0dec f8bc 3c24 8cbd 02a1 e5bd
000001b0: a4b8 913d e90f 8fbc 8f2b a9bc 39a8 6f3d
000001c0: 4e0b 92bd be99 73bd 63b7 703d 38a0 2bbd
000001d0: a356 fcbd 3de3 783d 3ad1 bfbd 8868 fa3c
000001e0: 5d34 99bb b3fe 663c 1065 3e3d 7f5f debd
000001f0: e696 92bd a317 0f3d 8e0c cabd 1fbd 99bd
00000200: 78c8 923c f323 493d 414c b4bc 4d1c d9bd
00000210: d29c 853c ac2b cabd 3d23 e43b c91d 8fbd
00000220: 38da debc a8a7 abbd 0ed7 823d af93 84bd
00000230: 7c80 a63d b651 b1bd f1f6 093d 10d4 5bbd
00000240: 5a3b e23c a9e7 e1bc 0baa e5bd 4a50 d5bd
00000250: 300a 37bd 13f8 b2bd 9868 cc3c a0b2 333d
00000260: 639e e5bc f34c 9abc 1808 d53d 66d0 bcbc
00000270: 4fa0 a6bd efcb 46bd ed18 0ebc 67e8 b63d
00000280: 6df2 babb d1bf 173d 17b4 8cbd 8ac9 f3bb
00000290: 3a8d 133d 6fbb 9d3d 6b61 5d3c 33c2 dfbd
000002a0: 1f6b 04be 6ea1 50bc 8f92 8fbd c4e0 b3bc
000002b0: 3319 e03c fa03 edbd c409 b63b bc06 b0bc
000002c0: 6841 2cbc 4f07 ad3c 47fc afbd ddfa 963b
000002d0: 948f 923d 4ca4 5f3d a723 a2bc 6e50 9c3d
000002e0: 1409 15be d608 0d3b af1d 063d 332c 5cbd
000002f0: e8f7 e53c 765b 89bc 735c 92bc 37e7 8c3c
00000300: 3580 103d 5e29 2b3d 46c5 863d 7f14 e3bc
00000310: 004d e13c 6c40 2b3c 3aad 6dbc ba82 9cbd
00000320: f4c5 963d 5e97 e2bc aab5 dfbc 3bb0 f0bc
00000330: ff90 c0bd 96fa 9ebd 44d1 0ebe ba42 f5bc
00000340: 4972 8dbd 8da1 903d bdf4 ccbb 76d9 423d
00000350: 138b 1abb 8359 c43c b415 e5bd 6f57 5dbc
00000360: 9da2 883c 3036 d4bd 9bbe b1bd f0e8 9f3b
00000370: b102 1d3c 8e06 b2bc 5ca7 85bd 9abc 3a3c
00000380: 4c26 2c3d 3540 69bd 5f82 02be 6012 c9bd
00000390: d3a1 903c 9d5b f9bb 3dab 993a 0774 3e3c
000003a0: f885 ab3c 7a97 4ebd 7aae cbbd 0017 e7bd
000003b0: bafb 29bc 0dbd b6bd 47ff c5bc 0801 32bc
000003c0: 534e 443c bdac 90bd 8c4e b5bd 7d65 00be
000003d0: a902 803d f69c 4d3d a841 01bd 1693 2bbc
000003e0: 289f 7abd 07f2 9abd 3fa5 13be d430 ba3d
000003f0: 7341 6bbd a9d6 0e3d cbdd f8bd e4bf c5bc

gnn.gnn_node.convs.1.linear.bias f4 [128]
0.0060757375 0.008618529 0.037209976 0.07710371 0.059655044 -0.03215597 0.004898047 -0.10405385
-0.0676646 -0.041192546 0.020248735 0.14891264 0.048330396 -0.009561214 0.027678568 -0.084227055
0.13909519 -0.12252491 0.017087458 0.00033263635 0.072491534 0.14124094 0.045308396 -0.13444358
0.0053286627 -0.083629556 -0.06792695 0.0152208945 0.0494228 -0.14810507 -0.0047012805 -2.8309869e-05
-0.03510577 -0.01358921 0.08533526 -0.12986346 0.021687737 0.06476464 -0.056018468 -0.06281805
0.0047322237 -0.09938375 0.09192292 0.1522571 0.059295822 -0.05178812 -0.05991825 0.035883505
-0.03740133 0.07271803 -0.015914658 -0.03026166 0.0016849737 -0.092390284 0.05648598 -0.11176789
-0.115561984 0.15125613 0.0759721 -0.040338315 0.120185964 -0.104316115 0.04300593 0.107596
0.18213667 0.113409236 -0.07032301 0.039957758 -0.031524334 0.09630787 -0.11161648 -0.113688916
0.02771928 0.016645908 0.00477769 -0.06679634 0.03906139 -0.06976553 -0.075164326 0.103650086
0.022204848 0.12718365 -0.092813514 0.0024528157 -0.08035111 -0.019706745 -0.0011528641 -0.079752445
-0.09593585 0.039812066 0.0492782 0.023735622 -0.07653473 -0.059069432 -0.032397382 0.07968268
-0.058551423 -0.16419785 0.046773523 -0.05885879 -0.063092425 0.19515206 0.09795193 -0.0630822
0.027608734 -0.040143214 -0.012325535 0.14737698 -0.016087329 0.027747195 -0.09560317 0.030824054
-0.10097461 0.04053742 0.08810653 0.19199581 -0.047391187 -0.099731825 0.0014531672 -0.009971238
-0.034623213 0.026655592 0.0019378355 0.020081935 -0.032947447 -0.043608014 -0.0625877 -0.08097312
00000000: fb16 c73b bb34 0d3c 7d69 183d 8de8 9d3d
00000010: d958 743d fab5 03bd cc7f a03b 2f1a d5bd
00000020: bd93 8abd 84b9 28bd ade0 a53c 8e7c 183e
00000030: 18f6 453d a3a6 1cbc 2abe e23c 3c7f acbd
00000040: f86e 0e3e 57ee fabd fffa 8b3c b265 ae39
00000050: 7176 943d 77a1 103e 4c95 393d 94ab 09be
00000060: 109c ae3b f945 abbd 491d 8bbd 0f61 793c
00000070: 906f 4a3d dba8 17be 330d 9abb fb7a edb7
00000080: 11cb 0fbd 47a5 5ebc 41c4 ae3d edfa 04be
00000090: 7baa b13c 53a3 843d 9f73 65bd c0a6 80bd
000000a0: c510 9b3b b589 cbbd 1542 bc3d 49e9 1b3e
000000b0: 2de0 723d c81f 54bd d76c 75bd 95fa 123d
000000c0: 2332 19bd 31ed 943d 755f 82bc 4de7 f7bc
000000d0: 56da dc3a 1e37 bdbd d85d 673d 90e6 e4bd
000000e0: c3ab ecbd e3e2 1a3e 4397 9b3d ca39 25bd
000000f0: 0f24 f63d b0a3 d5bd fc26 303d 4b5b dc3d
00000100: 0982 3a3e 1a43 e83d 8305 90bd bfaa 233d
00000110: a91f 01bd 0f3d c53d 2e97 e4bd bcd5 e8bd
00000120: 8b13 e33c 005d 883c 2b8e 9c3b 85cc 88bd
00000130: d6fe 1f3d 3be1 8ebd c1ef 99bd 7f46 d43d
00000140: f1e6 b53c 6e3c 023e 0315 bebd 6bbf 203b
00000150: 1f8f a4bd 0a70 a1bc b31b 97ba 4055 a3bd
00000160: 047a c4bd fa11 233d f0d7 493d 3571 c23c
00000170: 3ebe 9cbd caf2 71bd 1eb3 04bd ac30 a33d
00000180: 9ed3 6fbd 7b23 28be 9895 3f3d ea15 71bd
00000190: 9a36 81bd f1d5 473e 059b c83d 3e31 81bd
000001a0: b62b e23c 366d 24bd 0af1 49bc fee9 163e
000001b0: 93c9 83bc 164e e33c 98cb c3bd ba82 fc3c
000001c0: c7cb cebd 910a 263d 3271 b43d 8d9a 443e
000001d0: 431d 42bd 3340 ccbd 3378 be3a 675e 23bc
000001e0: 12d1 0dbd d45c da3c f8fe fd3a df82 a43c
000001f0: e7f3 06bd 519e 32bd fb2d 80bd 3cd5 a5bd

gnn.gnn_node.batch_norms.0.weight f4 [128]
1.0759392 0.9083235 0.93425304 1.0594875 0.971743 1.027859 1.0005955 1.0092307
0.9800761 0.92799056 0.96074283 1.0723143 1.075576 0.8527257 0.9712896 1.074785
1.0636158 0.96914446 0.98509085 0.9176891 1.1289561 0.9976417 0.92218584 1.102793
0.95458376 1.0911956 0.98846143 0.90682876 0.99172497 1.0119803 0.9691953 0.9645826
1.1200126 0.9805831 0.9622439 1.0164373 1.0402242 0.9569222 1.0175695 0.9612258
0.9774377 0.9085956 0.87881255 0.9223976 0.93653774 1.202123 1.009558 1.0092568
1.0018107 0.9211388 0.9258404 1.0711521 0.9250394 0.89541674 0.90316564 1.0279584
0.8852755 1.0217828 0.9651168 1.0940064 1.0186881 0.9592517 1.0282825 1.0920405
0.9652896 1.1193385 1.0769918 1.0729933 0.97445655 1.0138433 0.9535891 0.9724591
1.0060525 0.9745771 0.83888996 0.91418076 0.9940269 1.0023103 0.9110832 0.99712425
0.9568996 1.0017626 0.9526543 0.98075604 1.0811408 1.0042119 1.0121748 0.9696785
0.86839354 0.9228575 0.95106626 0.9707084 0.96672565 0.9657917 0.99869865 0.9954563
1.0102284 1.0510256 1.0324514 1.093097 0.9914056 0.94322115 0.998509 0.8865191
0.99083227 0.91660744 1.0368799 0.8928601 1.0220917 1.0581596 0.9478761 1.0945464
0.95826644 0.9937446 1.0280075 0.9882321 0.95764303 1.0870533 1.0227838 1.0722098
1.1059238 1.0573733 0.9769312 0.9522862 1.005598 0.9005181 0.9653021 1.0466099
00000000: 60b8 893f e487 683f 352b 6f3f 499d 873f
00000010: 26c4 783f e290 833f 8313 803f 792e 813f
00000020: 44e6 7a3f ca90 6d3f 3ef3 753f 9841 893f
00000030: 79ac 893f 3b4c 5a3f 6fa6 783f 8e92 893f
00000040: 9024 883f da19 783f ea2e 7c3f aced 6a3f
00000050: a281 903f 7265 7f3f 5f14 6c3f 5228 8d3f
00000060: 9a5f 743f 4cac 8b3f cf0b 7d3f ee25 683f
00000070: b0e1 7d3f 9288 813f 2f1d 783f e3ee 763f
00000080: 935c 8f3f 7e07 7b3f 9e55 763f 9e1a 823f
00000090: 1126 853f daf8 743f b83f 823f e512 763f
000000a0: 5b39 7a3f b999 683f dcf9 603f 4022 6c3f
000000b0: f0c0 6f3f 2bdf 993f 3239 813f 542f 813f
000000c0: 553b 803f c1cf 6b3f e003 6d3f 831b 893f
000000d0: 62cf 6c3f 083a 653f dd35 673f 2494 833f
000000e0: 6aa1 623f c7c9 823f e511 773f 6708 8c3f
000000f0: 5f64 823f 8591 753f c39e 833f fcc7 8b3f
00000100: 381d 773f 7c46 8f3f deda 893f d857 893f
00000110: fc75 793f 9ec5 813f 6a1e 743f 14f3 783f
00000120: 54c6 803f e37d 793f 7ec1 563f c007 6a3f
00000130: 8c78 7e3f b44b 803f c03c 693f 8943 7f3f
00000140: 5ff7 743f c239 803f 27e1 733f d412 7b3f
00000150: d262 8a3f 048a 803f f28e 813f da3c 783f
00000160: 0a4f 5e3f 6440 6c3f 1479 733f 5880 783f
00000170: 557b 773f 203e 773f b7aa 7f3f 39d6 7e3f
00000180: 2a4f 813f 0288 863f 5e27 843f 9aea 8b3f
00000190: c2cc 7d3f f176 713f 499e 7f3f eaf2 623f
000001a0: 2fa7 7d3f c9a6 6a3f 7bb8 843f 7b92 643f
000001b0: e7d3 823f c671 873f 02a8 723f 191a 8c3f
000001c0: f350 753f 0c66 7e3f c095 833f c7fc 7c3f
000001d0: 1828 753f 9024 8b3f 94ea 823f 2c3e 893f
000001e0: e98e 8d3f 0258 873f 2a18 7a3f 07c9 733f
000001f0: 6fb7 803f 5b88 663f 0a1e 773f 50f7 853f

gnn.gnn_node.batch_norms.0.bias f4 [128]
-0.007088816 -0.08437519 -0.017600823 0.03784111 0.026184978 -0.02713886 0.15402617 0.051278528
0.11657709 0.06532067 0.01848648 -0.004870605 0.07118401 -0.07216514 0.021837797 -0.046321634
-0.035230573 -0.054601096 0.009885566 -0.11237782 -0.010826293 0.08725626 -0.025635945 0.098503366
0.048433762 0.004895844 -0.04998975 0.036492728 0.055257116 -0.06337954 0.15261377 0.086452454
0.08296715 -0.050332423 -0.05136764 0.09908139 -0.02202922 -0.042282235 0.06325839 0.14358765
-0.053351223 -0.08090403 0.022309516 0.111250244 0.0039010847 0.10802013 0.07246297 0.04573818
-0.036198 0.052103806 -0.08448868 -0.007612791 0.08853593 -0.007589741 -0.04316393 0.027367286
-0.05813632 0.03594851 0.032734156 -0.11047898 0.06056163 0.13030998 0.018840564 -0.017649516
0.057074137 -0.07226779 -0.03190074 0.10003615 -0.06064229 0.022469088 -0.0025026165 -0.013003712
0.06726325 0.022520058 -0.0602454 0.000562258 0.03513921 0.07539359 -0.00233975 -0.0035789958
-0.04431897 0.029314496 -0.08940411 -0.018728828 -0.00014590212 0.008889513 0.113287546 -0.076155
0.028837943 0.0075374395 0.0031686733 0.13130371 0.081121355 0.025861928 0.009910435 -0.021369588
0.010708947 0.05300987 0.011155654 0.16177242 -0.047825113 -0.03929515 0.14622675 0.08662274
0.047229033 -0.057668097 0.00086312124 0.019298093 0.043699797 0.07204739 0.0077253585 -0.051665176
0.040901832 0.07940625 0.027333835 0.03508724 0.0009268071 0.0086825 0.07072187 0.09275791
0.02750071 0.09164624 0.070794754 0.04726781 -0.039689627 -0.06525509 -0.013505142 0.02696611
00000000: 4c49 e8bb e6cc acbd 9a2f 90bc 48ff 1a3d
00000010: e181 d63c 5152 debc 09b9 1d3e 6f09 523d
00000020: f8bf ee3d d8c6 853d f570 973c 9999 9fbb
00000030: ecc8 913d 51cb 93bd 2ee5 b23c c1bb 3dbd
00000040: ef4d 10bd 66a5 5fbd 12f7 213c 5826 e6bd
00000050: c460 31bc 69b3 b23d 7902 d2bc 22bc c93d
00000060: 7b62 463d 516d a03b 0dc2 4cbd 6679 153d
00000070: 4955 623d 22cd 81bd c946 1c3e fc0d b13d
00000080: aeea a93d 5f29 4ebd e066 52bd 2feb ca3d
00000090: 9f76 b4bc 2330 2dbd 9d8d 813d a408 133e
000000a0: d086 5abd 03b1 a5bd 72c2 b63c 2bd7 e33d
000000b0: 57a9 7f3b a839 dd3d 7767 943d f557 3b3d
000000c0: 5b44 14bd cd6a 553d 6708 adbd b874 f9bb
000000d0: 5352 b53d 5db3 f8bb a9cc 30bd 5c31 e03c
000000e0: 5a20 6ebd bf3e 133d 4014 063d ce42 e2bd
000000f0: 790f 783d fb6f 053e 8757 9a3c b895 90bc
00000100: 92c6 693d 2301 94bd 5aaa 02bd c1df cc3d
00000110: 0d64 78bd 1811 b83c f002 24bb 850d 55bc
00000120: 51c1 893d fc7b b83c e1c3 76bd 7f64 133a
00000130: 22ee 0f3d f467 9a3d 7e56 19bb 968d 6abb
00000140: cf87 35bd f424 f03c 8119 b7bd 336d 99bc
00000150: 4dfd 18b9 52a5 113c 4d03 e83d 27f7 9bbd
00000160: 8d3d ec3c a0fc f63b 84a9 4f3b 7b74 063e
00000170: f422 a63d 65dc d33c 615f 223c 460f afbc
00000180: 9474 2f3c e120 593d 34c6 363c aba7 253e
00000190: 44e4 43bd f4f3 20bd 77bc 153e 4367 b13d
000001a0: 3b73 413d 6235 6cbd 1643 623a 0917 9e3c
000001b0: 8ffe 323d 958d 933d 0125 fd3b dd9e 53bd
000001c0: ae88 273d be9f a23d 35eb df3c a3b7 0f3d
000001d0: f9f4 723a 0b41 0e3c a1d6 903d dcf7 bd3d
000001e0: 2b49 e13c 06b1 bb3d d7fc 903d e49b 413d
000001f0: 9791 22bd 76a4 85bd ac44 5dbc 08e8 dc3c

gnn.gnn_node.batch_norms.0.running_mean f4 [128]
0.22757798 -0.07055013 -0.21563599 0.51541895 -0.29421687 0.044254784 0.54296964 0.6496825
0.9516394 -0.30722055 -0.38381535 0.0261118 -0.23579825 -0.45544717 0.5538986 0.21361475
0.6540109 -0.3493804 0.11735997 -0.17322154 0.055755083 -0.24387465 -0.1833594 -0.21628149
0.09659053 0.1564029 -0.13714434 -0.60490626 -0.2786846 -0.38056558 0.5424298 -0.28120425
0.26549566 -0.61976105 0.9111453 -0.23244976 0.2342399 -0.28246137 -0.5791158 0.49888864
-0.12311339 -0.21860948 0.3125098 0.230507 -0.13987684 0.06876646 -0.3062205 -0.5686086
0.073383965 -0.12469368 0.46833596 0.58018917 -0.35758027 -0.4813308 -0.24883121 -0.428913
0.0030696155 -0.1929988 -0.5784125 0.17489691 -0.48693985 0.4800484 0.6410321 0.11597943
-0.26777953 0.1395288 0.112151965 -0.44661245 -0.16613199 -0.15527529 -0.7023332 0.6405205
-0.24178387 0.51148945 -0.72879136 0.4943954 0.32798007 -0.24076752 0.38877228 -0.24713017
-0.73253196 -0.6324658 0.2066291 -0.10928991 0.13005628 0.36094362 0.57704973 -0.0756694
0.24668512 0.29448098 0.56423855 0.4156927 0.15782814 -0.25233752 0.58656657 0.07179093
-0.6213282 -0.24174584 0.8521269 0.36479968 -0.256459 -0.51442486 0.46335188 0.3407722
0.10294971 -0.21796712 0.104274385 0.3214138 -0.35784605 -0.21216397 -0.31695092 0.22788887
-0.33932096 0.05493958 -0.63941836 -0.19993521 -0.26051977 0.26130095 0.6515401 -0.572578
0.28680867 0.50776106 0.16469143 -0.1893245 -0.097449556 -0.25661817 0.66972244 -0.23749842
00000000: 340a 693e 967c 90bd aecf 5cbe 7ff2 033f
00000010: 98a3 96be 8144 353d 0f00 0b3f 9851 263f
00000020: a49e 733f 034c 9dbe 7283 c4be 6ae8 d53c
00000030: 1975 71be 5f30 e9be 4ccc 0d3f d3bd 5a3e
00000040: 426d 273f fde1 b2be 6d5a f03d fd60 31be
00000050: 715f 643d 47ba 79be 91c2 3bbe e578 5dbe
00000060: 41d1 c53d 1528 203e 916f 0cbe 23db 1abf
00000070: bfaf 8ebe 7ed9 c2be aedc 0a3f 01fa 8fbe
00000080: 0cef 873e a9a8 1ebf d240 693f 4f07 6ebe
00000090: 96dc 6f3e c79e 90be ef40 14bf 556e ff3e
000000a0: df22 fcbd 2adb 5fbe 4901 a03e 070a 6c3e
000000b0: e03b 0fbe 6ed5 8c3d efc8 9cbe 5590 11bf
000000c0: 554a 963d 665f ffbd bbc9 ef3e 4787 143f
000000d0: c314 b7be fe70 f6be 9ccd 7ebe 7c9a dbbe
000000e0: 9a2b 493b 7aa1 45be d712 14bf 2d18 333e
000000f0: 2e50 f9be e7c8 f53e ae1a 243f a086 ed3d
00000100: 661a 89be a3e0 0e3e eeaf e53d 63aa e4be
00000110: 811e 2abe 7c00 1fbe 1ccc 33bf 27f9 233f
00000120: 3196 77be f9f0 023f 1292 3abf 6521 fd3e
00000130: 01ed a73e c38b 76be 290d c73e b10f 7dbe
00000140: 3787 3bbf 47e9 21bf 9496 533e 63d3 dfbd
00000150: 792d 053e 9acd b83e 88b9 133f 8ff8 9abd
00000160: 069b 7c3e 36c6 963e f071 103f acd5 d43e
00000170: b39d 213e 6232 81be 3a29 163f 2007 933d
00000180: 5d0f 1fbf 398c 77be fd24 5a3f 06c7 ba3e
00000190: 984e 83be 59b1 03bf 753c ed3e b279 ae3e
000001a0: 4cd7 d23d c632 5fbe cf8d d53d 5990 a43e
000001b0: 9937 b7be 8341 59be 6447 a2be b35b 693e
000001c0: 7abb adbe 5308 613d ecb0 23bf d1bb 4cbe
000001d0: d962 85be 3dc9 853e 55cb 263f 7994 12bf
000001e0: 96d8 923e a1fc 013f dfa4 283e 48de 41be
000001f0: a293 c7bd 7563 83be ee72 2b3f c932 73be

gnn.gnn_node.batch_norms.0.running_var f4 [128]
8.610197 2.0441105 9.729267 26.273619 11.6181135 1.917022 22.070358 39.608433
78.38233 6.9172616 12.566809 3.4736698 3.8067997 24.995472 30.690916 6.9489374
29.668139 9.622734 1.4374776 3.2050138 3.2106287 3.7193873 7.607062 1.5090234
0.89989597 2.1479063 2.1821811 32.236248 5.0510864 15.671905 29.575802 7.327371
9.94579 32.76278 72.00698 8.053286 8.3897505 8.13974 27.631561 22.134214
1.457696 5.8078966 9.972255 5.414104 1.2279832 1.2531475 7.210472 25.720945
1.5859519 1.4159185 13.83204 35.573715 11.257278 19.174967 7.2747808 12.044667
0.18268985 2.1317325 29.624657 2.5549963 23.340046 19.262136 32.721928 5.4818997
3.9955819 2.4956396 4.808024 13.583007 2.181675 1.3458672 47.525208 30.783318
5.934874 24.242632 42.19297 22.590406 7.8906865 3.7193654 9.808751 4.127686
42.6563 30.29175 3.1016862 3.1790187 3.769615 13.579418 27.382992 1.7501266
5.5727334 6.6547365 24.865181 20.140722 2.6859522 5.1484027 22.106232 2.5120628
32.96586 3.7481215 60.086506 12.701594 5.6253552 19.33229 18.30288 9.226323
1.7333405 3.531674 2.3139617 8.088677 14.584999 4.328582 13.345839 9.929525
9.556048 1.8984265 29.666376 5.994151 6.324148 12.710485 37.58156 21.212221
9.563931 25.735296 2.943515 2.9183671 0.5900615 8.112176 34.887066 4.9796133
00000000: 5ec3 0941 b5d2 0240 14ab 1b41 5f30 d241
00000010: cbe3 3941 fa60 f53f 1890 b041 096f 1e42
00000020: c1c3 9c42 355a dd40 a611 4941 9b50 5e40
00000030: 9ba2 7340 baf6 c741 ff86 f541 b25d de40
00000040: 5958 ed41 b8f6 1941 44ff b73f f21e 4d40
00000050: f17a 4d40 710a 6e40 0d6d f340 ae27 c13f
00000060: 955f 663f 4c77 0940 dba8 0b40 ebf1 0042
00000070: 80a2 a140 1fc0 7a41 3e9b ec41 d379 ea40
00000080: f521 1f41 160d 0342 9303 9042 42da 0041
00000090: 6b3c 0641 603c 0241 700d dd41 df12 b141
000000a0: c895 ba3f 4ada b940 5b8e 1f41 5740 ad40
000000b0: 8e2e 9d3f 2367 a03f 30bc e640 7fc4 cd41
000000c0: 7900 cb3f d13c b53f 0950 5d41 7c4b 0e42
000000d0: d01d 3441 5566 9941 01cb e840 f5b6 4041
000000e0: 0c13 3b3e 4e6e 0840 4cff ec41 0f85 2340
000000f0: 6ab8 ba41 db18 9a41 41e3 0242 b96b af40
00000100: 9db7 7f40 8fb8 1f40 55db 9940 ff53 5941
00000110: 90a0 0b40 6045 ac3f d019 3e42 3c44 f641
00000120: 7dea bd40 e9f0 c141 9ac5 2842 27b9 b441
00000130: 8180 fc40 150a 6e40 a5f0 1c41 0116 8440
00000140: 0da0 2a42 8155 f241 0782 4640 0b75 4b40
00000150: 5f41 7140 4c45 5941 5e10 db41 2604 e03f
00000160: d553 b240 9af3 d440 e4eb c641 3320 a141
00000170: a4e6 2b40 b7bf a440 90d9 b041 a3c5 2040
00000180: 0add 0342 39e1 6f40 9558 7042 bb39 4b41
00000190: e902 b440 88a8 9a41 4c6c 9241 059f 1341
000001a0: 1ade dd3f f206 6240 f317 1440 396b 0141
000001b0: 285c 6941 be83 8a40 8e88 5541 56df 1e41
000001c0: 93e5 1841 a4ff f23f bd54 ed41 16d0 bf40
000001d0: 6c5f ca40 265e 4b41 8453 1642 a1b2 a941
000001e0: dd05 1941 e3e1 cd41 8d62 3c40 87c6 3a40
000001f0: 450e 173f 79cb 0141 5b8c 0b42 fe58 9f40

gnn.gnn_node.batch_norms.1.weight f4 [128]
0.9914792 0.9738008 0.8773451 0.62718886 0.95411426 0.8255535 0.98901474 1.0665103
0.9705764 0.99720097 1.0058041 0.9284858 0.85780424 0.9910397 0.9776141 0.93756264
0.89423895 0.9384429 0.8883267 0.9892747 0.87683046 0.86789066 0.91218543 0.9849719
0.9085459 0.989 0.9559237 0.8209422 0.97753584 1.0336753 1.0244673 0.97402865
1.0416853 0.68061745 0.8157632 1.0008533 0.8409309 0.91503054 0.92622024 0.9604048
0.9814783 0.97467446 0.8637766 0.8651466 1.0019716 0.86354756 0.8207549 0.87938684
0.9842679 0.9158899 0.8001386 0.9646544 0.94712293 0.95450085 0.98768485 1.0179719
0.9093759 0.8969299 0.73139787 0.9806169 0.79596764 0.86671346 0.8268935 0.8519589
0.952608 0.9820066 0.8154364 0.9897405 0.97630197 0.93722624 0.9552447 0.99275255
0.9071731 0.98783356 0.98748565 0.93577987 0.81839836 0.98499495 0.9649332 0.8108707
0.9876343 0.95063233 0.86790526 0.9721431 0.826876 0.84151185 0.70914847 0.9075719
0.93840504 0.9501021 0.978933 0.8913072 0.95451057 0.9524721 0.9137722 0.9580745
0.96838653 0.94621634 0.95223 0.981121 1.0010707 0.9026392 0.6698619 0.8492882
0.9378358 0.9194598 0.77632535 0.911968 1.0305123 0.8031884 0.81415695 0.96549803
0.9515515 0.999882 0.69835895 0.9117588 0.9800159 0.9215414 0.9739502 0.99312335
0.92220676 0.94930255 0.98866594 0.95372826 0.8103755 0.96173495 0.9780258 0.8737204
00000000: 95d1 7d3f 024b 793f b099 603f 738f 203f
00000010: d540 743f 7957 533f 1230 7d3f 6983 883f
00000020: b277 783f 9048 7f3f 30be 803f 3fb1 6d3f
00000030: 0f99 5b3f c7b4 7d3f eb44 7a3f 1b04 703f
00000040: d8ec 643f cb3d 703f 6169 633f 1b41 7d3f
00000050: f677 603f 152e 5e3f fc84 693f 1e27 7c3f
00000060: 7796 683f 1b2f 7d3f 6ab7 743f 4529 523f
00000070: ca3f 7a3f 794f 843f bf21 833f f159 793f
00000080: f255 853f f23c 2e3f dbd5 503f f61b 803f
00000090: 3f47 573f 713f 6a3f c51c 6d3f 17dd 753f
000000a0: 2942 7b3f 4484 793f 7720 5d3f 3f7a 5d3f
000000b0: 9b40 803f 7411 5d3f fe1c 523f 7f1f 613f
000000c0: fbf8 7b3f c377 6a3f e2d5 4c3f 97f3 763f
000000d0: a676 723f 2b5a 743f ead8 7c3f e74c 823f
000000e0: dccc 683f 339d 653f e43c 3b3f b609 7b3f
000000f0: 89c4 4b3f efe0 5d3f 4baf 533f fa19 5a3f
00000100: 1ede 733f c964 7b3f 71c0 503f a25f 7d3f
00000110: edee 793f 0fee 6f3f eb8a 743f 0825 7e3f
00000120: 7f3c 683f a9e2 7c3f dccb 7c3f 458f 6f3f
00000130: 8e82 513f a128 7c3f dd05 773f 3995 4f3f
00000140: 9ad5 7c3f a45c 733f 0a2f 5e3f 5fde 783f
00000150: 25ae 533f 526d 573f c18a 353f a256 683f
00000160: 503b 703f e439 733f 5a9b 7a3f b52c 643f
00000170: ce5a 743f 36d5 733f faec 693f 5f44 753f
00000180: 2ee8 773f 3c3b 723f 58c5 733f bf2a 7b3f
00000190: 1623 803f 5d13 673f 127c 2b3f f46a 593f
000001a0: 0216 703f b861 6b3f 42bd 463f bc76 693f
000001b0: d4e7 833f c19d 4d3f 976c 503f e12a 773f
000001c0: e198 733f 44f8 7f3f a7c7 323f 0669 693f
000001d0: 52e2 7a3f 23ea 6b3f cd54 793f 553d 7e3f
000001e0: be15 6c3f 7e05 733f 3619 7d3f 8927 743f
000001f0: c574 4f3f 4334 763f e65f 7a3f 24ac 5f3f

gnn.gnn_node.batch_norms.1.bias f4 [128]
-0.006947086 7.517995e-06 -0.033759702 -0.010506162 -0.00074835564 -0.0042060604 -0.00057707867 -0.041495748
-0.0023690395 -0.03317675 0.021882879 -0.026852679 -0.03629856 -0.010824695 0.0097347265 0.012317089
-0.014089433 -0.021097537 0.006693421 0.0032104733 -0.02996528 -0.011223844 -0.013499406 -0.022765433
0.00866345 0.002697115 0.017432837 -0.01399995 0.0043529826 -0.005541838 -0.021712024 0.003770222
-0.028654486 -0.03399183 -0.008637299 -0.0082744565 -0.07038712 0.012330703 -0.018817762 0.0015764122
-0.017719788 0.00447768 -0.023362296 -0.03237837 -0.011468826 -0.011578551 0.0010432237 -0.029857585
0.012750348 -0.021876965 -0.007200771 -0.01583876 0.0015016163 0.0011511815 0.019342942 -0.0094717555
-0.008997675 -0.0046663224 -0.029749703 -0.026845725 -0.016167592 -0.0078414325 -0.04247054 -0.028110832
-0.021002373 -0.017801793 0.005099698 0.006896426 0.0040780962 -0.004048641 -0.007306199 -0.004317203
-0.03321801 -0.010949463 0.0073355976 -0.0052180807 -0.022377586 -0.027049592 -0.03235617 -0.022745814
0.013702873 -0.034420054 -0.0009980142 0.018588677 0.004372439 -0.031181416 -0.025167387 -0.025910951
0.001064471 -0.02147584 0.019025145 -0.041927032 0.0024807395 0.011041912 -0.008123429 -0.078479566
-0.0017182848 -0.007841865 -0.015477754 -0.015652448 -0.04601425 -0.016971532 -0.019011488 -0.0054099327
-0.035022438 0.0036980305 -0.02198203 -0.013472039 0.0046598455 -0.071987316 -0.02723516 -0.0023574773
-0.018772544 0.012543891 -0.021235589 -0.006493751 -0.05319952 -0.010887574 -0.011911352 -0.014857809
-0.028938971 -0.02805065 -0.0056673656 0.00041438837 -0.018674202 0.007983083 -0.006715907 -0.013062859
00000000: 62a4 e3bb 1643 fc36 9d47 0abd 0a22 2cbc
00000010: 4c2d 44ba fed2 89bb 1847 17ba 72f7 29bd
00000020: e341 1bbb 58e4 07bd b943 b33c 26fa dbbc
00000030: cdad 14bd 105a 31bc 677e 1f3c 9ecd 493c
00000040: 5dd7 66bc bed4 acbc 7c54 db3b ce66 523b
00000050: bf79 f5bc 37e4 37bc 9d2c 5dbc 937e babc
00000060: 25f1 0d3c 15c2 303b 4fcf 8e3c 0c60 65bc
00000070: 77a3 8e3b 4e98 b5bb 6add b1bc d415 773b
00000080: d0bc eabc 043b 0bbd 7583 0dbc 9691 07bc
00000090: 1f27 90bd b806 4a3c b527 9abc 9e9f ce3a
000000a0: 1729 91bc 81b9 923b 4962 bfbc 2f9f 04bd
000000b0: bee7 3bbc f6b3 3dbc c7bc 883a e597 f4bc
000000c0: d6e6 503c 5237 b3bc 72f4 ebbb 4ac0 81bc
000000d0: e2d1 c43a 3ee3 963a 1775 9e3c 6c2f 1bbc
000000e0: fc6a 13bc f3e7 98bb a6b5 f3bc 91eb dbbc
000000f0: e671 84bc 5a79 00bc 97f5 2dbd b048 e6bc
00000100: 2b0d acbc 11d5 91bc 5e1b a73b 6afb e13b
00000110: 8da1 853b 76aa 84bb d768 efbb 5377 8dbb
00000120: 9c0f 08bd 6065 33bc 745f f03b 6ffc aabb
00000130: 3351 b7bc 1b97 ddbc e787 04bd 6e55 babc
00000140: 0482 603c 0bfc 0cbd cdcf 82ba 4847 983c
00000150: ad46 8f3b 2b70 ffbc d62b cebc 3443 d4bc
00000160: b885 8b3a 1aee afbc 9fda 9b3c aebb 2bbd
00000170: e793 223b 23e9 343c 2118 05bc e5b9 a0bd
00000180: 1238 e1ba 2a7b 00bc 6896 7dbc 9039 80bc
00000190: 7079 3cbd e207 8bbc fbbd 9bbc ce45 b1bb
000001a0: b073 0fbd a85a 723b a813 b4bc d4b9 5cbc
000001b0: 9eb1 983b 166e 93bd 451c dfbc e87f 1abb
000001c0: e1c8 99bc e484 4d3c 42f6 adbc 88c9 d4bb
000001d0: bde7 59bd cc61 32bc d527 43bc 2b6e 73bc
000001e0: 6c11 edbc 7aca e5bc 4fb5 b9bb 4442 d939
000001f0: a4fa 98bc 7acb 023c 1c11 dcbb 9a05 56bc

gnn.gnn_node.batch_norms.1.running_mean f4 [128]
-0.16643246 -0.12444087 0.3257798 0.2748195 -0.18447356 -0.22267894 -0.15541634 -0.2999238
-0.26699525 -0.35987613 -0.22694215 0.58615124 0.29825485 -0.16182575 -0.20709693 -0.1645951
0.5134699 -0.31668264 -0.15475059 -0.26220077 0.35700262 0.49008504 -0.0812358 -0.5619122
-0.18019831 -0.27193257 -0.46070603 -0.10871795 -0.12569751 -0.5220776 -0.41281292 -0.1759768
-0.63590074 0.26782072 0.39131942 -0.40843442 0.19581653 -0.14658259 -0.31062198 -0.1919316
-0.10588506 -0.31884804 0.4236488 0.20974182 -0.1024273 -0.20232257 -0.25579438 0.23389734
-0.21848977 0.40311453 -0.20407487 -0.105493054 -0.23415284 -0.39450365 -0.123288676 -0.5800168
-0.25960368 0.6580551 0.25188535 -0.1784267 0.24386841 -0.20510787 -0.1948308 0.4274256
0.61357325 0.39017263 -0.38639107 -0.16572726 -0.12696922 0.50912446 -0.21601301 -0.6039449
0.6026974 -0.14534912 -0.24377374 -0.25894704 0.2566405 -0.46238646 -0.40560985 0.27584195
-0.1487226 0.64811575 -0.29544783 -0.19148654 -0.14990927 0.30964127 0.31519672 0.16628984
-0.29382068 -0.18330556 -0.1478036 0.32587004 -0.27907628 -0.16239473 -0.1354315 0.42613974
-0.25724456 -0.46911594 0.48328602 -0.4819942 -0.3686262 0.58524996 0.30630898 -0.23893084
0.4538586 -0.24376394 -0.21473041 0.43121025 -0.20622092 0.2699598 -0.2083962 -0.08901706
-0.42318094 -0.118870035 0.21934545 0.6180648 -0.58188313 -0.23594765 -0.11777743 -0.08531094
0.2580695 0.47435012 -0.20069295 -0.14419289 -0.17974143 -0.28991985 -0.289086 -0.16662438
00000000: 456d 2abe dbda febd 9ccc a63e 24b5 8c3e
00000010: a3e6 3cbe f305 64be 7625 1fbe 9d8f 99be
00000020: 9ab3 88be af41 b8be 8663 68be 020e 163f
00000030: dcb4 983e a6b5 25be 3811 54be 9e8b 28be
00000040: c372 033f 3a24 a2be f076 1ebe 2e3f 86be
00000050: 0cc9 b63e 6dec fa3e f55e a6bd 7ad9 0fbf
00000060: e885 38be bf3a 8bbe a9e1 ebbe 84a7 debd
00000070: d9b6 00be e1a6 05bf 375c d3be 4333 34be
00000080: 64ca 22bf cc1f 893e 055b c83e 511e d1be
00000090: 2184 483e bf19 16be d809 9fbe b889 44be
000000a0: 44da d8bd 0d40 a3be 7fe8 d83e 8fc6 563e
000000b0: 67c5 d1bd a62d 4fbe 7bf7 82be c982 6f3e
000000c0: c8bb 5fbe 0765 ce3e 01f9 50be be0c d8bd
000000d0: c3c5 6fbe 62fc c9be c67e fcbd fb7b 14bf
000000e0: c6ea 84be 4d76 283f 1ef7 803e 7db5 36be
000000f0: a4b8 793e cc07 52be ba81 47be 87d7 da3e
00000100: 2313 1d3f b5c4 c73e 0dd5 c5be 68b4 29be
00000110: 3804 02be fb55 023f 8432 5dbe 229c 1abf
00000120: 604a 1a3f 66d6 14be d39f 79be b594 84be
00000130: 6266 833e ebbd ecbe 18ac cfbe 283b 8d3e
00000140: bd4a 18be eaea 253f f044 97be 0c15 44be
00000150: d181 19be 4d89 9e3e 7761 a13e e247 2a3e
00000160: aa6f 96be 74b4 3bbe d459 17be 70d8 a63e
00000170: 16e3 8ebe ce4a 26be 8eae 0abe fd2e da3e
00000180: 8fb5 83be f72f f0be 4471 f73e f2c7 f6be
00000190: 93bc bcbe f1d2 153f 88d4 9c3e 49aa 74be
000001a0: 2860 e83e 419d 79be 4ae2 5bbe 97c7 dc3e
000001b0: 942b 53be 2c38 8a3e d065 55be 944e b6bd
000001c0: 2cab d8be 2272 f3bd 189c 603e 7f39 1e3f
000001d0: 4bf6 14bf 439c 71be 4b35 f1bd 81b7 aebd
000001e0: af21 843e 05de f23e 7482 4dbe 4da7 13be
000001f0: 230e 38be 6070 94be 1503 94be 959f 2abe

gnn.gnn_node.batch_norms.1.running_var f4 [128]
3.8244612 3.1875594 12.582539 11.662527 9.22949 8.815281 3.9122822 9.13129
6.8253226 11.001156 8.005501 33.043293 7.396616 2.7303905 4.923859 2.2531266
29.444975 11.415168 4.8849077 7.9009886 12.479199 23.209427 1.7994188 30.09079
6.091514 7.893192 16.361584 3.5187488 1.7057382 30.656584 18.198576 4.186699
38.99205 9.39148 17.731762 19.17685 4.36948 4.221485 6.8322506 3.9589381
1.096941 9.601429 21.64678 6.1713643 2.5672462 5.623902 9.76385 8.371977
4.0940914 23.81336 6.6908984 1.506001 7.0540366 18.587027 2.2226562 34.856995
6.504953 40.50471 7.1689906 2.5309055 3.7088897 3.637842 7.915718 18.993683
34.8315 16.092 16.256897 3.4425027 1.5632724 31.312517 4.7991943 41.42631
50.05228 1.9394155 7.057581 6.4505973 9.79829 15.8678 13.875008 5.028597
2.2493956 40.22948 8.350399 3.1736014 2.1091297 9.788153 9.913703 9.939874
8.27338 6.6641903 2.4428086 11.267234 10.584334 2.5917194 5.3757963 23.974184
7.727778 22.588596 28.080547 30.011929 13.259705 32.435043 6.931956 6.348278
19.19002 5.6458583 5.900241 20.324354 5.3512516 5.5963497 4.36543 1.2601266
15.095902 2.1035542 2.6459904 35.70612 25.934555 5.736624 2.375942 1.0176395
15.611931 27.738152 3.781514 3.439038 4.810925 11.620789 8.39463 3.2240632
00000000: f9c3 7440 f900 4c40 1452 4941 b699 3a41
00000010: feab 1341 640b 0d41 d562 7a40 c419 1241
00000020: 0b69 da40 bc04 3041 8816 0041 552c 0442
00000030: 14b1 ec40 b8be 2e40 4190 9d40 3a33 1040
00000040: 4f8f eb41 87a4 3641 2a51 9c40 e6d4 fc40
00000050: cdaa 4741 e8ac b941 5b53 e63f f0b9 f041
00000060: afed c240 0795 fc40 86e4 8241 2e33 6140
00000070: a155 da3f af40 f541 af96 9141 70f9 8540
00000080: dcf7 1b42 8143 1641 a6da 8d41 306a 9941
00000090: c8d2 8b40 6816 8740 cca1 da40 3e5f 7d40
000000a0: 9068 8c3f 749f 1941 9b2c ad41 d17b c540
000000b0: c34d 2440 01f7 b340 bb38 1c41 9ef3 0541
000000c0: cc02 8340 c381 be41 d71b d640 a4c4 c03f
000000d0: abba e140 3bb2 9441 0040 0e40 906d 0b42
000000e0: 9328 d040 d304 2242 5f68 e540 5bfa 2140
000000f0: 735e 6d40 67d2 6840 904d fd40 10f3 9741
00000100: 7553 0b42 6abc 8041 200e 8241 f751 5c40
00000110: 4f19 c83f 0980 fa41 0093 9940 8bb4 2542
00000120: 8935 4842 c43e f83f b4d7 e140 4b6b ce40
00000130: ccc5 1c41 82e2 7d41 0800 5e41 44ea a040
00000140: 19f6 0f40 fdea 2042 3c9b 0541 491c 4b40
00000150: fbfb 0640 469c 1c41 879e 1e41 b909 1f41
00000160: c45f 0441 0c41 d540 fa56 1c40 9746 3441
00000170: 6f59 2941 bbde 2540 8606 ac40 21cb bf41
00000180: f549 f740 72b5 b441 f6a4 e041 6e18 f041
00000190: c027 5441 7cbd 0142 95d2 dd40 1825 cb40
000001a0: 2985 9941 dfaa b440 c6ce bc40 4798 a241
000001b0: 743d ab40 4c15 b340 9ab1 8b40 d44b a13f
000001c0: d188 7141 a2a0 0640 e857 2940 11d3 0e42
000001d0: f879 cf41 6c92 b740 6f0f 1840 0342 823f
000001e0: 78ca 7941 bce7 dd41 5304 7240 3319 5c40
000001f0: 19f3 9940 c0ee 3941 6850 0641 0d57 4e40

synth_conv1.conv1d.weight f4 [1, 1, 6]
-0.7286983 -0.77881104 0.60672075 -0.6054062 -0.3964011 0.1903173
00000000: f98b 3abf 2960 47bf 0d52 1b3f e7fb 1abf
00000010: 16f5 cabe 8ae2 423e

synth_conv2.conv1d.weight f4 [1, 1, 9]
-0.56718993 -0.5742788 0.05542 -0.5565347 -0.4243846 0.3051422 -0.59886247 -0.9631889
0.6418816
00000000: 5c33 11bf ef03 13bf 1500 633d 0f79 0ebf
00000010: f048 d9be 993b 9c3e 0d4f 19bf 8c93 76bf
00000020: 5a52 243f

synth_conv3.conv1d.weight f4 [1, 1, 12]
0.7066278 0.36303103 -0.7125122 0.77704537 0.6428545 -0.044119745 0.4248764 0.7476657
-0.11632369 0.40172088 0.74661565 -0.67071164
00000000: 8fe5 343f 34df b93e 3367 36bf 72ec 463f
00000010: 1d92 243f e8b6 34bd 6689 d93e 0567 3f3f
00000020: 1d3b eebd 5cae cd3e 3422 3f3f c2b3 2bbf
