GCN/results/gcn-epoch-1-val_loss-1.018.pt (torch, 309071 bytes, 23 tensors)

node_encoder.node_type_embedding.weight f4 [3, 3]
0	0x3f31c3ad	0.694392
1	0x3d0951c6	0.03352525
2	0xbf524a22	-0.8214437
3	0x3f1a2c12	0.60223496
4	0x3ee3f1df	0.4452047
5	0x3f04cc6a	0.5187441
6	0xbf1368d4	-0.5758183
7	0xbf49742a	-0.7869288
8	0xbf376a68	-0.7164674

synth_encoder.synth_emb.weight f4 [7, 3]
0	0xbed12196	-0.40845937
1	0xbe251b7c	-0.16123766
2	0x3f0dedfb	0.55441254
3	0xbecb2d7a	-0.39683133
4	0xbf1ebe92	-0.6200954
5	0x3c31d3d7	0.010853729
6	0xbf3ed0a4	-0.7453711
7	0x3f24058e	0.64070976
8	0x3e9a4062	0.30127245
9	0x3f0d0d4c	0.55098414
10	0xbdbb42da	-0.0914361
11	0x3f2e4e31	0.6808806
12	0x3f3bbb1a	0.7333237
13	0xbebd46e1	-0.3696814
14	0x3da3fa46	0.0800672
15	0xbead54b8	-0.33853698
16	0x3f37d4b9	0.71808964
17	0x3f2d7c14	0.67767453
18	0xbe781d27	-0.2422987
19	0xbf0666e8	-0.5250077
20	0x3dd7a91e	0.105303034

gnn.gnn_node.node_encoder.node_type_embedding.weight f4 [3, 3]
0	0x3f31c3ad	0.694392
1	0x3d0951c6	0.03352525
2	0xbf524a22	-0.8214437
3	0x3f1a2c12	0.60223496
4	0x3ee3f1df	0.4452047
5	0x3f04cc6a	0.5187441
6	0xbf1368d4	-0.5758183
7	0xbf49742a	-0.7869288
8	0xbf376a68	-0.7164674

gnn.gnn_node.convs.0.linear.weight f4 [128, 4]
0	0x3ec9d311	0.39418843
1	0x3e1f0cc6	0.15532216
2	0x3df35c39	0.118828245
3	0x3e907aa6	0.28218573
4	0xbdb12ffa	-0.08651729
5	0xbebf159c	-0.37321174
6	0xbf00426d	-0.5010136
7	0x3e98c513	0.29837856
8	0xbdecd4df	-0.115640394
9	0xbc6490e4	-0.01395056
10	0x3e89e46d	0.26932088
11	0xbed2e310	-0.4118886
12	0x3e0c2aaf	0.13688157
13	0x3ed2bbb2	0.41158825
14	0x3ef4ad6f	0.4778857
15	0x3e6333bc	0.22187704
16	0xbdf077d1	-0.11741603
17	0xbee56778	-0.44805503
18	0xbe9e4d8a	-0.30918533
19	0x3e6085a8	0.21925986
20	0x3ed4385d	0.41449252
21	0xbd30d6fa	-0.043173768
22	0x3ea50014	0.32226622
23	0xbe27d97a	-0.16391554
24	0xbeb3ec9e	-0.35141462
25	0xbe52d442	-0.20588782
26	0x3f00b759	0.50279766
27	0xbd24675b	-0.04013763
28	0xbe9e7a90	-0.30952883
29	0xbecd613f	-0.40113255
30	0x3df102e5	0.1176813
31	0x3eb70a51	0.35750058
32	0x3ebb52b9	0.3658655
33	0xbe14baea	-0.14524427
34	0xbdc58681	-0.09644795
35	0x3efccc9f	0.49374864
36	0x3ea9cb33	0.3316284
37	0x3dc53e45	0.096310176
38	0xbec3b3ea	-0.382232
39	0xbe193127	-0.14960156
40	0x3eacabd7	0.33724853
41	0xbefd0ba8	-0.49422956
42	0x3e1aab23	0.15104346
43	0x3ee3a28a	0.44459945
44	0x3da712ee	0.081579074
45	0xbdb1c4a3	-0.086800836
46	0x3e858eff	0.2608566
47	0xbe91d928	-0.2848599
48	0xbeddf623	-0.4335185
49	0x3d92b3b5	0.07163183
50	0x3e3e4fda	0.18585148
51	0x3e89f757	0.26946518
52	0x3cb925a7	0.022600962
53	0x3e9d87d4	0.3076769
54	0x3e9fc49a	0.31204683
55	0xbe294703	-0.16530995
56	0x3ebeffca	0.37304527
57	0x3dc39e09	0.09551627
58	0xbe965037	-0.29358074
59	0xbe9813dd	-0.29702654
60	0x3e9bc4c8	0.3042357
61	0x3e2bdc3b	0.1678323
62	0x3e815137	0.25257275
63	0xbe8ced54	-0.27524817
64	0x3ed1b704	0.40959942
65	0x3e42730c	0.189892
66	0xbef58fb7	-0.47961208
67	0xbc87ae14	-0.0165625
68	0xbb271e09	-0.002550008
69	0xbd9c9157	-0.07644909
70	0xbe7867d4	-0.24258357
71	0xbef3972c	-0.47576272
72	0x3c625484	0.013814095
73	0x3ea52e4d	0.32261887
74	0x3ef67538	0.48136306
75	0xbbfe5c4c	-0.0077624675
76	0x3ee42c17	0.44564888
77	0xbe9ae498	-0.30252528
78	0x3e8436ec	0.25823152
79	0x3c887b49	0.01666035
80	0x3cad1d09	0.02113201
81	0xbc2b6c14	-0.01046278
82	0xbe17dc4e	-0.14830133
83	0xbe9ea00f	-0.3098149
84	0xbea1ef67	-0.31627962
85	0xbeaa14be	-0.3321895
86	0xbec3de25	-0.3825542
87	0xbdc4de1c	-0.096126765
88	0x3e92ad7a	0.28647977
89	0xbee553d7	-0.44790527
90	0xbee4b0b1	-0.44666055
91	0xbba17fd9	-0.0049285707
92	0x3e99187b	0.2990149
93	0xbe80b9b9	-0.25141695
94	0xbefb6308	-0.49098992
95	0xbe9e666b	-0.30937514
96	0x3df892d9	0.12137384
97	0x3ee2501e	0.4420175
98	0xbef0c502	-0.47025305
99	0xbeaf62f9	-0.34255198
100	0xbe3623b8	-0.17787063
101	0x3ee8293e	0.45343965
102	0x3edc90dd	0.43079272
103	0xbe81c5a3	-0.25346097
104	0x3e1e3ff6	0.15454087
105	0x3eec872d	0.4619688
106	0x3ef749bb	0.4829844
107	0x3ee92bd2	0.45541245
108	0x3d8a04b0	0.06739175
109	0x3eef250e	0.46707958
110	0x3f00582a	0.5013453
111	0xbeb571a0	-0.35438251
112	0x3e392e75	0.18084128
113	0xbe7fe6ea	-0.2499043
114	0xbed4253e	-0.41434664
115	0xbe0edb5b	-0.13950865
116	0xbee78536	-0.4521882
117	0x3eca9194	0.39564192
118	0x3e820a4d	0.25398484
119	0xbec08821	-0.37603858
120	0x3df7a7fd	0.12092588
121	0xbce25a14	-0.027630843
122	0xbdee505d	-0.11636422
123	0x3e82f8a6	0.2558033
124	0xbe96bd0b	-0.29441103
125	0xbee598bf	-0.448431
126	0xbedaaf9a	-0.42712098
127	0x3ed0de39	0.40794542
128	0xbebdf3c3	-0.37100038
129	0xbee6c8d8	-0.45075107
130	0xbe852ff5	-0.2601315
131	0xbe9bdf43	-0.30443773
132	0xbc83a0f0	-0.016067952
133	0xbeec9edc	-0.4621495
134	0xbed48c99	-0.41513517
135	0x3e883153	0.2660013
136	0x3f00d5f8	0.5032649
137	0x3dcaf175	0.099093355
138	0xbe202e29	-0.15642609
139	0xbeae0ab0	-0.3399253
140	0xbeb3b813	-0.35101375
141	0xbcbe24cd	-0.023210907
142	0x3e031f0c	0.12804812
143	0xbeb382ba	-0.35060674
144	0x3e36e631	0.17861249
145	0xbeea6e5c	-0.45787323
146	0xbdfbf2b0	-0.12302148
147	0xbe895676	-0.26823777
148	0x3ed7b07d	0.42126837
149	0xbd5032cc	-0.050829694
150	0x3e2ab91b	0.16672175
151	0x3ef32de3	0.47495946
152	0xbeb7a7fa	-0.35870343
153	0xbeaeeaf5	-0.34163633
154	0x3d60a1a8	0.054841667
155	0xbec57f60	-0.38573742
156	0xbe2036a1	-0.1564584
157	0xbef503fb	-0.478546
158	0xbe6cd4bf	-0.23128031
159	0xbea517c8	-0.32244706
160	0xbeb48702	-0.35259253
161	0x3ea09329	0.31362274
162	0x3d0c03d0	0.034183323
163	0x3d8cfbf9	0.068839975
164	0xbe62321c	-0.22089428
165	0x3ef9ecbf	0.48813435
166	0xbe9dc079	-0.30810907
167	0x3ed84e8c	0.42247427
168	0x3d902fb5	0.070403494
169	0xbe5d002f	-0.21582101
170	0xbe8e1765	-0.27752224
171	0xbe5a84e6	-0.21339759
172	0xbecaa392	-0.3957792
173	0x3d467e19	0.0484601
174	0x3dd0ad16	0.101892635
175	0xbdfe7dd0	-0.124263406
176	0x3e92b001	0.28649905
177	0xbeb79f04	-0.35863507
178	0x3ea41caf	0.32053134
179	0xbe11aeda	-0.14226857
180	0xbe3da420	-0.1851964
181	0x3e187a07	0.148903
182	0xbebf820a	-0.374039
183	0x3e89949d	0.26871195
184	0xbe067ba1	-0.13133098
185	0xbeb1edba	-0.34751683
186	0x3e7d40d8	0.24731767
187	0xbbe9cbd2	-0.007134893
188	0x3e7b72fd	0.24555583
189	0x3e827c04	0.2548524
190	0x3d8de9fa	0.06929393
191	0xbe79c861	-0.24392845
192	0xbe65b418	-0.22431982
193	0xbedfac8e	-0.43686336
194	0x3ed0ef92	0.40807778
195	0xbd9769f0	-0.07393253
196	0xbeef2ae4	-0.4671241
197	0xbeaf2c93	-0.34213695
198	0x3d16f9a3	0.036859166
199	0xbe1cd96a	-0.15317312
200	0x3dc0ec95	0.094201244
201	0xbebbfbb9	-0.36715487
202	0x3ee4e157	0.4470317
203	0xbd8b236e	-0.06793867
204	0x3f02ecca	0.5114256
205	0xbd194e5e	-0.037428252
206	0x3ec4ed9b	0.3846253
207	0x3bcfb0b0	0.0063382015
208	0x3de151c1	0.110019214
209	0xbec1d29f	-0.37856004
210	0x3e1a0aa5	0.15043123
211	0x3ecc7123	0.39930066
212	0x3e868f92	0.2628141
213	0x3e855f94	0.26049483
214	0x3b544f52	0.0032395911
215	0x3eb0bebb	0.34520516
216	0x3c77af53	0.015117484
217	0xbddf08a1	-0.10890318
218	0x3eb5c1df	0.35499474
219	0xbec59fcc	-0.38598478
220	0xbe4854f3	-0.19563656
221	0x3eb0c20c	0.34523046
222	0x3e4de9c3	0.20108704
223	0x3e3c9ec9	0.18419947
224	0xbe70408b	-0.23462121
225	0xbe0e563b	-0.13900082
226	0xbec378dc	-0.38178146
227	0x3ddb554f	0.10709631
228	0xbd719ab6	-0.058985434
229	0x3ea818d1	0.32831433
230	0xbef6f51e	-0.48233885
231	0xbe330585	-0.17482574
232	0x3e994b16	0.299401
233	0x3dada162	0.08478047
234	0xbe8ef189	-0.27918652
235	0x3e521fcc	0.20519942
236	0x3ed819fe	0.4220733
237	0x3ef5353f	0.47892186
238	0xbe406cda	-0.18791524
239	0xbd2c6797	-0.04209098
240	0xbd215a70	-0.03939289
241	0x3e4747a0	0.19460917
242	0xbede8077	-0.43457386
243	0xbeb19f35	-0.34691778
244	0xbefa457e	-0.48881143
245	0xbeb479a7	-0.35249063
246	0x3e2128d0	0.15738225
247	0x3eb57947	0.3544409
248	0x3dbfd7d1	0.093673356
249	0xbeec9ae2	-0.46211916
250	0xbcbdd30b	-0.023171922
251	0x3e45fef1	0.19335534
252	0x3e0771fc	0.13227075
253	0xbea65e3d	-0.32493773
254	0x3e7cab0a	0.24674621
255	0xbb978180	-0.004623592

gnn.gnn_node.convs.0.linear.bias f4 [128]
0	0xbe499d0f	-0.1968882
1	0xbe82153b	-0.25406823
2	0xbd07ff4a	-0.033202447
3	0xbe969c37	-0.29416057
4	0x3e7be06a	0.24597326
5	0x3c918299	0.01776247
6	0xbe8742d5	-0.26418176
7	0xbedd564f	-0.4322991
8	0xbc6b6b2b	-0.014368813
9	0xbf00d4c0	-0.5032463
10	0xbe58da07	-0.21176921
11	0x3df07eed	0.11742959
12	0xbc8be101	-0.017075064
13	0x3ec992bc	0.39369762
14	0x3ec2a0c7	0.38013288
15	0x3ebce578	0.3689382
16	0x3df88b00	0.12135887
17	0xbd1f0bde	-0.038829677
18	0x3e8a7fcf	0.27050635
19	0x3e972453	0.295199
20	0xbf0023b4	-0.5005448
21	0xbed617c2	-0.41815
22	0x3da786c1	0.08179999
23	0x3d350289	0.04419187
24	0x3e5c03b7	0.21485792
25	0x3eed52e8	0.46352315
26	0xbc0e1d58	-0.008673988
27	0x3d39a9b7	0.04532787
28	0x3e269bec	0.16270417
29	0x3ee9f985	0.4569818
30	0xbf01dc59	-0.5072685
31	0x3e8cb447	0.2748129
32	0x3ee2c405	0.44290176
33	0x3ed9635c	0.42458618
34	0x3ee91323	0.45522413
35	0xbefb79b1	-0.4911628
36	0x3ef5a30e	0.47975963
37	0x3e3c6a4b	0.18399923
38	0x3e9da57a	0.3079031
39	0x3ed75693	0.42058238
40	0x3e29d4c3	0.16585068
41	0x3eea29f7	0.45735142
42	0xbdb80298	-0.0898487
43	0xbee2214e	-0.44166034
44	0x3eda3479	0.42618158
45	0xbec76608	-0.3894503
46	0xbe234d50	-0.15947461
47	0x3ecd0d63	0.40049276
48	0x3e9d1366	0.30678862
49	0x3dbe7d96	0.09301297
50	0xbc9c4642	-0.01907647
51	0x3e1524df	0.14564846
52	0xbe175617	-0.14778934
53	0xbe8b9a29	-0.27266052
54	0x3d72c8b7	0.059273448
55	0x3ef443e4	0.47708046
56	0x3e6ec44d	0.2331707
57	0xbe5b6cbf	-0.21428202
58	0xbe059ef2	-0.13048914
59	0xbda4886c	-0.08033833
60	0xbe2c496b	-0.16824882
61	0xbde3fe0e	-0.111324415
62	0xbe3457be	-0.17611596
63	0xbe57a278	-0.2105807
64	0x3df3ae95	0.11898533
65	0xbd64e59b	-0.05588303
66	0xbea5e2e7	-0.32399675
67	0xbd6afc3d	-0.05736946
68	0x3dbd1938	0.09233326
69	0xbd38639d	-0.045016874
70	0xbd81b24f	-0.06332838
71	0x3b9bfd5f	0.004760429
72	0x3db23b15	0.08702675
73	0x3d5d3b9f	0.054011937
74	0x3ddf760b	0.10911187
75	0x3ec3466f	0.38139674
76	0x3c546a62	0.012964817
77	0x3e207b7b	0.15672104
78	0x3edfc97e	0.43708414
79	0x3db2f23f	0.08737611
80	0xbee499d4	-0.44648612
81	0x3e7c58ad	0.24643202
82	0x3de30963	0.11085775
83	0x3e82f5d9	0.25578192
84	0xbeb30c5b	-0.34970364
85	0x3ec38414	0.38186705
86	0x3ec39d7d	0.38206092
87	0xbe17d8bb	-0.1482877
88	0xbd18ec02	-0.03733445
89	0x3d64ca1b	0.055856805
90	0xbe9b0a4a	-0.30281287
91	0xbe343410	-0.17597985
92	0x3e31019c	0.1728577
93	0x3d5b293d	0.053506125
94	0xbe93b4d2	-0.28848892
95	0x3dc30d3e	0.0952401
96	0xbe9f5cf7	-0.31125614
97	0xbeaa032b	-0.33205542
98	0x3e12fdf0	0.14354682
99	0xbeb44d0d	-0.35215035
100	0xbe7a4bf0	-0.2444303
101	0xbed8518b	-0.42249712
102	0x3ed9bca0	0.42526722
103	0xbf02d9a2	-0.5111333
104	0x3e6cd155	0.23126729
105	0xbe3322d9	-0.17493762
106	0x3eab71e2	0.33485323
107	0x3ec72403	0.38894662
108	0xbee5c792	-0.44878823
109	0xbe93a21f	-0.28834626
110	0xbe4d585d	-0.20053239
111	0xbea3f163	-0.320201
112	0xbe18834b	-0.14893834
113	0x3e242c75	0.16032584
114	0x3ec9be39	0.3940294
115	0xbdaddbbb	-0.08489176
116	0x3ee4bab5	0.44673696
117	0x3eabe2c9	0.3357146
118	0x3e1bf53c	0.15230268
119	0xbc314e4b	-0.010821889
120	0x3ed6b1c0	0.41932487
121	0x3e8fe143	0.2810155
122	0x3ecd9f06	0.40160388
123	0xbdfba129	-0.12286598
124	0xbedc9fe3	-0.43090734
125	0xbda16bc4	-0.07881883
126	0x3e52a4a1	0.20570613
127	0x3ebad7c4	0.3649274

gnn.gnn_node.convs.1.linear.weight f4 [128, 128]
0	0xbd8ff427	-0.0702899
1	0x3c8cb17b	0.017174473
2	0x3d3e803c	0.046509013
3	0xbcc661f1	-0.024216624
4	0xbc0b0bee	-0.008486731
5	0x3d53e83a	0.05173514
6	0x3d3e2e90	0.046431124
7	0x3d845cdd	0.06463025
8	0x3daf0f62	0.08547856
9	0x3d1e8eca	0.038710393
10	0x3da15e91	0.07879365
11	0x3d49d921	0.049279336
12	0x3d480ad4	0.04883845
13	0xbd8bddfa	-0.06829448
14	0xbc1a9ddf	-0.009437053
15	0xbdcfdb99	-0.10149307
16	0xbdbeb126	-0.09311132
17	0x3b02503a	0.0019884245
18	0xbdab3fd8	-0.083617866
19	0x3d1bbb93	0.03802068
20	0xbbe452de	-0.0069678864
21	0xbd6e7428	-0.058216244
22	0x3d5cc251	0.053896252
23	0xbd51b953	-0.05120213
24	0xbc38a384	-0.011269454
25	0xbcb77f60	-0.022399604
26	0xbd94926b	-0.072544895
27	0xbc2d39fb	-0.010572906
28	0xbdb3d1b7	-0.08780234
29	0x3c8fa24b	0.017533442
30	0xbd3e46f9	-0.046454404
31	0xbdd415b3	-0.10355701
32	0x3d378ec2	0.04481388
33	0xbcc28bc5	-0.023748288
34	0xbcc50075	-0.02404807
35	0xbd85b691	-0.065289624
36	0x3c1ce8b7	0.009576968
37	0x3dbf246f	0.09333121
38	0x3c279875	0.01022922
39	0xbdbcadf0	-0.092128634
40	0x3d5c55c2	0.053792723
41	0x3cec682a	0.028858263
42	0x3d824e53	0.063625954
43	0x3cdf360d	0.027247453
44	0xbdcc3b11	-0.099722035
45	0x3d9ac694	0.07557407
46	0xbcb77595	-0.022394935
47	0xbd0b5e54	-0.034025505
48	0xbd694191	-0.056947295
49	0x3b80983a	0.003924397
50	0x3d6faa14	0.05851181
51	0x3c86e96f	0.016468732
52	0x3afce8b4	0.0019295425
53	0x3d37f1f7	0.04490849
54	0xbdbb1b3f	-0.09136056
55	0x3d821e28	0.06353408
56	0x3c25adc8	0.010112233
57	0xbd922049	-0.07135064
58	0x3b718450	0.0036852546
59	0xbd9a5042	-0.07534839
60	0xbc57c6df	-0.013169973
61	0x3d83213a	0.06402822
62	0xbda8194d	-0.08207951
63	0xbc8bca5a	-0.017064262
64	0xbd1c2362	-0.03811968
65	0x3d85c1a4	0.06531075
66	0x3c2939b6	0.010328701
67	0xbda7447b	-0.081673585
68	0x3a9516cc	0.0011374592
69	0xbab0a45a	-0.0013476715
70	0x3c395ec6	0.0113141
71	0xbdb5953f	-0.08866357
72	0xbd9d7f0f	-0.0769025
73	0xbc320880	-0.010866284
74	0xbdd5f7a0	-0.10447621
75	0xbd1db281	-0.038500313
76	0x3d8c9e6a	0.068661526
77	0x3bc1c21b	0.0059130318
78	0xbcb6d0fe	-0.022316452
79	0x3c1eac38	0.009684615
80	0x3d2b5676	0.041830502
81	0xbdbc8e9d	-0.09206889
82	0x3ca808be	0.020511981
83	0xbd23bb70	-0.039973676
84	0x3d51704f	0.051132496
85	0xbd89cb54	-0.06728235
86	0xbd058f8c	-0.0326076
87	0x3d7bfe1d	0.06152164
88	0xbd684599	-0.056707
89	0xbd1cecc7	-0.038311746
90	0xbc551c92	-0.0130073
91	0x3c47862c	0.012177985
92	0xbdd58a1e	-0.104267344
93	0xbdad9508	-0.08475691
94	0xbd668391	-0.056277815
95	0xbda83759	-0.08213682
96	0x3d6a4227	0.057191994
97	0x3da32b72	0.07967271
98	0x3d81a091	0.06329454
99	0x3dac878c	0.08424291
100	0x3da9bd5c	0.082880706
101	0x3d2e7ee1	0.04260147
102	0x3c1d83e5	0.009613966
103	0x3d322aa1	0.043497685
104	0xbd699c0e	-0.05703359
105	0xbccaead1	-0.024770172
106	0xbd7fd08b	-0.06245474
107	0xbaf273a9	-0.0018497604
108	0xbda0f284	-0.07858756
109	0x3ccbce61	0.024878683
110	0xbc0e6058	-0.008689962
111	0xbdbbdf32	-0.091734305
112	0x3d02650c	0.031834647
113	0x3bf97d09	0.0076137823
114	0xbc8bde69	-0.017073827
115	0xbc89e797	-0.016834063
116	0x3c1e114a	0.009647677
117	0xbd709fcf	-0.058746155
118	0x3c9a25b0	0.018816799
119	0xbd2e473f	-0.042548414
120	0xbd36e447	-0.044651296
121	0xbdb14e2e	-0.0865749
122	0xbc9ca463	-0.019121354
123	0x3cfa4b6f	0.030553548
124	0x3d9ef778	0.07762045
125	0xbdcafb8f	-0.09911262
126	0x3d3bc9c9	0.045846734
127	0x3d61da37	0.055139747
128	0xbd3ebc4a	-0.046566285
129	0x3d2be0be	0.041962378
130	0xbdc0f6a7	-0.09422045
131	0xbc82a129	-0.015945988
132	0xbdd72574	-0.105051905
133	0xbd79ed26	-0.061017178
134	0x3d43a940	0.04776883
135	0xbc8ebf80	-0.017425299
136	0xbd487156	-0.04893621
137	0x3d1ed716	0.03877934
138	0x3d2a6ad8	0.0416058
139	0xbbc52900	-0.0060168505
140	0xbdd110f8	-0.10208315
141	0xbd802d05	-0.06258587
142	0x3d4aabff	0.049480435
143	0xbd05b8c4	-0.03264691
144	0xbdbe55bd	-0.09293697
145	0xbc9237b7	-0.017848833
146	0xbc4da233	-0.012550878
147	0x3cb2cdb1	0.021826597
148	0x3d9796ea	0.074018314
149	0xbb710fbd	-0.0036783062
150	0x3d7ea59b	0.062169652
151	0x3d926911	0.07148946
152	0x3c865902	0.016399864
153	0xbd8a30a5	-0.067475595
154	0xbda9da5f	-0.08293604
155	0xbdc4f09a	-0.096162036
156	0x3d85d968	0.065356076
157	0xbd2af88f	-0.04174095
158	0xbdb3a979	-0.08772559
159	0xbdc806aa	-0.09766896
160	0x3d2b24a4	0.04178299
161	0xbd9d372e	-0.0767654
162	0x3d5b61ea	0.053560175
163	0xbd4bb159	-0.04972968
164	0xbb24b1ab	-0.0025130312
165	0x3d059f54	0.03262265
166	0x3d3824cb	0.044956964
167	0xbb260d66	-0.0025337576
168	0xbd073b37	-0.033015456
169	0xbccb69d1	-0.02483073
170	0x3ce73d14	0.028227367
171	0x3c862451	0.016374739
172	0x3d8a21b0	0.06744707
173	0x3d7967f2	0.060890146
174	0xbc3e53a8	-0.011616625
175	0x3da3d0d9	0.07998819
176	0x3bc05776	0.005869801
177	0x3d147835	0.03624745
178	0xbdc69e42	-0.09698154
179	0xbd95de44	-0.073177844
180	0xb9b7f12d	-0.0003508417
181	0x3c66b95b	0.014082278
182	0xbdac8c7a	-0.08425231
183	0x3d36996c	0.04457991
184	0xbd6a1e26	-0.057157658
185	0x3bcfaaa5	0.006337481
186	0xbd89d25f	-0.06729578
187	0xbd923a33	-0.07140007
188	0xbd2671d1	-0.040635888
189	0xbb5c7443	-0.0033638633
190	0x3d1afdc7	0.037839677
191	0xba046ba8	-0.00050514424
192	0xbd30860b	-0.043096583
193	0xbdb78e0e	-0.08962642
194	0xbd3758d0	-0.044762433
195	0xbc0bd5f5	-0.008534898
196	0x3d61ccbc	0.05512689
197	0xbba88beb	-0.0051436326
198	0x3cb8fede	0.022582468
199	0xbdbe0f7d	-0.09280298
200	0xbdb06778	-0.08613485
201	0x3cb0e980	0.021595716
202	0xbd6524a2	-0.05594314
203	0xbda8faa7	-0.08250933
204	0xbcec6835	-0.028858284
205	0x3d0f50ee	0.03498929
206	0xbd4e6c56	-0.050396286
207	0xbc660725	-0.014039789
208	0x3d89d97d	0.06730936
209	0xbd6db987	-0.05803826
210	0xbd95e67c	-0.07319352
211	0xbdac0385	-0.08399109
212	0xbd66b2c1	-0.056322817
213	0xbd695ba3	-0.056972157
214	0xbd0b4c65	-0.034008402
215	0x3d43dff3	0.047820996
216	0xbd435f1b	-0.04769812
217	0x3cb4c22e	0.022065248
218	0x3d2345fd	0.039861668
219	0x3d0bf3bc	0.03416799
220	0xbd363e98	-0.044493288
221	0x3c9b3fcf	0.018951325
222	0x3b40a5a6	0.002939561
223	0x3c15c0fc	0.009140249
224	0xbc6e9e7a	-0.014564151
225	0x3c518058	0.012786947
226	0x3d14dd7a	0.03634403
227	0xbd2aeee2	-0.041731723
228	0x3b84e7ee	0.0040559685
229	0x3d369798	0.044578165
230	0xbc5864c0	-0.013207614
231	0x3ba3b217	0.004995595
232	0x3c01fb54	0.007933456
233	0xbc0bbd6d	-0.008529049
234	0x3d7de061	0.061981563
235	0xbba9ca6c	-0.0051816013
236	0xbc832ce1	-0.01601261
237	0x3d8ee914	0.0697805
238	0xbc95484c	-0.01822295
239	0xbd6bb0af	-0.057541545
240	0x3d742284	0.05960323
241	0x3d61ee12	0.055158682
242	0x3d625509	0.055256877
243	0x3b79eff4	0.0038137408
244	0x3d2fc6f4	0.042914346
245	0xbdb78a55	-0.089619316
246	0x3af34a3a	0.001856155
247	0xbc2ddfa7	-0.010612405
248	0x3cb2f8d6	0.02184717
249	0x3c861e04	0.016371734
250	0x3cd7817a	0.026306856
251	0x3d59eb50	0.053202927
252	0xbd6bb858	-0.05754885
253	0xbd8f4578	-0.06995672
254	0xbd59f989	-0.05321649
255	0x3c89aa7d	0.016804928

gnn.gnn_node.convs.1.linear.bias f4 [128]
0	0x3dad1f9a	0.08453293
1	0xbd183a85	-0.037165184
2	0xbd88a21b	-0.06671544
3	0x3d5d7701	0.05406857
4	0x3ca0e13b	0.019638648
5	0x3d07fd5a	0.0332006
6	0xbd6734ac	-0.056446716
7	0x3d556eda	0.05210767
8	0xbc907712	-0.017634902
9	0x3d983ff9	0.07434077
10	0x3c5b58f7	0.01338791
11	0x3bd38bb9	0.006455865
12	0xbd9b6858	-0.07588261
13	0xbda8e3fb	-0.08246609
14	0xbd25741f	-0.040393945
15	0x3d855b3e	0.06511544
16	0xbd95e05d	-0.073181845
17	0xbdafdedd	-0.0858743
18	0xbd824c8c	-0.063622564
19	0xbdc65a42	-0.09685184
20	0xbd30ce4f	-0.0431655
21	0x3d93b9a0	0.072131395
22	0xbd887a38	-0.066639364
23	0xbd8ca2ab	-0.06866964
24	0xbd7b1cb5	-0.061306674
25	0x3c08555e	0.008321134
26	0xbca5a93b	-0.020222297
27	0xbcc6028c	-0.024171136
28	0xbd28058f	-0.041020926
29	0xbd1cb0eb	-0.03825466
30	0x3d3cb334	0.04606934
31	0x3cb0c4ea	0.021578271
32	0xbba076e1	-0.004896984
33	0xbdb8ae58	-0.090176284
34	0x3d0cf066	0.03440895
35	0xba69808d	-0.00089074
36	0x3d5f7513	0.05455501
37	0xbda1f3cb	-0.07907828
38	0xbd31f102	-0.043442734
39	0xbd9cd698	-0.07658118
40	0x3c11b224	0.00889257
41	0x3d537b5d	0.05163132
42	0xbdaf859c	-0.08570406
43	0x3a73d117	0.0009300871
44	0x3d0d99c0	0.034570456
45	0xbd055b96	-0.032558046
46	0xbd87da49	-0.066334315
47	0x3c641136	0.013920119
48	0x3d9eb824	0.07749966
49	0xbd9b3362	-0.0757816
50	0x3d5a453c	0.053288683
51	0x3d98c587	0.0745955
52	0xbc23eda0	-0.010005385
53	0x3d5f44d6	0.054509006
54	0xbc2c43af	-0.010514184
55	0x3cd3fd85	0.025877723
56	0x3a9d58d3	0.0012004621
57	0xbd84657d	-0.0646467
58	0xbdad0526	-0.084482476
59	0xbc9fc1ee	-0.019501653
60	0xbd8cd7c4	-0.068770915
61	0x3d687f41	0.056761984
62	0xbdff1b50	-0.12456381
63	0x3dcfc34a	0.1014467
64	0xbda290b9	-0.0793776
65	0x3c579d5f	0.013160079
66	0xbd98a101	-0.07452584
67	0xbdbb61af	-0.09149491
68	0x3cc516d2	0.024058733
69	0xbda30743	-0.079603694
70	0x3d119122	0.0355388
71	0x3dbc9b47	0.09209304
72	0x3d5919cf	0.05300313
73	0xbd592bdb	-0.05302034
74	0xbda78137	-0.08178943
75	0xbd4871ee	-0.048936777
76	0x3b636af3	0.0034701198
77	0x3d18b294	0.03727968
78	0xbd8136de	-0.06309293
79	0x3dabff94	0.08398357
80	0xbcf2b3b6	-0.029626708
81	0x3ca1d1ef	0.019753424
82	0x3d7d7132	0.06187553
83	0xbca711e5	-0.020394275
84	0x3d129b42	0.035792597
85	0x3d903a2a	0.07042344
86	0xbc999d19	-0.018751668
87	0x39f16b51	0.0004604706
88	0x3bd88272	0.006607347
89	0xbd927f16	-0.07153146
90	0xbdbfaf1a	-0.0935957
91	0xbd5c8a95	-0.0538431
92	0x3b45d5d0	0.0030187257
93	0xbc970102	-0.018433098
94	0x3cb52434	0.02211199
95	0xbd6b6dc6	-0.057477735
96	0xbc1c1769	-0.009527066
97	0x3dcbb5da	0.09946795
98	0x3d33fd97	0.043943014
99	0x3dbfe190	0.093691945
100	0x3d3d41cb	0.046205323
101	0xbdd5cf68	-0.1043995
102	0x3cd63b04	0.026151188
103	0xbd290fee	-0.041274957
104	0x3c2262a3	0.009911212
105	0x3cd21a31	0.025647255
106	0xbd693448	-0.056934625
107	0x3dcc7e7f	0.09985065
108	0xbddda8ef	-0.10823237
109	0x3d61f122	0.055161603
110	0xbd7e301f	-0.06205761
111	0xbc1cd94b	-0.009573291
112	0xbd88669f	-0.066601984
113	0xbd559d40	-0.05215192
114	0x35d88c93	1.6134167e-06
115	0xbd0c7113	-0.034287523
116	0x3d21cf72	0.039504476
117	0xbd9f9793	-0.07792582
118	0x3d3d2287	0.046175506
119	0x3c00630b	0.007836114
120	0xbd5b6233	-0.053560447
121	0xbda53897	-0.08067434
122	0x3d181199	0.037126157
123	0x3ce18daa	0.027533371
124	0xbb8308e5	-0.003998863
125	0x3d5883bc	0.052860007
126	0x3d5a3afe	0.053278916
127	0x3c90c372	0.01767132

gnn.gnn_node.batch_norms.0.weight f4 [128]
0	0x3f812069	1.0088016
1	0x3f7fe2a1	0.99955183
2	0x3f7f9daf	0.9984998
3	0x3f801223	1.0005535
4	0x3f805a4a	1.0027554
5	0x3f811976	1.0085895
6	0x3f7e7bd0	0.9940767
7	0x3f7e7e23	0.9941122
8	0x3f814cbe	1.0101545
9	0x3f80b323	1.0054668
10	0x3f80a654	1.0050759
11	0x3f821775	1.0163409
12	0x3f8124cb	1.0089353
13	0x3f7d008e	0.9882897
14	0x3f7d9d62	0.9906827
15	0x3f8100c9	1.0078365
16	0x3f7687ba	0.9630085
17	0x3f801f96	1.0009639
18	0x3f81088f	1.0080737
19	0x3f7c889c	0.9864595
20	0x3f8094c2	1.0045397
21	0x3f801541	1.0006486
22	0x3f7f6bbf	0.9977378
23	0x3f7fb4ef	0.9988546
24	0x3f7e9853	0.9945118
25	0x3f81b304	1.0132756
26	0x3f7f382b	0.9969508
27	0x3f814eb7	1.0102147
28	0x3f7c73de	0.986143
29	0x3f7dd941	0.9915963
30	0x3f7f3c9c	0.9970186
31	0x3f804a0c	1.0022597
32	0x3f81fc5d	1.015514
33	0x3f7f9fef	0.99853414
34	0x3f7eeed8	0.99583197
35	0x3f7c74ab	0.9861552
36	0x3f804484	1.0020909
37	0x3f802c2a	1.0013478
38	0x3f80eb7c	1.0071864
39	0x3f8181b9	1.0117713
40	0x3f7e89b4	0.9942887
41	0x3f7ede09	0.9955755
42	0x3f7f6cfb	0.99775666
43	0x3f7f2b72	0.9967567
44	0x3f7e80ba	0.9941517
45	0x3f7c9786	0.98668706
46	0x3f7f0dcc	0.9963043
47	0x3f79b8f2	0.9754783
48	0x3f7d6c2d	0.9899319
49	0x3f800aad	1.0003258
50	0x3f800085	1.0000159
51	0x3f7b364f	0.98129743
52	0x3f7ece88	0.9953389
53	0x3f8100f8	1.0078421
54	0x3f804f7b	1.0024256
55	0x3f820fa3	1.0161022
56	0x3f8177c0	1.011467
57	0x3f7d1cc4	0.9887202
58	0x3f800052	1.0000098
59	0x3f7cf286	0.9880756
60	0x3f80a0db	1.0049089
61	0x3f7c7221	0.98611647
62	0x3f8078b3	1.0036834
63	0x3f7f3b98	0.9970031
64	0x3f80ef6b	1.0073065
65	0x3f809edc	1.004848
66	0x3f804fb8	1.0024328
67	0x3f7f146e	0.9964055
68	0x3f80cca8	1.0062456
69	0x3f820688	1.0158243
70	0x3f7c7fca	0.9863249
71	0x3f808a60	1.0042229
72	0x3f7bf2a1	0.984171
73	0x3f80b53f	1.0055312
74	0x3f804470	1.0020885
75	0x3f80368a	1.0016644
76	0x3f7dcd0f	0.9914102
77	0x3f808789	1.0041362
78	0x3f818540	1.011879
79	0x3f7d3080	0.9890213
80	0x3f81a04d	1.0127045
81	0x3f815df9	1.0106803
82	0x3f814860	1.0100212
83	0x3f7e70f4	0.993911
84	0x3f81f072	1.0151503
85	0x3f7ef309	0.9958959
86	0x3f7e9a1e	0.99453914
87	0x3f81398f	1.009569
88	0x3f7e2f46	0.99290884
89	0x3f804b01	1.0022889
90	0x3f801b8c	1.0008407
91	0x3f7dd761	0.9915677
92	0x3f7fa5b4	0.9986222
93	0x3f7f724f	0.99783796
94	0x3f7fad7f	0.9987411
95	0x3f7e22c6	0.9927181
96	0x3f800018	1.0000029
97	0x3f8016ce	1.000696
98	0x3f8057fb	1.002685
99	0x3f8019c3	1.0007862
100	0x3f7f3421	0.9968892
101	0x3f7e7b64	0.9940703
102	0x3f7f9351	0.9983416
103	0x3f816ce8	1.011136
104	0x3f80842d	1.0040337
105	0x3f81a4aa	1.0128376
106	0x3f8102de	1.0079
107	0x3f7fa454	0.9986012
108	0x3f7e01fd	0.99221784
109	0x3f7dd968	0.9915986
110	0x3f7bf4c8	0.9842038
111	0x3f7f483c	0.99719596
112	0x3f7e94db	0.99445885
113	0x3f7e869b	0.9942414
114	0x3f7ef55e	0.9959315
115	0x3f815170	1.0102978
116	0x3f7dcffe	0.99145496
117	0x3f7c0899	0.9845062
118	0x3f7fc26d	0.99906045
119	0x3f80bcce	1.0057619
120	0x3f811e3a	1.008735
121	0x3f80342d	1.0015923
122	0x3f7c7a84	0.98624444
123	0x3f7e5715	0.99351627
124	0x3f8218c7	1.0163811
125	0x3f7e08e2	0.99232304
126	0x3f80be13	1.0058006
127	0x3f7e5c70	0.993598

gnn.gnn_node.batch_norms.0.bias f4 [128]
0	0x3c04f273	0.008114445
1	0xbbe7d581	-0.007075012
2	0x3b4a8100	0.0030899644
3	0x3bb9e58b	0.0056731156
4	0xbc05b49e	-0.008160738
5	0x3c1d2294	0.009590764
6	0xbbf0abcb	-0.007344698
7	0xbbd6e943	-0.0065585687
8	0x3c011529	0.00787858
9	0x3ba508c1	0.005036444
10	0x3bca86f1	0.006180637
11	0x3c41bd12	0.011824863
12	0x3abb45e9	0.0014287803
13	0xbaa7709d	-0.001277465
14	0xbbec3f91	-0.007209726
15	0xbacc8721	-0.0015604236
16	0x3b7786a1	0.0037769454
17	0x3ad41a42	0.0016182142
18	0x3c14685b	0.009058083
19	0xbc318aea	-0.010836342
20	0x3ba8cc24	0.0051512886
21	0xb9d92f6f	-0.00041424806
22	0x3b3a1a44	0.0028397003
23	0xbbd25104	-0.006418349
24	0x3a2fd066	0.0006706774
25	0x3c12f419	0.00896933
26	0xbb334ab7	-0.0027357766
27	0x3bfe417a	0.0077592703
28	0xbbe6c403	-0.0070424094
29	0xbb6c3758	-0.003604373
30	0x3ac9d620	0.0015398897
31	0xbbd47ca0	-0.006484583
32	0x3ba0f900	0.0049124956
33	0x3be44f72	0.0069674784
34	0x3c3afe6b	0.011413197
35	0xbc573ed2	-0.013137536
36	0x3b2e37bb	0.002658351
37	0x3c6ce8a9	0.014459767
38	0x3c138ae1	0.009005279
39	0x3d29a7fc	0.041419968
40	0x3904c3c4	0.0001266143
41	0xbc2ed6de	-0.0106713455
42	0xbb6af58c	-0.0035851924
43	0xbb98b8c0	-0.004660696
44	0x3b802df2	0.003911727
45	0xbbe342b3	-0.0069354414
46	0x390b7b53	0.00013302015
47	0xbb16b5d7	-0.0022996569
48	0xbc801929	-0.015636997
49	0x3b60accd	0.0034282685
50	0x3a8c4689	0.0010702173
51	0xbc314aef	-0.010821088
52	0x3a1810eb	0.0005800861
53	0x3c3bfd87	0.01147402
54	0x3b924796	0.0044641
55	0xba639b0a	-0.00086824654
56	0x3ba61a9a	0.005069089
57	0xbc553c74	-0.013014901
58	0x3bd1e6a0	0.0064056665
59	0xbc2b3e76	-0.010451904
60	0x3bc5797d	0.0060264454
61	0xbabf5a92	-0.0014599136
62	0x3be42982	0.006962956
63	0xbb6f6637	-0.003652943
64	0x3c37e570	0.011224136
65	0x3b455000	0.0030107498
66	0x3bdb4e46	0.0066926805
67	0xba9b59da	-0.0011852339
68	0x3bacc989	0.0052730483
69	0x3c60fb95	0.013731857
70	0xbc80f0a5	-0.015739748
71	0xb91de95b	-0.00015059618
72	0xbc32613a	-0.010887438
73	0x3c994124	0.01870782
74	0x3c044082	0.0080720205
75	0xbb481b5f	-0.0030533893
76	0xb9ab750b	-0.00032702865
77	0x3c31b9db	0.010847534
78	0x3c5478ca	0.0129682515
79	0x3bc32257	0.0059550214
80	0x3c246638	0.0100341365
81	0x3cbc35f6	0.02297495
82	0x3b87d164	0.0041448344
83	0xbba649a5	-0.005074697
84	0x3c429538	0.011876397
85	0xbae8c58a	-0.0017759067
86	0x3afc6ac1	0.0019257889
87	0x3c41e1c2	0.01183361
88	0xbc07d5ce	-0.008290721
89	0xbb12d05a	-0.002240202
90	0x3b17599b	0.002309418
91	0xbc1fb41d	-0.009747532
92	0xbc92bce1	-0.01791233
93	0x3bfd1a63	0.007724093
94	0xba9074d7	-0.0011021149
95	0xbbcb1498	-0.0061975233
96	0x3b88b27a	0.0041716667
97	0xbb77210b	-0.0037708904
98	0x3b4bc8f8	0.0031095129
99	0x3a2a7b2c	0.00065033394
100	0x3b5f3e54	0.003406425
101	0xbbb2936e	-0.005449704
102	0x3b1bce04	0.0023773918
103	0x3c18ffa4	0.009338293
104	0xbc3b411e	-0.011429099
105	0x3c7e52c8	0.015522666
106	0x3ac41d3c	0.0014962326
107	0xba9d1a24	-0.001198594
108	0xbbc1b530	-0.005911492
109	0xbb5a21fc	-0.0033284416
110	0xbc16804d	-0.009185863
111	0xb9fc2830	-0.00048095128
112	0xbade3283	-0.001695231
113	0xbafac72d	-0.0019132845
114	0x3b9ff6cc	0.0048817154
115	0xbc3d8726	-0.011567866
116	0x3c35cd52	0.011096315
117	0xbc0d053d	-0.008607206
118	0xbb4cc045	-0.0031242531
119	0x3ba64fa5	0.0050754123
120	0x3be777cb	0.007063841
121	0xba6bbe97	-0.00089929387
122	0xbbc64f6b	-0.006051948
123	0xb9467d1d	-0.0001892936
124	0x3be339db	0.006934387
125	0xbb8f9efb	-0.0043829656
126	0x3b80a5c8	0.0039260127
127	0xbbb343b5	-0.005470718

gnn.gnn_node.batch_norms.0.running_mean f4 [128]
0	0xbe4d815f	-0.20068882
1	0x3efeea50	0.4978814
2	0xbedac123	-0.42725477
3	0xbf0ac676	-0.5420908
4	0x3f45a10f	0.7719888
5	0xbec4d6f9	-0.3844526
6	0xbe848b1e	-0.25887388
7	0x3e43b7bf	0.19113062
8	0x3ebbecaa	0.36703998
9	0xbeef73fb	-0.46768174
10	0x3e79830d	0.24366398
11	0xbe751aac	-0.23935956
12	0x3e551ff8	0.20812976
13	0xbe123f87	-0.14282046
14	0x3d10dccc	0.03536682
15	0xbe742d9d	-0.23845525
16	0x3dac95d4	0.08427015
17	0xbe705a66	-0.23471984
18	0xbe50dfb6	-0.20397839
19	0x3df003e7	0.11719494
20	0xbf0bfbc2	-0.54681027
21	0x3d8b3375	0.06796924
22	0x3ed1f7a8	0.4100926
23	0x3d89330b	0.06699189
24	0xbe062584	-0.13100249
25	0xbe649187	-0.2232114
26	0xbe386027	-0.18005429
27	0xbf3dae83	-0.7409441
28	0x3e9338b1	0.2875419
29	0xbdecd2e8	-0.11563665
30	0xbe232108	-0.15930569
31	0x3f86faa0	1.0545235
32	0x3f150632	0.5821258
33	0x3f782b57	0.9694113
34	0xbd55a502	-0.052159317
35	0xbf13e190	-0.57766056
36	0x3ec96f18	0.3934257
37	0x3e9df92b	0.30854163
38	0x3e504323	0.2033811
39	0x3ef62877	0.48077747
40	0x3df48d74	0.119410425
41	0x3f25ecfb	0.6481473
42	0xbc185427	-0.009297407
43	0xbec0522a	-0.37562686
44	0x3e150d2a	0.14555803
45	0x3d9ff5fc	0.0781059
46	0xbcefe412	-0.029283557
47	0xbe004790	-0.12527299
48	0x3e8b0521	0.2715235
49	0x3e865342	0.26235396
50	0xbe064978	-0.13113964
51	0xbe63a523	-0.22230963
52	0x3e8c6932	0.27424008
53	0xbe276435	-0.1634682
54	0xbebf860f	-0.37406966
55	0x3e9711a5	0.2950565
56	0x3f1824d2	0.59431183
57	0xbe53b313	-0.2067378
58	0x3d5a0af1	0.05323309
59	0xbec3ade0	-0.38218594
60	0xbe87f21f	-0.2655191
61	0x3ee56501	0.44803622
62	0x3e698ce6	0.22807655
63	0xbe280de8	-0.16411555
64	0xbdf2b840	-0.11851549
65	0xbea4bd6d	-0.3217577
66	0x3eddb7ec	0.43304384
67	0xbf0c700a	-0.5485846
68	0x3f2f92ab	0.6858317
69	0xbee36cdb	-0.44418988
70	0x3ee8f255	0.45497385
71	0x3e9af1ce	0.30262607
72	0x3deef44b	0.11667689
73	0x3ed6f79a	0.4198578
74	0x3ec9631d	0.3933343
75	0x3e94ffa9	0.29101303
76	0x3e851ffc	0.26000965
77	0xbdd3cbfa	-0.1034164
78	0xbe07e2ec	-0.13270158
79	0x3e92243c	0.2854327
80	0xbf0a8d8e	-0.54122245
81	0x3eaa87a6	0.33306617
82	0x3ede592c	0.43427408
83	0x3e2be7e6	0.16787681
84	0x3dc30337	0.095220976
85	0xbdbefcd0	-0.09325564
86	0xbe1aaf36	-0.151059
87	0xbe6d6ace	-0.23185274
88	0x3c09205c	0.0083695315
89	0x3e96c92d	0.2945036
90	0xbef70d7b	-0.48252472
91	0x3e08821a	0.1333088
92	0x3f1c9f7f	0.6118087
93	0x3e46325d	0.1935515
94	0xbec69441	-0.38784984
95	0xbd926554	-0.07148233
96	0xbf0887cf	-0.5333223
97	0xbf3e0cdc	-0.7423837
98	0x3cf8d081	0.03037286
99	0xbe4313e8	-0.19050562
100	0xbe801853	-0.25018558
101	0xbe8ee39f	-0.27908036
102	0x3eb747f8	0.35797095
103	0xbf0e23dd	-0.55523473
104	0x3de2c1f9	0.110721536
105	0x3e16b46d	0.14717264
106	0x3f051598	0.51986074
107	0x3f3205bf	0.6954002
108	0xbf16f83c	-0.58972526
109	0xbf1951f9	-0.59890705
110	0xbe0f0fc9	-0.13970865
111	0xbf43f351	-0.76543146
112	0xbeeef4e1	-0.46671203
113	0xbe279915	-0.1636699
114	0x3f0b6ae5	0.54459983
115	0x3eb4eb08	0.35335565
116	0x3f7d0010	0.9882822
117	0xbe4dffe4	-0.20117146
118	0xbe406311	-0.18787791
119	0xbe8d0490	-0.27542543
120	0x3cb3d1ed	0.021950686
121	0xbdfd68ef	-0.1237353
122	0x3f1df49e	0.6170138
123	0x3f20f5e4	0.628752
124	0xbec59a23	-0.3859416
125	0xbe8e3ddd	-0.27781573
126	0xbda98e9f	-0.08279156
127	0x3c482c42	0.012217583

gnn.gnn_node.batch_norms.0.running_var f4 [128]
0	0x41579b8d	13.475476
1	0x420ecd20	35.700317
2	0x4194dc78	18.60765
3	0x42612950	56.290344
4	0x42a80998	84.01874
5	0x41b40e9d	22.507135
6	0x40cbac26	6.364764
7	0x40d059d5	6.510966
8	0x413de0af	11.867354
9	0x41e1a2d8	28.204514
10	0x40c466a5	6.13753
11	0x40cf36b9	6.47543
12	0x40b63a27	5.6945987
13	0x4070e3b1	3.7638972
14	0x3fba095f	1.453411
15	0x41147780	9.279175
16	0x3eb2d6f3	0.34929618
17	0x40a32c45	5.099154
18	0x410b8b77	8.721549
19	0x3f52d688	0.823586
20	0x41fdafec	31.7109
21	0x40772242	3.861466
22	0x41cc086b	25.50411
23	0x4065ddff	3.5916746
24	0x403312b6	2.798017
25	0x40ed1e4a	7.4099474
26	0x418d3f45	17.655893
27	0x429722a9	75.567696
28	0x416d5702	14.833742
29	0x40075bdc	2.1149817
30	0x40c8e382	6.277772
31	0x43187f54	152.49738
32	0x428af588	69.47955
33	0x42fe4826	127.140915
34	0x3fe3e482	1.780411
35	0x41fdba98	31.71611
36	0x41e83ee3	29.030706
37	0x40db8223	6.859636
38	0x41829711	16.323763
39	0x4243900d	48.890675
40	0x3fe18e28	1.7621508
41	0x4231071b	44.25694
42	0x3f714966	0.9425262
43	0x415772af	13.465499
44	0x4052cf57	3.293905
45	0x3fad5374	1.3541093
46	0x3c07cda8	0.008288778
47	0x404d7959	3.2105315
48	0x415c05ab	13.751384
49	0x418defaa	17.742023
50	0x3ff54bb3	1.9163727
51	0x4134eea8	11.308266
52	0x4104b6d8	8.29464
53	0x4132352e	11.137983
54	0x416fc350	14.985184
55	0x40fe4cec	7.94689
56	0x424feb97	51.98007
57	0x4089d080	4.3067017
58	0x3f0620bc	0.523937
59	0x41d4fe2d	26.62411
60	0x40cf256a	6.473317
61	0x41eb4bd5	29.412027
62	0x40e73c85	7.2261376
63	0x405502d3	3.3282974
64	0x3fe3b262	1.7788813
65	0x4115690f	9.338149
66	0x41e58b40	28.692993
67	0x4224e8b8	41.227264
68	0x42677c30	57.871277
69	0x41c134fd	24.150873
70	0x41f12347	30.142225
71	0x415f4d8d	13.956433
72	0x3ff179b8	1.8865271
73	0x41a120de	20.141048
74	0x41c6a508	24.830582
75	0x41883e1b	17.030325
76	0x40f245c6	7.5710173
77	0x402a7c7a	2.6638474
78	0x40517113	3.2725265
79	0x410681be	8.406675
80	0x42331ce1	44.778202
81	0x415b6d9b	13.714259
82	0x4192da83	18.356695
83	0x414723b6	12.4462185
84	0x3ffdc2a5	1.9825026
85	0x40436683	3.0531318
86	0x40917da6	4.546588
87	0x409301d3	4.5939727
88	0x3dc3b1c1	0.09555388
89	0x411559f8	9.334465
90	0x41b3d44f	22.478666
91	0x409c8a4b	4.8918815
92	0x424a66da	50.60044
93	0x41813a0a	16.15334
94	0x41cbff32	25.499607
95	0x3f6d029e	0.9258212
96	0x42185f09	38.092808
97	0x427965a9	62.349277
98	0x3f570601	0.83993536
99	0x41083898	8.513817
100	0x4167f5b8	14.49749
101	0x40e026f2	7.004754
102	0x41f5d156	30.727215
103	0x421de394	39.472244
104	0x3f718082	0.9433671
105	0x400a162d	2.1576035
106	0x420514ef	33.270443
107	0x425f3d13	55.809643
108	0x422a9e21	42.654423
109	0x426cff72	59.24946
110	0x40d85339	6.760159
111	0x42851edd	66.56028
112	0x41f13980	30.153076
113	0x40d75d9c	6.730177
114	0x41f9617b	31.172598
115	0x4180d186	16.102306
116	0x42e2dd96	113.432785
117	0x40d76128	6.73061
118	0x411b4206	9.703619
119	0x411c61d4	9.773884
120	0x40663cc3	3.5974586
121	0x411f715d	9.965177
122	0x426b710c	58.860397
123	0x4276a870	61.66449
124	0x41d1924b	26.196432
125	0x413a1198	11.629295
126	0x3f933049	1.149911
127	0x404127bc	3.0180502

gnn.gnn_node.batch_norms.1.weight f4 [128]
0	0x3f7cef6b	0.9880282
1	0x3f7ff41f	0.99981874
2	0x3f77093a	0.96498454
3	0x3f7e03e9	0.99224716
4	0x3f772a45	0.96548873
5	0x3f793c36	0.973575
6	0x3f7db56e	0.99104965
7	0x3f7cd99b	0.9876954
8	0x3f7dd9f8	0.9916072
9	0x3f7c6889	0.9859701
10	0x3f7cfa79	0.9881969
11	0x3f77d8ba	0.96815073
12	0x3f80851c	1.0040622
13	0x3f7b54c2	0.98176205
14	0x3f7d1157	0.98854584
15	0x3f7aee9b	0.98020333
16	0x3f7e2fa5	0.9929145
17	0x3f7579fe	0.9588927
18	0x3f7cdae2	0.9877149
19	0x3f7da5b2	0.99080956
20	0x3f7efc28	0.9960351
21	0x3f79cc3e	0.97577274
22	0x3f7c8fd9	0.98656994
23	0x3f7e2746	0.99278677
24	0x3f7d3f7c	0.98924994
25	0x3f7ef486	0.99591863
26	0x3f7e45af	0.9932508
27	0x3f7e84e3	0.9942152
28	0x3f800da2	1.000416
29	0x3f7e5fdf	0.9936504
30	0x3f7ee7ae	0.99572265
31	0x3f804a41	1.002266
32	0x3f7ec37d	0.9951704
33	0x3f7e20fd	0.99269086
34	0x3f7e25a5	0.9927619
35	0x3f7e6518	0.99373007
36	0x3f7fa4c9	0.9986082
37	0x3f7d1374	0.9885781
38	0x3f760b73	0.9611122
39	0x3f7eb837	0.9949984
40	0x3f7cea80	0.9879532
41	0x3f7fc3e0	0.99908257
42	0x3f7e60eb	0.99366635
43	0x3f7a218c	0.9770744
44	0x3f7cdc21	0.9877339
45	0x3f7db567	0.99104923
46	0x3f7ddd74	0.99166036
47	0x3f7cfc86	0.9882282
48	0x3f7cd292	0.98758805
49	0x3f7c2b51	0.98503596
50	0x3f811e17	1.0087308
51	0x3f7a85c6	0.9786037
52	0x3f7e6ca8	0.99384546
53	0x3f7e2c90	0.99286747
54	0x3f7fa0f1	0.9985495
55	0x3f80fe4d	1.0077606
56	0x3f864d71	1.0492383
57	0x3f79543e	0.9739417
58	0x3f7cad71	0.9870215
59	0x3f7da0a4	0.99073243
60	0x3f7a8d82	0.97872174
61	0x3f809b81	1.0047456
62	0x3f7a5d2e	0.9779843
63	0x3f817776	1.0114582
64	0x3f7e65ef	0.9937429
65	0x3f82a524	1.0206647
66	0x3f7e6860	0.99378014
67	0x3f7d43c1	0.9893151
68	0x3f7dd746	0.99156606
69	0x3f7c868e	0.98642814
70	0x3f7d9b54	0.99065137
71	0x3f7e61aa	0.99367774
72	0x3f7cbaff	0.98722833
73	0x3f7ebb4a	0.9950453
74	0x3f7d863f	0.9903297
75	0x3f7ed4a7	0.9954323
76	0x3f7dd0c6	0.9914669
77	0x3f826036	1.0185611
78	0x3f7e9276	0.9944223
79	0x3f7f8e10	0.99826145
80	0x3f81d45e	1.0142934
81	0x3f7fb7c9	0.9988981
82	0x3f7f05a7	0.99618
83	0x3f810217	1.0078763
84	0x3f84ffc1	1.039055
85	0x3f7f21c2	0.99660885
86	0x3f7f25fe	0.99667346
87	0x3f7e424f	0.9931993
88	0x3f7ec3a6	0.99517286
89	0x3f7dc748	0.99132204
90	0x3f7ec967	0.99526066
91	0x3f7ed3ea	0.99542105
92	0x3f7edbf7	0.9955439
93	0x3f7f59a2	0.99746144
94	0x3f75fc46	0.96088064
95	0x3f7dd93e	0.9915961
96	0x3f7d9a0a	0.9906317
97	0x3f7ba36d	0.9829624
98	0x3f7b5471	0.9817572
99	0x3f8068c9	1.0031978
100	0x3f7cc5d0	0.9873934
101	0x3f80951c	1.0045505
102	0x3f7e0247	0.99222225
103	0x3f7f3ff7	0.9970698
104	0x3f7f6577	0.997642
105	0x3f7fb934	0.9989197
106	0x3f7f16f8	0.9964442
107	0x3f7d1a1a	0.9886795
108	0x3f765695	0.96225864
109	0x3f78f14e	0.972432
110	0x3f7dafdc	0.99096465
111	0x3f7c966a	0.98667014
112	0x3f7c56c8	0.9856992
113	0x3f7d5d0f	0.9897012
114	0x3f7d7b9d	0.99016744
115	0x3f7f069e	0.9961947
116	0x3f80df2b	1.0068105
117	0x3f7f32f0	0.996871
118	0x3f7c1df6	0.98483217
119	0x3f7d4f20	0.9894886
120	0x3f7c0c0b	0.98455876
121	0x3f7dd374	0.99150777
122	0x3f80619c	1.0029788
123	0x3f7d8a85	0.9903949
124	0x3f7bdcac	0.98383594
125	0x3f7d0059	0.98828655
126	0x3f7e15bc	0.99251914
127	0x3f79c3f9	0.97564656

gnn.gnn_node.batch_norms.1.bias f4 [128]
0	0x3ce71d5b	0.02821224
1	0xbca99faf	-0.020706026
2	0xbc15ae67	-0.009135819
3	0xbc49b19c	-0.012310412
4	0xbc407b0e	-0.0117480885
5	0x3c072f6d	0.008251053
6	0xbb1668d2	-0.0022950661
7	0x3c147d2d	0.009063047
8	0x3b27beba	0.002559586
9	0xbbd3b8f3	-0.0064612566
10	0xbc3fa547	-0.01169712
11	0xbcbe2182	-0.023209337
12	0x3b8d362d	0.004309437
13	0xbb0da162	-0.0021611084
14	0xbcbe9647	-0.023265017
15	0xbbff37b5	-0.007788623
16	0xbcbdd58c	-0.023173116
17	0xbc59b5d8	-0.013287984
18	0x3c0bb643	0.008527341
19	0x3a829876	0.000996365
20	0xbcc1a72e	-0.023639288
21	0x3d32f47d	0.043690193
22	0x3ca7da0f	0.02048972
23	0x3c122319	0.008919501
24	0xbcb90c29	-0.022588806
25	0xbc016bfe	-0.0078992825
26	0xbc4a9d2a	-0.012366572
27	0x3d6fd9fb	0.05855749
28	0xbc6ea409	-0.014565476
29	0x3c31e869	0.010858634
30	0xb9d8ba5b	-0.00041337576
31	0xbcea1c1c	-0.028577857
32	0xbc4016a7	-0.011724151
33	0xbc094760	-0.0083788335
34	0x3c0f4490	0.008744374
35	0x3c916738	0.017749414
36	0xbcc702d5	-0.024293343
37	0xbccf9ff9	-0.025344836
38	0xbc2a091d	-0.010378149
39	0xb70e0ab5	-8.4663525e-06
40	0x3bd2efa6	0.0064372597
41	0x3a11eb3a	0.00055663625
42	0x3ca891ef	0.020577399
43	0xbac43049	-0.0014968003
44	0x3c160726	0.009156978
45	0x3c2ccac1	0.010546387
46	0x3d035644	0.03206469
47	0xbc8ad4fd	-0.016947264
48	0xbbf4f271	-0.0074751903
49	0xbc409afa	-0.011755699
50	0x3cdd9c2d	0.02705201
51	0xbc93216f	-0.017960278
52	0x3b380b9e	0.0028083096
53	0x3d1839ea	0.037164606
54	0xbc5af736	-0.013364604
55	0xbbc83242	-0.006109507
56	0x3c0422fe	0.008064983
57	0xbaba05e9	-0.0014192435
58	0xbc9a069a	-0.018801976
59	0xbaa577fd	-0.001262426
60	0xbcda67aa	-0.026660759
61	0xbb50e772	-0.0031876233
62	0x3c36765d	0.011136618
63	0xbb69b220	-0.003565915
64	0x3c8ab8d9	0.016933845
65	0xbc0fa5d5	-0.008767565
66	0xbc9d7777	-0.019222004
67	0xbc699cc1	-0.014258564
68	0x3c956f79	0.01824163
69	0xbbd83ec3	-0.0065992787
70	0xbaea1ccb	-0.0017861364
71	0x3d5a68a9	0.053322468
72	0x3bc388a8	0.0059672184
73	0xba9fe618	-0.0012199311
74	0x3bfe8987	0.0077678594
75	0xbbd1b6b1	-0.0063999523
76	0x3c26d891	0.010183469
77	0x3d149320	0.03627312
78	0x3c6e0d4f	0.01452954
79	0x3c0ad1a7	0.008472837
80	0x3c3a933a	0.011387641
81	0xbab2ecc3	-0.0013650883
82	0xbc1cfd75	-0.009581913
83	0x3d082ef7	0.033247914
84	0x39ce10fb	0.00039304033
85	0xbc342a6d	-0.010996443
86	0xbc06ee57	-0.008235536
87	0xbc9b8af9	-0.018987166
88	0x3c08518b	0.008320223
89	0xbc081b42	-0.00830728
90	0x3b68848f	0.0035479402
91	0xbc850c24	-0.01624114
92	0xbbef6302	-0.007305504
93	0xb9b9474a	-0.00035339064
94	0x3c9669d6	0.018361013
95	0x3c64896e	0.013948781
96	0xbb47cfff	-0.0030488966
97	0x3bdb5287	0.0066931876
98	0x3caf609d	0.021408373
99	0x3c925df4	0.017867066
100	0xbc8a598c	-0.016888402
101	0x3c079aa7	0.008276618
102	0xbba450b5	-0.005014504
103	0xbb43819a	-0.0029831887
104	0xbbdbd7c1	-0.0067090695
105	0xbbf65e79	-0.0075185862
106	0xbbbe8164	-0.0058137644
107	0xbca28a9b	-0.019841483
108	0xb99ddba2	-0.00030109013
109	0xbc903950	-0.017605454
110	0xbb4cd3f4	-0.0031254264
111	0xbc01e59c	-0.007928278
112	0xbbbde21c	-0.0057947766
113	0x3c6ac69f	0.0143295815
114	0xbcb9a0e1	-0.02265972
115	0x3c98df89	0.018661277
116	0x3c92bad5	0.017911354
117	0x3b3da263	0.0028935901
118	0xbbacfba3	-0.005279021
119	0xbc6f94d5	-0.014622887
120	0xbced0774	-0.028934218
121	0xbca89831	-0.020580383
122	0x3c05299e	0.008127598
123	0x3b90467f	0.004402935
124	0xbc5e4137	-0.013565353
125	0x3ab36e9b	0.0013689579
126	0xbcff73c9	-0.03118314
127	0xbc2d4413	-0.010575312

gnn.gnn_node.batch_norms.1.running_mean f4 [128]
0	0x3d092a71	0.03348774
1	0xbd88deb6	-0.06683104
2	0xbdc4b683	-0.09605124
3	0xbbf2e2bf	-0.007412284
4	0x3cce9f7b	0.02522253
5	0x3da0307d	0.078217484
6	0xbd61a9ec	-0.05509369
7	0x3d445abe	0.0479381
8	0xbd0cc8df	-0.034371253
9	0x3db4951b	0.08817502
10	0x3d9d6be2	0.07686593
11	0xbd3fc695	-0.046820242
12	0xbe2537d3	-0.16134576
13	0xbe00b705	-0.12569816
14	0xbd6928d3	-0.0569237
15	0x3d8e2ac3	0.0694175
16	0xbd937937	-0.07200854
17	0xbe07cad1	-0.13260962
18	0xbdc2a2be	-0.09503697
19	0xbdc85c8b	-0.09783276
20	0xbd068810	-0.032844603
21	0x3ce4b776	0.027919512
22	0xbda3a651	-0.07990707
23	0xbd9cd723	-0.076582216
24	0xbd881350	-0.066443086
25	0xbd3f906b	-0.046768587
26	0xbd1fe757	-0.039038982
27	0xbbaa141c	-0.0051903855
28	0xbd84184a	-0.06449945
29	0xbd30c135	-0.043153007
30	0xbd5a66e4	-0.05332078
31	0xbc7923ad	-0.01520626
32	0xbd5b570e	-0.05354982
33	0xbdab6c0e	-0.08370219
34	0x3d92eb18	0.07173747
35	0xbd20b5c8	-0.03923586
36	0x3d36832d	0.044558693
37	0xbda91555	-0.08256022
38	0xbdf06242	-0.11737491
39	0xbdaa025d	-0.08301232
40	0xbceeb1a6	-0.029137444
41	0x3d7131e5	0.058885474
42	0xbdbdc66f	-0.09266364
43	0x3d012591	0.031529967
44	0x3c245e83	0.010032299
45	0xbd34b7d8	-0.04412064
46	0xbd919c8e	-0.071099386
47	0x3cc51d0b	0.0240617
48	0xbc2c2358	-0.0105064735
49	0xbdd8c9f3	-0.10585394
50	0x3d8817d0	0.06645167
51	0x3d8e6069	0.069519825
52	0xbd3d49ff	-0.046213146
53	0x3c27debf	0.010245978
54	0xbce98878	-0.028507456
55	0xbcfb69d7	-0.030690117
56	0x3d82ab4c	0.063803285
57	0xbdbd3a4b	-0.09239634
58	0xbdb84e6f	-0.08999335
59	0xbd1dd589	-0.03853372
60	0xbe01295b	-0.12613432
61	0xbca3e538	-0.020006761
62	0xbe440b62	-0.19144967
63	0x3de38586	0.11109452
64	0xbda2cd5a	-0.07949324
65	0x3d62a22e	0.055330448
66	0xbda845ac	-0.08216414
67	0xbdaeecdc	-0.08541271
68	0x3d294e83	0.04133464
69	0xbdb303b9	-0.087409444
70	0xbd0003a4	-0.031253472
71	0x3d12e7a1	0.03586543
72	0x3c839cee	0.01606604
73	0xbd8a3125	-0.06747655
74	0xbd83f21c	-0.06442663
75	0xbd93bcfc	-0.0721378
76	0x3c39a741	0.01133138
77	0x3ce4bb16	0.02792124
78	0xbd86e8a9	-0.06587345
79	0x3daf0cf0	0.085473895
80	0x3c7cf855	0.015440066
81	0x3d219572	0.039449163
82	0x3d9a5f62	0.07537724
83	0x3ca6386a	0.020290572
84	0x3d3b6eb9	0.04575989
85	0x3dad1522	0.084512964
86	0xbc9c19be	-0.019055244
87	0xbd507183	-0.050889503
88	0xbd586021	-0.05282605
89	0xbdd0cd92	-0.101954594
90	0xbdec6bfc	-0.11544034
91	0xbd4ba3fb	-0.04971693
92	0xbd04db2c	-0.03243558
93	0xbd74ad75	-0.059735734
94	0xbc18ede0	-0.009334058
95	0xbd74516f	-0.059647974
96	0xbd5e98a7	-0.0543448
97	0x3de4ad8b	0.11165913
98	0x3d21410f	0.039368685
99	0x3d817356	0.06320827
100	0x3d51ca89	0.051218543
101	0xbe0b86b8	-0.1362561
102	0xbd87e973	-0.06636324
103	0xbdb091bd	-0.08621547
104	0xbc92b8e1	-0.017910423
105	0x3d347058	0.04405245
106	0xbdb23c31	-0.08702887
107	0x3dc857b8	0.09782356
108	0xbe4b1700	-0.19832993
109	0x3dac492b	0.08412393
110	0xbdb8c06e	-0.09021078
111	0xbd2b3398	-0.04179725
112	0xbd5050d8	-0.05085835
113	0xbda681c0	-0.081302166
114	0x3d5fd12f	0.054642852
115	0xbd588879	-0.052864525
116	0x3d820ef4	0.06350508
117	0xbd90b7bd	-0.07066295
118	0x3db914ae	0.090371475
119	0xbd86be24	-0.06579235
120	0xbdc415b2	-0.095744506
121	0xbdb547b8	-0.0885157
122	0x3d34178b	0.043967765
123	0xbd016c4d	-0.031597424
124	0x3d597912	0.053093977
125	0x3d705907	0.058678653
126	0x3d533a75	0.05156942
127	0x3d96fb9c	0.073722094

gnn.gnn_node.batch_norms.1.running_var f4 [128]
0	0x3eaf5565	0.34244838
1	0x3ee07654	0.43840277
2	0x3fa5bbb1	1.2947904
3	0x3ea575fc	0.32316577
4	0x3e522c6c	0.20524758
5	0x3f79c986	0.97573125
6	0x3f327356	0.6970724
7	0x3f471f62	0.7778226
8	0x3eb2880d	0.34869424
9	0x3f04f72f	0.5193967
10	0x3f9be9ad	1.2180687
11	0x3f1cfcc9	0.6132322
12	0x40731178	3.7979412
13	0x4066bfbe	3.605453
14	0x3f5aae67	0.85422367
15	0x3f25da7f	0.64786524
16	0x3f77165d	0.965185
17	0x40204aea	2.5045724
18	0x3fc9624e	1.5733125
19	0x3f69c4dc	0.9131601
20	0x3e4fb89f	0.20285271
21	0x3f040551	0.5157061
22	0x3f2fabc9	0.686215
23	0x3f2e4196	0.68068826
24	0x3ef768c6	0.48322123
25	0x3f096e13	0.53683585
26	0x3e2d575b	0.16927855
27	0x3e5576be	0.20846078
28	0x3f06126a	0.5237185
29	0x3e4505f6	0.19240555
30	0x3f10ef78	0.566154
31	0x3e0ac17a	0.13550368
32	0x3f1c7c30	0.61126995
33	0x3f349e35	0.70553905
34	0x3f5eca35	0.87027293
35	0x3e2069c4	0.15665346
36	0x3eac647a	0.33670408
37	0x3f8dd1ec	1.1079688
38	0x4053dbdc	3.3102942
39	0x3f2c8af4	0.67399526
40	0x3e6e6305	0.2327996
41	0x3f1e56a0	0.6185093
42	0x3f875080	1.0571442
43	0x3e72539f	0.23664711
44	0x3e4a0a6b	0.19730537
45	0x3e542f25	0.20721109
46	0x3f254e62	0.6457273
47	0x3e2cf1dc	0.16889137
48	0x3e80da44	0.25166523
49	0x3fb5aa8d	1.4192673
50	0x3f8d5c5b	1.104381
51	0x3f33248b	0.69977635
52	0x3e5fa83e	0.21841523
53	0x3e0f5118	0.13995779
54	0x3ec67e60	0.3876829
55	0x3d8fc187	0.07019334
56	0x3f1b9ddf	0.6078777
57	0x401cc2e0	2.4493942
58	0x3f9bffab	1.2187399
59	0x3e7e988b	0.24862878
60	0x404c31ed	3.1905472
61	0x3e7f72f6	0.24946198
62	0x40af1f09	5.4725385
63	0x3fc2d57d	1.5221401
64	0x3f43f920	0.7655201
65	0x3e80f3fb	0.25186142
66	0x3fc076db	1.5036272
67	0x3f6935d1	0.9109774
68	0x3eb3f033	0.35144195
69	0x3f3ff372	0.74980843
70	0x3e98e0c1	0.29858974
71	0x3f1c5e6c	0.61081576
72	0x3e1e9b42	0.15488914
73	0x3f3d6fbd	0.73998624
74	0x3f05e1fb	0.52297944
75	0x3f0f3f37	0.55955833
76	0x3e1513fc	0.14558405
77	0x3e97caad	0.29646817
78	0x3f46d4ab	0.77668256
79	0x3fb645e5	1.424008
80	0x3e88b41e	0.26699919
81	0x3eed1e68	0.4631226
82	0x3f2d50dd	0.6770151
83	0x3e8e1e30	0.27757406
84	0x3e2df91a	0.16989556
85	0x3f34c997	0.706201
86	0x3e63868a	0.22219291
87	0x3eaee274	0.34157145
88	0x3e8e52dc	0.27797592
89	0x3ffc85a5	1.9728285
90	0x400bb764	2.1830683
91	0x3ed658d1	0.41864637
92	0x3e6534e4	0.22383457
93	0x3ed6b8c8	0.41937852
94	0x3d58362e	0.052786045
95	0x3ec55af1	0.38545945
96	0x3e99cee3	0.30040655
97	0x3fd6bd2a	1.6776478
98	0x3f1803b4	0.5938065
99	0x3f291f13	0.6606304
100	0x3eab1f64	0.33422387
101	0x4094d2da	4.6507387
102	0x3efa9a5d	0.48945895
103	0x3fe220e4	1.7666287
104	0x3e3f9f78	0.18713176
105	0x3ecd3a87	0.40083715
106	0x40050e5f	2.0790021
107	0x3f8277b8	1.0192785
108	0x40f3223f	7.5979304
109	0x3f91983b	1.1374582
110	0x3f8d3a70	1.1033459
111	0x3f12b5ae	0.5730847
112	0x3e7f9785	0.24960144
113	0x3f725fcd	0.9467743
114	0x3f01e45c	0.50739074
115	0x3e716fdf	0.23577832
116	0x3f25d0b0	0.64771557
117	0x3f52d110	0.82350254
118	0x3fa7e636	1.311713
119	0x3edc3a59	0.43013266
120	0x3faf02a0	1.3672676
121	0x3fae3c53	1.361216
122	0x3e9aa94e	0.30207294
123	0x3dffaeb5	0.124844946
124	0x3eeec1cd	0.46632233
125	0x3f032a87	0.51236767
126	0x3d54125d	0.051775325
127	0x3f693857	0.9110159

synth_conv1.conv1d.weight f4 [1, 1, 6]
0	0xbe41f591	-0.18941332
1	0x3e8020bb	0.2502497
2	0xbeb0d30f	-0.34536025
3	0xbe274da5	-0.16338213
4	0x3e1243a9	0.14283623
5	0x3ec210b8	0.3790338

synth_conv2.conv1d.weight f4 [1, 1, 9]
0	0xbea66144	-0.32496083
1	0x3dea2643	0.11433079
2	0xbe972990	-0.29523897
3	0xbe460f23	-0.19341712
4	0x3ea98c6b	0.33114943
5	0xbe23386b	-0.1593949
6	0xbcc8cd46	-0.024511945
7	0x3e8d9209	0.27650478
8	0x3e9d5de0	0.30735683

synth_conv3.conv1d.weight f4 [1, 1, 12]
0	0xbdea8877	-0.1145181
1	0x3de9f41a	0.11423512
2	0xbe8e5fcc	-0.27807462
3	0xbea78516	-0.32718724
4	0xbc98b815	-0.018642465
5	0xbdb8a950	-0.09016669
6	0xbe9373d1	-0.28799298
7	0x3c8b9e73	0.017043328
8	0xbdb0f630	-0.086407065
9	0x3d7a2653	0.061071705
10	0x3ddf8af7	0.10915177
11	0x3e42bc11	0.19017054
