GCN/results/gcn-epoch-1-val_loss-1.004.pt (torch, 309071 bytes, 23 tensors)

node_encoder.node_type_embedding.weight f4 [3, 3]
000000 63 06 48 3f dd 8e 72 3f 72 da 70 3e e0 03 48 bf
       0.78134745 0.9474924 0.2352083 -0.7813091
000010 d3 7a 26 bf 7c 53 57 3f ce e8 01 bf 18 24 16 bf
       -0.65031165 0.8411176 -0.50745857 -0.58648825
000020 db 28 4d 3f
       0.80140465

synth_encoder.synth_emb.weight f4 [7, 3]
000000 62 19 35 3f b4 1a 02 3f 0f 5f 9b 3e d9 75 32 3f
       0.70741856 0.50821996 0.3034596 0.6971107
000010 b4 9b 2d 3d b6 0b 1c be 94 e2 5d be da ba 21 bf
       0.04238482 -0.15238842 -0.21668464 -0.6317574
000020 8c 53 a7 bc b5 67 87 3e 7f 7d 3c bf 4a 3d d7 bd
       -0.02042558 0.2644631 -0.7362899 -0.10509737
000030 a3 b7 17 3f c2 53 e5 be de 2c 2e 3f 95 d3 08 3e
       0.5926458 -0.44790465 0.6803721 0.13361962
000040 17 3b 28 be c9 2d 0c bf 77 0c 31 bf 76 1f df be
       -0.16428791 -0.5475736 -0.69159645 -0.4357869
000050 f5 36 13 be
       -0.14376433

gnn.gnn_node.node_encoder.node_type_embedding.weight f4 [3, 3]
000000 63 06 48 3f dd 8e 72 3f 72 da 70 3e e0 03 48 bf
       0.78134745 0.9474924 0.2352083 -0.7813091
000010 d3 7a 26 bf 7c 53 57 3f ce e8 01 bf 18 24 16 bf
       -0.65031165 0.8411176 -0.50745857 -0.58648825
000020 db 28 4d 3f
       0.80140465

gnn.gnn_node.convs.0.linear.weight f4 [128, 4]
000000 42 0e 6f be c8 63 93 3e 93 dd cf be 53 1d 66 3e
       -0.23345283 0.28787065 -0.40598735 0.22472124
000010 64 ef 24 3e e2 1e 95 be 2a 92 af be af f5 7e bc
       0.16106945 -0.29125124 -0.34291202 -0.015561505
000020 0c 8a 9e 3e 63 1a b0 3d 2c 12 6c 3e 18 7a d3 bd
       0.30964696 0.08598783 0.23053807 -0.10326022
000030 67 db f4 be eb 95 6b 3d 44 64 5f b9 7b 4e 06 3e
       -0.4782364 0.05751602 -0.00021304289 0.13115875
000040 cc 77 1e be f0 61 63 be e7 89 a2 be fd 70 fc 3e
       -0.15475386 -0.22205329 -0.31745836 0.49304953
000050 2e 75 e2 be d1 55 be 3e d6 a5 80 3e 45 2b c4 3d
       -0.44230026 0.37174848 0.25126523 0.095785655
000060 50 3c ac 3e f3 14 92 bd fb 02 42 be fb ca bc be
       0.33639765 -0.07132902 -0.1894645 -0.36873612
000070 ef 21 85 be c9 b4 33 bb eb 97 1f be 9c 30 a7 3e
       -0.26002452 -0.0027420989 -0.15585296 0.32654274
000080 ca ae 98 3e 4f b9 9e 3e 8e 8f b6 be 2f 65 bd be
       0.29820853 0.31000754 -0.356564 -0.3699126
000090 ce 7e 9e be 1f 3a d6 3e 79 0a 6f 3e 21 b2 70 be
       -0.3095612 0.41841218 0.23343839 -0.23505451
0000a0 b6 35 fa 3e 07 e7 ed be 21 61 b7 3e d8 21 d3 be
       0.48869103 -0.46465322 0.3581629 -0.41236758
0000b0 74 07 f4 3e 39 35 22 3e 96 4e 8c bc 58 44 ac 3e
       0.47661936 0.15840615 -0.017127316 0.33645892
0000c0 a6 e1 b9 be a4 a9 21 3e d3 5a 6d bd 8a 96 ee 3e
       -0.3630497 0.15787369 -0.057947945 0.46599227
0000d0 62 35 8a 3c 00 ea 38 3c 0a ad ae be cd 05 83 be
       0.016871158 0.011286259 -0.34116393 -0.25590363
0000e0 20 21 e1 3e d3 6d 60 3d 08 24 61 be 85 8b 76 bd
       0.43970585 0.054792237 -0.21986401 -0.06019165
0000f0 51 09 4d bd 05 0f 79 be 48 96 c5 3e e6 c7 e3 3e
       -0.050057713 -0.24322136 0.38591218 0.44488448
000100 3d b0 cc 3e e3 c9 63 be 4c 5d 81 be 27 16 4c be
       0.3997821 -0.22244982 -0.25266492 -0.19930325
000110 f0 95 e7 be 58 ce 93 be 26 f0 01 3f 06 e1 b0 3e
       -0.4523158 -0.28868365 0.5075706 0.3454668
000120 00 67 ce 3e e4 0d e5 bd 23 01 e5 3d c5 fe 1d 3e
       0.40312958 -0.1118429 0.111818574 0.15429218
000130 36 b7 8c bd dc 34 b7 bd 2b 9b 0e be 1e 57 74 be
       -0.06870882 -0.08945629 -0.1392638 -0.23861358
000140 f4 99 be 3e af 74 ea 3e fe cc ae be 71 7b d7 be
       0.37226832 0.45792148 -0.34140772 -0.42086366
000150 e7 d7 a7 be 02 2d b3 3c c2 89 c6 be 18 81 dd be
       -0.32781908 0.021872047 -0.38776976 -0.43262553
000160 4a 76 8a be 85 c9 c4 be 89 18 82 3c 1c 69 a9 be
       -0.27043372 -0.38434997 0.01588084 -0.33088005
000170 15 48 2a be c1 72 9e 3e 9a 1e 91 be 8e f6 97 be
       -0.1662906 0.30946925 -0.2834366 -0.29680294
000180 c4 87 f4 3d 57 d2 44 be 4d 17 f2 3e c0 ea fb be
       0.11939958 -0.19220863 0.47283402 -0.49202538
000190 f1 a8 dc 3d 2c 81 e1 3e 52 b0 fa bc d7 8d 35 be
       0.107744105 0.44043863 -0.030601654 -0.17729889
0001a0 74 b7 89 3e bd df ef be 29 ad c0 3d d8 72 54 be
       0.26897776 -0.46850386 0.09408028 -0.20746934
0001b0 34 8b 49 bd ef 6f aa 3d bb 8d cb bd e6 0e cf 3e
       -0.04920502 0.08322131 -0.09939142 0.40441054
0001c0 f3 b0 52 bb 6d c5 6c be fc e2 e3 bc d9 e6 96 3c
       -0.0032148927 -0.23122187 -0.027818196 0.018420624
0001d0 42 b1 d2 3d 69 f9 b8 3e 4c 2b 55 3e 14 87 86 be
       0.102877155 0.36127785 0.20817298 -0.2627493
0001e0 f5 ff 58 be bd 49 c7 3d 67 5b a8 be 82 e1 99 3e
       -0.2119139 0.09730861 -0.32882234 0.3005486
0001f0 e8 bf 67 be e5 d9 e3 3e 76 e2 ef bd f2 8c c5 3e
       -0.226318 0.44502178 -0.11713116 0.38584095
000200 2b 4c f9 be 4c 17 f3 3e eb 2e b6 3e c6 f2 85 be
       -0.48690924 0.47478712 0.3558267 -0.26161784
000210 3a 7b 30 3e e3 e2 a6 bd cf 7e f3 3e bb 28 c2 3e
       0.17234507 -0.08148744 0.47557685 0.379217
000220 63 45 de be 6e e5 85 be e3 20 77 be f4 3d a4 3e
       -0.43412313 -0.26151603 -0.24133639 0.32078516
000230 60 f1 d4 3d bf ce 39 be 44 d0 c5 3e aa a7 a7 be
       0.10397601 -0.18145274 0.38635457 -0.32745105
000240 8a 1a 5f 3e 7f f1 76 3d 23 b2 86 bd b4 8c 81 3e
       0.21787468 0.060288902 -0.06576946 0.2530266
000250 aa 47 14 bd b8 b6 b5 3e 7c e1 5d be a1 38 e5 bd
       -0.036201157 0.35490966 -0.21668047 -0.11192442
000260 85 a7 0b bd 84 92 3c bd 34 34 85 3e 35 e5 c8 3e
       -0.034095306 -0.046038166 0.2601639 0.3923737
000270 27 de 8c be f6 f7 c6 3e 25 00 c9 3e b8 af e7 be
       -0.2751324 0.38861054 0.39257923 -0.4525125
000280 c9 dc f4 3d cd f5 2c 3e 67 a7 67 be 73 07 49 3e
       0.11956174 0.1689064 -0.22622453 0.19631748
000290 e5 e0 51 be 73 eb 74 be 7f 8c e6 3e ce 1b e9 3d
       -0.20495947 -0.23917942 0.45029065 0.113822564
0002a0 16 d7 e9 3e 22 b8 72 be b3 32 f9 bb 3e 65 e0 3e
       0.4567191 -0.23703054 -0.007604921 0.43827242
0002b0 e5 f9 9d 3e d9 30 ba 3e be 4e a3 3e c6 2f ba be
       0.30854717 0.36365393 0.31896013 -0.36364573
0002c0 63 00 37 3e 9e 7b c8 3e 68 e4 d0 bd 42 2b 90 bd
       0.17871241 0.39156812 -0.10199815 -0.07039501
0002d0 c2 b5 02 bd f4 a2 86 3e 9f 51 c9 be f3 a7 cd bd
       -0.03191162 0.26296198 -0.39320084 -0.100417994
0002e0 26 23 b6 bc a1 4c ba 3e 4c 0c 8f 3e 83 05 ae bd
       -0.022233557 0.36386588 0.2793907 -0.08497145
0002f0 7e 8e b7 3e 7b b5 7c be 02 d6 8b be af dc bf be
       0.358509 -0.24678604 -0.27311713 -0.37473056
000300 4d 27 ae 3c 10 29 88 3e 13 5b eb 3e 33 f3 93 be
       0.021258974 0.26593828 0.45967922 -0.28896484
000310 1e 6e 19 be f3 75 a6 3e 5f 92 0e bd a5 82 74 3e
       -0.14983413 0.32511863 -0.03480756 0.23877962
000320 d4 0e 22 bd b1 1e 5d be 79 cc 3a be 72 09 bc 3e
       -0.039564922 -0.21593739 -0.18242063 0.36725956
000330 4d 27 95 be 88 f5 8f be 75 92 08 3e 47 f1 4e be
       -0.29131547 -0.28117013 0.13337119 -0.20209228
000340 67 f8 88 3e 00 fe 45 bc d4 f8 fb 3e 68 81 a2 3e
       0.26752016 -0.012084484 0.49213278 0.31739354
000350 67 84 d4 3e 4f 2c 09 be fd a6 a6 bd bd d9 ac 3e
       0.41507265 -0.13395809 -0.08137319 0.3375987
000360 c8 fc ad be 45 0a 2d 3d cd b5 a2 3e e7 c7 2a 3e
       -0.3398192 0.042246122 0.31779328 0.16677819
000370 7c c6 9d be f0 1c 94 be f4 72 e5 be 8e af 5b bd
       -0.30815494 -0.28928328 -0.44814265 -0.05363422
000380 7f 89 3f 3e 43 0b e3 3d ef d1 de 3e d0 ee af 3d
       0.18704794 0.110861324 0.43519542 0.08590472
000390 13 b0 a5 3e 7d fe e8 3e 29 7d 99 3d 68 13 0c be
       0.32360896 0.4550666 0.074945755 -0.13679278
0003a0 df 89 92 3e 2f e8 99 be 3c 1d 8f 3d 01 d6 19 be
       0.28620812 -0.30059955 0.06987998 -0.15023042
0003b0 0b 35 ec 3d ac 1b b7 3e e3 20 9e 3e 14 4d bd 3e
       0.11533555 0.357633 0.30884466 0.36972868
0003c0 41 44 60 be 67 bf 8e be 7c 2f e2 3e b1 4c da be
       -0.21901037 -0.27880403 0.44176853 -0.42636636
0003d0 09 a8 71 3e 33 28 c3 bb 5f 25 4b 3e 1e 26 cf be
       0.23599257 -0.00595572 0.19838475 -0.4045877
0003e0 9b 05 42 bd 4d 8f 85 3e 9b 17 d4 be 5a a0 49 bd
       -0.047368627 0.26085892 -0.4142426 -0.04922519
0003f0 ff 03 fa 3e 55 03 47 be f7 a2 f5 3e 0f 78 ec 3e
       0.48831174 -0.19434865 0.47975895 0.46185347

gnn.gnn_node.convs.0.linear.bias f4 [128]
000000 c0 10 c6 3e 85 e3 79 be b9 20 52 be f8 81 a6 be
       0.38684654 -0.24403198 -0.20520295 -0.32521033
000010 0a 2a 13 be 8c 6a b1 3c 90 cb 72 3d 27 27 a1 be
       -0.14371505 0.02165725 0.059276164 -0.31475183
000020 f8 e8 34 3e 7a 74 f4 be 8c ee 11 be eb 06 5f be
       0.17666996 -0.47745115 -0.14251155 -0.21779983
000030 3f 89 51 be ad f9 de be 49 c2 c6 be 4d 84 01 3d
       -0.20462511 -0.43549863 -0.38820103 0.031620312
000040 13 2c 2a 3e 41 4e 3d be 9c fa 92 bd 1e ed ba 3e
       0.16618375 -0.18486883 -0.07176706 0.3650903
000050 86 54 aa 3e 50 29 92 3e d1 04 a4 3e 62 86 aa be
       0.3326761 0.28547144 0.32034925 -0.3330565
000060 f5 f8 d6 be 6d 82 66 3e bd 14 98 3c 87 14 11 3e
       -0.41986814 0.22510691 0.018564576 0.14167987
000070 ec 4b e9 be e6 77 05 be 96 81 d2 be 2a 14 0b be
       -0.45565736 -0.13034019 -0.4111449 -0.1358191
000080 59 58 97 3e ce f1 94 3e df 4f ff be e4 a0 ea 3e
       0.2955959 0.29090732 -0.49865624 0.45825875
000090 c5 94 b8 3d 86 f8 98 3e c3 4f cb 3e f8 0d 8e be
       0.090127505 0.29877108 0.3970929 -0.27745032
0000a0 db fa d5 be 0b 9a 9c be 3c 56 87 3d a9 20 b8 3e
       -0.4179295 -0.30586275 0.06608245 0.35962418
0000b0 78 82 d6 bd 91 df b0 be ea 6c cd be ed 0d 35 3e
       -0.10474104 -0.34545568 -0.40122157 0.17681094
0000c0 d6 17 80 3e 0a a9 d9 3e 46 b7 9c 3e cf fa 56 3e
       0.25018185 0.4251178 0.30608577 0.20994113
0000d0 18 ad 86 bd 1d b8 a8 bd 5c d6 c2 3e 41 3b de 3e
       -0.06575984 -0.08238242 0.38054168 0.43404582
0000e0 67 dd c9 3e 38 33 f8 bd 73 3b de be 34 ac 67 3e
       0.3942673 -0.12119144 -0.4340473 0.22624284
0000f0 f0 7c e1 3e dd 06 df be 25 7d df 3e 60 41 02 3d
       0.44040632 -0.43559924 0.43650165 0.031800628
000100 69 4f b6 be 87 60 46 3e 1e 67 6e be 9f 47 0e bb
       -0.3560746 0.1937276 -0.23281524 -0.002171017
000110 22 4c b2 3c 81 05 86 be ae 18 22 be d2 66 7b be
       0.021764819 -0.26176074 -0.15829727 -0.24550942
000120 94 0d 54 bd cd 6e 01 3f e2 2b a9 3e 62 92 e1 3b
       -0.05177076 0.50559694 0.33041292 0.0068839053
000130 c6 7a b4 be 72 a2 21 3e 37 7e fd 3e af 53 a5 3e
       -0.3524992 0.15784624 0.49510357 0.32290408
000140 94 f3 e7 3e 02 27 e6 3d 51 1b 92 be 73 10 d0 bd
       0.45303023 0.11237909 -0.28536466 -0.101593874
000150 ca 97 8f bc 5e d4 0a 3c d6 eb f6 be d9 e7 f6 3c
       -0.017528433 0.008473484 -0.48226804 0.03013985
000160 82 c9 d5 3e f2 57 c8 bd 02 7e 06 be 56 ba 96 3e
       0.417553 -0.09782399 -0.13134006 0.29439038
000170 e2 13 a1 be 58 91 32 3d e8 6f c6 3c 35 0f be 3e
       -0.31460482 0.04359564 0.024223283 0.37120977
000180 c6 de ba be 67 08 d8 bc 03 0e 09 3e 8a 2b 00 3f
       -0.36498088 -0.026371194 0.13384251 0.50066435
000190 db c3 7e 3e ae 09 0e be 1f 1b e8 3e d7 ca 48 be
       0.248794 -0.1387088 0.45333192 -0.19608627
0001a0 04 a3 de be 8d 79 3f be e2 b4 0a 3d 0b eb e2 be
       -0.43483746 -0.18698712 0.03386391 -0.4431995
0001b0 7a 54 37 bd fa ef 84 3e 17 1c c0 3e 6b 49 03 be
       -0.044758298 0.25964338 0.3752143 -0.12820975
0001c0 04 1b 9e be c3 8a cf 3d 1e ca fe be 52 88 a3 3e
       -0.30879986 0.101338886 -0.49763578 0.31939942
0001d0 f3 05 aa be 64 ef 95 be da 76 d5 be 59 c8 4c be
       -0.33207664 -0.29284203 -0.4169224 -0.19998302
0001e0 42 87 f5 3e e3 97 56 bd ae 8d 00 bf 40 2d 9c be
       0.47954756 -0.052390944 -0.50216186 -0.30503273
0001f0 2d e5 fe bd 47 9d 12 3d ec b2 89 ba cd 01 d8 3e
       -0.124460556 0.035794523 -0.0010505593 0.42188874

gnn.gnn_node.convs.1.linear.weight f4 [128, 128]
000000 cf 49 0e bd 32 dc 9e 3d 9e 8d 50 3d c6 20 7b bd
       -0.034738358 0.07756843 0.050916307 -0.061310552
000010 e4 4f ff 3c 85 7f 90 3d ad a6 f7 3c 68 44 0f bd
       0.031166025 0.070555724 0.030230844 -0.034977347
000020 0e d7 ad bc e9 87 3a 3c 39 3b d0 bc c2 f4 b5 3c
       -0.02122071 0.011384943 -0.025418865 0.022211436
000030 1f 6b 19 bd 55 4e 4c 3d cf fc a5 bb 6e d7 89 3d
       -0.037455674 0.04987939 -0.0050655375 0.06730543
000040 73 e2 ed bb 3d e7 dd bc 62 ff 8d 3d b2 ab 1a 3d
       -0.007259661 -0.027087802 0.06933476 0.037761398
000050 eb d6 e3 bc d8 f4 d6 bc cf 54 81 bd 46 f1 2f 3d
       -0.027812442 -0.026239797 -0.06315004 0.042954706
000060 3b f0 a6 bd b7 cf 72 3d 55 a8 a8 bd ba ad 33 bc
       -0.08151289 0.059280124 -0.08235232 -0.010966713
000070 68 27 ae 3c 85 1c 82 3b 79 d9 e6 3b a8 4e 98 bd
       0.021259025 0.003970685 0.0070449677 -0.074368775
000080 b4 e1 ae bc 04 d7 16 bd bf 13 2f 3d 52 cd bc 3c
       -0.021347858 -0.03682615 0.04274344 0.023047123
000090 44 9c a7 3d 69 82 72 bd 6b 0e 65 3d 48 9e 8d 3d
       0.08184102 -0.0592064 0.055921953 0.069149554
0000a0 14 f6 aa 3d 14 a6 52 bd 8a 02 14 3d 73 be 1f bd
       0.08347717 -0.051427916 0.036135234 -0.038999986
0000b0 b0 d6 5a 3d d3 78 65 bd 21 28 6d bc 2a d2 e6 3c
       0.0534274 -0.05602343 -0.0144748995 0.028176386
0000c0 7a bc 83 bd aa 18 8f 3d a0 76 8b 3c 4d ec 99 bd
       -0.064324334 0.06987126 0.017024338 -0.07515774
0000d0 c0 6c a0 bc 4d f9 6d 3d f4 33 80 bd 62 9c 6a 3c
       -0.019583106 0.05809908 -0.06259909 0.014319511
0000e0 4c 6c 41 bd ce f9 eb 3c 29 95 9e bd 91 47 a3 bc
       -0.04722242 0.02880564 -0.07743294 -0.019931586
0000f0 6c 41 a9 bc d0 b1 88 3c cd c6 6d bd 8c 82 2e 3d
       -0.020661078 0.01668635 -0.05805092 0.042604968
000100 ee 17 84 bc eb 97 c9 3c 67 87 cc 3c 79 3f 86 bd
       -0.016124692 0.024608573 0.024966909 -0.06555075
000110 f4 31 4f 3d 64 f6 9a 3d 3e d8 84 3d 89 d2 39 bd
       0.05058475 0.075665265 0.064865574 -0.045366798
000120 a3 66 9d 3d d5 a5 df 3c 52 19 84 3c bb 69 b7 3c
       0.07685592 0.027300755 0.016125355 0.022389283
000130 5c 48 4e 3d 59 7b 49 3c 64 b8 80 bd 1a 70 02 bd
       0.050361976 0.012297475 -0.0628517 -0.03184519
000140 42 af b0 bd 01 e1 b1 bd 0e e2 a1 bd 12 df 35 bd
       -0.08627178 -0.08685494 -0.07904445 -0.04440219
000150 c8 bf 31 bd 25 12 13 3d c7 1f 35 bd 6f 1e 8f bd
       -0.043395787 0.035905976 -0.04421976 -0.069882266
000160 a4 03 90 3d d0 20 98 3c fa ca 37 bd 8f e4 0a 3d
       0.070319444 0.018570334 -0.044871308 0.033909377
000170 4a bf a4 3c 26 83 7e 3d 9c 89 31 bd 9f 82 8a bc
       0.020110745 0.06213679 -0.043344125 -0.016907988
000180 eb a0 8c bd 63 44 5e bd cf e7 02 bb 3f c6 62 bd
       -0.0686663 -0.054264437 -0.0019974594 -0.055364843
000190 da 0d da bc 60 c8 8b bc d0 59 09 3c 67 41 5d 3d
       -0.026617933 -0.01706332 0.008383229 0.05401745
0001a0 b6 7b 33 bd 5b 3c b7 bd c8 36 48 bc 00 cc 96 bd
       -0.04381915 -0.08947059 -0.012220092 -0.07363129
0001b0 14 ad 25 bc ac cc f2 bc 1e 1e 8c bb dc b4 37 bd
       -0.010112066 -0.02963861 -0.004276051 -0.044850215
0001c0 36 ab 02 bc 04 13 4d 3c d1 ec 70 3d d7 4b 8f 3d
       -0.00797539 0.012516741 0.058819596 0.06996887
0001d0 29 63 1d bd 9e b6 13 3d 67 b3 91 3a da 32 83 3c
       -0.038424645 0.03606283 0.0011116088 0.016015459
0001e0 61 7e da 3c 1e 8a e4 3b 02 ce 6b bd 84 17 8f bd
       0.02667159 0.0069744727 -0.05756951 -0.06986907
0001f0 5f a9 b4 bd 1d aa 49 3d f4 69 57 3c d0 5b 8b bd
       -0.088213675 0.0492345 0.01314782 -0.06804621
000200 ce c2 33 3d 39 28 02 bd 37 29 29 bb 0b 4a 67 bd
       0.043886952 -0.03177664 -0.002581192 -0.056467097
000210 d0 b0 14 3d 8a b9 9c 3d dd be 05 3d 4d 80 5b 3d
       0.036301434 0.07652576 0.032652725 0.053589154
000220 d8 c1 08 bc a6 ce 5b 3c 3a 76 ae bd 7d 7c ab bd
       -0.008346997 0.013415968 -0.08518644 -0.08373354
000230 58 ab 15 3d d6 19 54 3d 0b 2a 19 bc 87 87 63 3c
       0.03654036 0.05178245 -0.009348403 0.013887293
000240 2f e7 6b 3c 98 3f a4 bc ff d1 91 bd 7b 22 81 3c
       0.01439838 -0.020049855 -0.07120132 0.015763512
000250 22 a1 5c 3d 34 8c 24 3d 0e 61 93 3d 1e ad f0 bc
       0.053864606 0.04017277 0.07196246 -0.029379424
000260 4d 0c bd bd 16 be 4a bc 62 73 85 bb 3f 19 b1 bd
       -0.09230862 -0.012374422 -0.0040725926 -0.086473934
000270 e9 89 cd 3c ea a0 59 3d 03 a8 3a bd f0 65 9a 3d
       0.025090175 0.053131975 -0.045570385 0.07538974
000280 6f 2d c4 3c 22 6c 33 bc 7c 61 61 3c de 18 bb bd
       0.023947446 -0.010951074 0.013756152 -0.091356024
000290 22 f7 c7 3c ec b7 a7 3d ad 68 f6 ba 3a b5 9f bd
       0.024409834 0.08189377 -0.0018799506 -0.07798238
0002a0 b7 04 06 bc ed 95 3b bb c5 bf 9d 3d 56 68 8b bc
       -0.008179835 -0.0028623298 0.07702593 -0.017017525
0002b0 0b bd 91 3d 02 da 12 bd 62 f1 89 bd e5 18 d9 bc
       0.07116135 -0.03585244 -0.06735493 -0.026501128
0002c0 85 48 05 bd e3 77 f3 ba 6c e1 ba bd 35 03 3d 3d
       -0.032539863 -0.0018575158 -0.09125027 0.046145637
0002d0 67 34 62 3d 62 62 bc bd dc e7 66 3d b5 8d 58 3d
       0.055225756 -0.091984525 0.056373462 0.052869517
0002e0 02 21 5b bd f6 0d 60 bd f9 f7 a6 3d be 59 93 3c
       -0.053498276 -0.054700814 0.08152766 0.017987128
0002f0 37 a8 b6 bc cd dc 06 bb 42 bb 08 3d 3d d3 90 3d
       -0.022297008 -0.0020578385 0.033381708 0.070715405
000300 d0 49 78 3c f7 76 5c 3a a2 88 a4 3d 79 cd a9 3a
       0.015154317 0.0008410061 0.08033873 0.0012954912
000310 fd d9 46 3d ab 83 06 bd 63 90 20 bc 1b d7 8f bb
       0.048547734 -0.032840412 -0.0098000495 -0.0043896562
000320 c1 3d 10 bd dc 18 29 bd 66 b5 1d 3d be 13 8c bd
       -0.035215143 -0.041283473 0.038503073 -0.06839703
000330 d3 ca 5c 3d ee 96 7b bd ad 13 3c bd a8 38 b3 bd
       0.053904366 -0.061423235 -0.0459172 -0.08751041
000340 d5 57 12 bc 8f 8b 84 bd 65 85 50 3a 3c 33 25 bd
       -0.008932074 -0.06471931 0.00079544476 -0.040332064
000350 38 ae 53 3d 25 82 bd bc 7b a5 6a bc 3c 50 96 bc
       0.05167982 -0.023133347 -0.01432168 -0.018348806
000360 07 ea a6 3d e0 84 68 bc 10 75 90 bd 81 42 1e bc
       0.08150106 -0.014191836 -0.07053578 -0.00965941
000370 04 c4 cb bb 4e 3e d1 bc c7 8f e6 bc cf d4 b2 bd
       -0.0062184352 -0.025542405 -0.02814473 -0.08731996
000380 c5 14 2b 3c af f1 96 bc df 54 03 bd f1 4a 54 3b
       0.010441964 -0.01842579 -0.03206336 0.0032393301
000390 05 e6 27 bb 6a 08 88 bd 84 a4 9f bd 42 26 0f bd
       -0.002561928 -0.0664223 -0.07795051 -0.034948595
0003a0 8f 85 08 3d 0a 1e 35 3d 40 90 56 3d 5c ea f1 3c
       0.033330496 0.0442181 0.05238366 0.029530697
0003b0 6c 9d a7 bd 65 4c f1 bb 07 71 92 bc 93 10 2f bd
       -0.08184323 -0.0073638433 -0.017876161 -0.042740416
0003c0 db 5b 55 bd a4 eb f4 bc 35 70 78 bd d3 ee 9d 3d
       -0.052089553 -0.029897518 -0.060653884 0.07711568
0003d0 0e 69 d0 3c 1e 8e 55 bd c8 3d f8 3c a5 69 85 bd
       0.025440719 -0.052137487 0.030302897 -0.06514291
0003e0 96 60 bd bd ab 11 d5 3c bd 2f 88 bd 34 42 63 bb
       -0.09246938 0.026009401 -0.0664973 -0.0034676911
0003f0 8f 7f a9 3d aa dc 99 3d 36 5f e2 3c 43 07 70 bd
       0.08276283 0.075127915 0.02763329 -0.058600675

gnn.gnn_node.convs.1.linear.bias f4 [128]
000000 51 45 37 bd f0 a2 b1 bd 65 a3 44 bd 18 99 a8 bd
       -0.04474384 -0.08673656 -0.048007388 -0.08232325
000010 cb 23 0e 3d a6 39 85 3b f8 25 87 bd 49 92 a9 3c
       0.034702104 0.00406571 -0.06599039 0.020699637
000020 3e 7a 16 bd 29 88 31 bd 63 21 82 3d 10 40 a5 39
       -0.036737673 -0.043342743 0.06354024 0.00031518983
000030 f4 93 9e 3d 40 a2 ac 3d 60 24 14 bd d5 b6 e9 3c
       0.077430636 0.08429384 -0.036167502 0.028529564
000040 6f 6a e1 3c a5 7f 15 bd 09 6d cd bc 4c ee ca 3b
       0.027516572 -0.036498684 -0.025076406 0.006192958
000050 b9 1f 9d 3d fd 59 53 bc 40 e4 a9 bd 25 78 ad 3d
       0.07672066 -0.012899873 -0.08295488 0.084701814
000060 5b 14 82 bd f4 18 1c 3c 05 81 d1 3c 31 a7 39 3d
       -0.06351539 0.009527434 0.025574217 0.04532546
000070 f3 73 4f 3d 65 69 c0 3c e1 ed 87 bd 22 1b 45 3d
       0.050647687 0.023487756 -0.06637169 0.04812158
000080 0a 54 94 3c 64 da c4 3d 6f ac 51 bd e7 82 43 bd
       0.01810648 0.09611967 -0.051189836 -0.04773226
000090 3f 7d 6e bc 6e ea 02 3c 7f 19 b9 bc e7 75 75 bd
       -0.014556228 0.007990463 -0.022595165 -0.059926894
0000a0 be 7d 40 3c b1 f8 91 3d 75 04 4c 3d 47 93 9a bd
       0.011748729 0.07127512 0.049808938 -0.07547622
0000b0 b9 ab 55 3d 45 35 c5 3c 6c 07 1f bb ef e9 be bc
       0.05216572 0.024073252 -0.0024265898 -0.023304908
0000c0 b6 85 88 bd fb c8 bc 3b 1d 22 96 39 2d 89 d5 3c
       -0.06666128 0.0057612634 0.00028635646 0.026066387
0000d0 07 f7 9c bd 21 c5 a1 3c 00 6f 77 3d 8f b7 b5 b9
       -0.07664304 0.019747319 0.060408592 -0.00034659772
0000e0 3f 44 b1 bd 72 b4 dd bc 4e 92 c0 bc 27 9c 42 3d
       -0.08655595 -0.027063582 -0.023507264 0.0475122
0000f0 ec aa c6 bc fe 23 83 3b 5e 91 d7 3c b7 c0 3a bd
       -0.024251424 0.0040020933 0.026314434 -0.045593943
000100 78 c6 2c bc fd 81 90 bd 95 4b 95 bc 4c 2e 87 3d
       -0.0105453655 -0.07056043 -0.018224517 0.06600627
000110 67 a6 3c 3d eb ed 8c 3d de 24 9d 3d 9d 6a 84 3d
       0.04605713 0.06881317 0.076730475 0.06465647
000120 e3 5e 9b bc 47 dd 9a bd fb 3c 4a 3d 29 7c 88 bc
       -0.018966144 -0.075617366 0.04937456 -0.016660767
000130 b6 e5 35 bd f1 fd a3 bd 14 da 85 bd eb e2 f8 bc
       -0.044408523 -0.0800742 -0.06535736 -0.03038164
000140 d8 5f 82 bd bc 4d 92 3d e3 78 e3 3c a2 39 3d bc
       -0.06365937 0.07143733 0.027767604 -0.011549385
000150 d2 a7 86 bd 30 35 7e 3d 4c 7a 97 bd 8c e3 35 3d
       -0.06574978 0.062062442 -0.07396373 0.04440646
000160 c4 35 54 3c ff f7 43 bd 21 17 b7 3d 44 da 9b 39
       0.012952272 -0.04784393 0.08939958 0.00029726524
000170 6a 61 99 bb 40 3c 87 3d c0 0f 8e 3c 04 f4 70 3d
       -0.004680802 0.06603289 0.017341495 0.05882646
000180 d4 78 00 3d f5 c8 37 3d d9 5a 97 3d ed b6 1a bc
       0.03136523 0.044869382 0.07390375 -0.009443027
000190 03 30 62 39 52 31 42 bd 59 c4 8d bb ed 0c a2 3d
       0.00021570925 -0.047410317 -0.004326385 0.07912622
0001a0 96 40 d6 3c 06 c4 4b 3d 60 99 93 3d 61 de 8b 3d
       0.026153844 0.04974749 0.07206988 0.06829525
0001b0 f2 e2 42 bd 07 61 46 3d c7 b5 82 bd c5 46 4e 3b
       -0.047579713 0.048432376 -0.063823275 0.0031475287
0001c0 39 a8 5f 3d de 32 7f bd 19 bf f8 bc 07 0c 37 3d
       0.05460379 -0.06230437 -0.03036456 0.044689205
0001d0 9c 41 58 bc b7 27 83 3d a7 8b 0c 3d 21 07 f8 bb
       -0.013199236 0.064040594 0.03431287 -0.007569209
0001e0 3b 0e 2a 3c cc 99 09 3d 30 f1 3a 3d 2a 38 f0 3c
       0.010379369 0.033593938 0.04564017 0.029323656
0001f0 22 fa 6d 3d 30 cd b5 bd 85 36 7c bd 93 a6 d6 bc
       0.058099873 -0.08877027 -0.06157543 -0.026202476

gnn.gnn_node.batch_norms.0.weight f4 [128]
000000 b9 a4 7f 3f 12 f3 7f 3f 43 25 7e 3f 4c 13 81 3f
       0.9986072 0.9998027 0.99275607 1.0084014
000010 2f 2d 7c 3f bd 94 7e 3f a5 b0 7e 3f 16 68 7d 3f
       0.98506445 0.99445707 0.9948829 0.9898695
000020 2d a5 7f 3f 5c 41 7f 3f 6f 57 80 3f 62 12 81 3f
       0.99861413 0.99709105 1.0026683 1.0083735
000030 5d 3b 80 3f ab 3f 80 3f 64 50 80 3f 96 fc 7f 3f
       1.0018116 1.001943 1.0024533 0.9999479
000040 1e 15 7f 3f 51 6b 81 3f 34 06 80 3f 83 a9 80 3f
       0.996416 1.0110875 1.0001893 1.0051731
000050 24 2c 81 3f b6 08 80 3f 1f d2 7f 3f b7 d3 7e 3f
       1.0091596 1.0002658 0.99929994 0.995418
000060 4c dc 7e 3f ba 49 80 3f a3 53 80 3f 6a 72 80 3f
       0.99554896 1.00225 1.0025524 1.0034916
000070 3d 1e 80 3f 81 07 80 3f 9a 12 80 3f 8b 3e 81 3f
       1.0009228 1.000229 1.0005677 1.0097212
000080 db 30 80 3f 25 76 80 3f af 0a 80 3f c9 17 80 3f
       1.001491 1.0036055 1.000326 1.0007259
000090 9c 39 7d 3f fb 2a 80 3f f5 5d 80 3f 3b f1 7d 3f
       0.9891603 1.0013117 1.0028673 0.99196213
0000a0 2d 1c 7e 3f b7 a4 7f 3f 37 01 81 3f 0b d7 80 3f
       0.9926174 0.9986071 1.0078496 1.0065626
0000b0 55 86 7e 3f 60 11 80 3f 98 58 7f 3f 2f de 7f 3f
       0.99423724 1.0005302 0.9974456 0.999484
0000c0 fe fe 7c 3f 12 ae 80 3f 74 fe 7f 3f 8f a1 7f 3f
       0.9882659 1.0053122 0.9999764 0.99855894
0000d0 da 13 7f 3f 2b 65 80 3f 9a de 7f 3f cd 38 80 3f
       0.99639666 1.0030874 0.9994904 1.0017334
0000e0 27 3a 80 3f f5 ed 7e 3f 3b 4e 7f 3f 3e 95 7d 3f
       1.0017747 0.99581844 0.99728745 0.9905585
0000f0 fd 9f 7d 3f c3 78 7f 3f 98 3c 80 3f 1d 1c 7c 3f
       0.9907225 0.9979364 1.0018492 0.984804
000100 c6 85 80 3f 2f 64 7e 3f d2 2b 7d 3f ad e5 7d 3f
       1.0040824 0.9937162 0.9889499 0.9917858
000110 a3 8a 80 3f 1a d7 80 3f 88 76 7e 3f 16 cc 7e 3f
       1.0042309 1.0065644 0.99399614 0.9953016
000120 e7 39 7e 3f 10 a9 81 3f 49 5b 80 3f 23 a5 7e 3f
       0.993071 1.0129719 1.0027858 0.9947073
000130 d3 5a 80 3f 63 6b 80 3f 07 cb 80 3f 12 05 81 3f
       1.0027717 1.0032772 1.0061959 1.0079672
000140 22 74 80 3f ef 64 80 3f bb aa 7f 3f 77 8d 80 3f
       1.0035441 1.0030802 0.9986989 1.0043172
000150 f3 ed 7e 3f 66 4c 7e 3f d0 f9 7f 3f 44 a4 80 3f
       0.9958183 0.99335325 0.9999056 1.005013
000160 90 d9 7d 3f c8 03 80 3f 38 4a 7f 3f 3f 05 80 3f
       0.991601 1.0001154 0.99722624 1.0001601
000170 94 37 80 3f 4a 0f 7e 3f 66 6c 7e 3f d3 09 80 3f
       1.0016961 0.9924208 0.9938415 1.0002998
000180 17 23 82 3f b8 cc 7d 3f ee 03 7e 3f d7 a3 7f 3f
       1.0166959 0.991405 0.99224746 0.99859375
000190 58 17 7f 3f 9a d5 80 3f 89 e2 7f 3f 0d 57 7f 3f
       0.99644995 1.0065186 0.9995504 0.99742204
0001a0 99 23 80 3f 2b 6d 80 3f a6 b6 80 3f 76 77 80 3f
       1.0010864 1.0033315 1.005574 1.0036457
0001b0 4d f8 7d 3f 92 69 7d 3f 99 9d 80 3f 0f 82 81 3f
       0.99207 0.9898921 1.0048095 1.0117816
0001c0 de 63 7e 3f 3b ee 7e 3f 7e 7a 80 3f e0 81 80 3f
       0.99371135 0.9958226 1.0037382 1.0039635
0001d0 80 28 7e 3f 52 69 7f 3f 91 94 80 3f 50 09 80 3f
       0.9928055 0.9977008 1.0045339 1.0002842
0001e0 47 9c 80 3f 33 27 7e 3f 6d 61 80 3f bb 8b 80 3f
       1.0047692 0.99278563 1.0029732 1.0042642
0001f0 48 9a 80 3f 8d 5f 80 3f 09 ee 80 3f 78 88 7e 3f
       1.0047083 1.002916 1.0072643 0.99426985

gnn.gnn_node.batch_norms.0.bias f4 [128]
000000 18 46 6a ba 19 6e 2b ba 0d 34 06 bc cb 8d 2b 3c
       -0.00089368364 -0.0006539538 -0.008191121 0.010470818
000010 32 84 15 bc 3c fe ac bb a5 41 07 bc cc 7c ba ba
       -0.009125756 -0.0052793305 -0.008255397 -0.0014227866
000020 f8 bd 2f 3b 8c fd 67 bb 77 e3 da 3a f7 7b c1 3b
       0.002681611 -0.0035398928 0.001669987 0.0059046703
000030 0e 23 9e 3b 84 b4 a7 3b 12 4c 91 3b b9 2c cd bb
       0.004825956 0.0051179547 0.004434117 -0.006261435
000040 c4 8d 82 bb da c0 9f 3b d3 d4 a1 39 bb 13 7c 3b
       -0.003984185 0.0048752846 0.0003086688 0.0038463909
000050 fa ca 01 3c c2 e7 eb 3b ae 02 17 3c 81 ad 62 bb
       0.007921929 0.0071992585 0.0092169475 -0.003458828
000060 8c 40 b9 bb 23 e1 61 bb 7b da bd 3b f8 89 31 39
       -0.0056534465 -0.0034466467 0.005793867 0.00016931433
000070 3d 46 f2 3a 4e 36 92 3a 8e df b7 ba 63 bc 17 3c
       0.0018484067 0.00111551 -0.0014028416 0.0092612235
000080 f5 91 b0 3b 9e df d6 bb 26 a8 ec 3a 2c dd 9d ba
       0.005388493 -0.006557419 0.0018055483 -0.0012044064
000090 b1 c8 e6 bb 1f 8c 27 ba a6 f6 d5 ba f8 ab bc bb
       -0.0070429672 -0.0006391424 -0.0016324117 -0.005757805
0000a0 b8 e6 8d bb c5 28 af ba 60 fd 84 3b 38 a3 f2 3b
       -0.0043304823 -0.0013363591 0.004058525 0.007404711
0000b0 e4 33 e2 bb bf 53 06 3b 26 8c a6 ba 53 f4 6a 3b
       -0.0069031585 0.0020496694 -0.0012706562 0.0035851195
0000c0 37 d1 0a bc 1c ff 2a 3b f4 7d 46 bc 8e c9 be 3b
       -0.008472732 0.0026091998 -0.0121149905 0.005822367
0000d0 2b 80 60 3a ff 27 eb 3a 98 e2 7b bb 86 74 25 bb
       0.00085640204 0.0017940997 -0.003843462 -0.0025246455
0000e0 4c e7 19 3c 9f bc 63 bb 8a c0 7f bb 28 b6 20 bc
       0.009393524 -0.0034749878 -0.0039024674 -0.009809054
0000f0 06 9a b5 bb 9b 9a b2 bb 42 a5 95 3b 02 b3 07 3a
       -0.0055420427 -0.0054505593 0.0045668194 0.00051765156
000100 4e 97 23 3b a6 37 a9 ba 7a c8 2f bc 8f 3a bb bb
       0.002496201 -0.0012910261 -0.01072895 -0.005713768
000110 69 a7 1d 3c 70 25 82 3b 7d 33 9f bb 63 78 b0 bb
       0.009622433 0.003971748 -0.004858433 -0.005385445
000120 d5 9d 35 bc 24 e9 b2 3a 58 a7 87 3b e4 a9 81 bb
       -0.011084993 0.0013649804 0.004139822 -0.00395702
000130 05 93 8c b9 2b 1a 54 3b ea 8f aa 3a 33 4d 9a 3b
       -0.0002681242 0.003236423 0.001301286 0.00470891
000140 e5 ec d7 ba 36 9d 5c 3b ee 26 ba ba a4 2b 29 bb
       -0.0016473798 0.003366304 -0.0014202276 -0.0025813365
000150 67 cc d0 bb 16 9e 0d bc 1e d4 1f bb 84 7c 8c 3b
       -0.006372023 -0.008643648 -0.0024387906 0.0042873044
000160 ce 2d 84 bb d4 06 e1 ba 27 aa 8a bb 3d 7f 73 3a
       -0.0040337807 -0.0017168173 -0.0042317095 0.00092886743
000170 18 07 00 bb d6 80 10 bc 1f 6e ee bb 83 9e 10 3a
       -0.0019535478 -0.008819779 -0.007276311 0.0005516784
000180 2b d0 54 3c 5f 97 d3 bb 03 89 25 bc 34 1c 7d bb
       0.012989084 -0.006457254 -0.010103467 -0.0038621547
000190 7b 04 e1 ba e4 62 52 39 df a3 de 39 ea a6 b7 bb
       -0.0017167473 0.00020064 0.00042465233 -0.0056046145
0001a0 52 3a af 3a 14 8c 3f 3b 6b 61 35 3b a1 21 2d 3b
       0.0013368821 0.002922778 0.0027676474 0.002641775
0001b0 12 65 81 bb 3b 2c 08 3b 50 3d e8 3b 9e 9b 6b 3c
       -0.003948816 0.0020778317 0.007087387 0.014380364
0001c0 a5 b1 ff ba fc 34 f1 bb 58 b0 85 3b 31 01 ce 3b
       -0.0019507898 -0.0073610526 0.0040798597 0.006286763
0001d0 88 70 b4 bb af bf 1d bb f4 1d 73 3b 71 26 d1 3b
       -0.005506579 -0.002407055 0.003709671 0.0063827564
0001e0 c1 d1 98 ba ed 69 c5 ba 93 f6 67 3b 39 d7 1d 3b
       -0.0011659191 -0.0015061476 0.0035394772 0.0024084582
0001f0 8e 2b 1b 3b 9e 84 16 3b 04 a1 e2 3b ad 69 a9 3b
       0.0023677084 0.002296723 0.006916167 0.0051700682

gnn.gnn_node.batch_norms.0.running_mean f4 [128]
000000 ab 46 3e 3e d3 79 ae be e8 6f 71 be 4b bd 00 bc
       0.18581645 -0.3407732 -0.23577845 -0.007857631
000010 38 0d 4d 3e 3d 1e 78 3e 51 e5 d7 be a4 b6 77 bb
       0.20024574 0.24230285 -0.42167142 -0.0037798071
000020 fa 2d 11 bf ee 44 e6 be 99 3d 3c be 2e 81 22 be
       -0.5671078 -0.44974464 -0.18382873 -0.1586959
000030 97 e1 58 3e 15 d7 39 bf e6 2a 24 bf fe 0c 2f 3f
       0.21179806 -0.72593814 -0.6412796 0.683792
000040 1a c8 5f be fb 69 2d 3f 96 79 db 3c 2d 17 a6 3d
       -0.21853676 0.6773984 0.026791375 0.08109889
000050 0e 5d 0f bf ea 56 5f be b0 f1 83 3e 00 3f 32 bf
       -0.56001365 -0.21810499 0.2577033 -0.6962738
000060 78 14 b9 be 07 9d 3c be ae 0d 0e 3c 1c c2 a6 3e
       -0.3614843 -0.18419276 0.008670254 0.3256997
000070 e0 b6 83 be c9 68 af be ad 5a 81 be 4f 2d 47 3c
       -0.2572546 -0.34259632 -0.25264493 0.0121567985
000080 83 db 6a 3e 09 04 3f 3f b2 c8 14 bd 68 0f bf 3e
       0.229353 0.7461553 -0.03632421 0.37316442
000090 c1 cb e7 3d 85 bf db bd e4 67 44 3f 34 3a b9 be
       0.1131816 -0.10729889 0.76721025 -0.36177218
0000a0 56 9b d4 be fe 03 8f 3e 7c 2a 97 3e 1d 3c 4f bd
       -0.41524762 0.27932733 0.295246 -0.050594438
0000b0 cb 6f cf be 13 36 28 bf 71 a8 ab be 7b 8e a6 be
       -0.4051498 -0.6570751 -0.33526948 -0.3253058
0000c0 fe 65 10 3e 0b bb cc 3e fb b8 f9 3e a3 44 9b 3e
       0.14101407 0.39986452 0.4877394 0.30325803
0000d0 ad b0 c2 3e ca 5f 27 3d 3d 9b 32 3f e3 af 7c 3e
       0.38025418 0.040862836 0.69768125 0.2467647
0000e0 b6 4c 02 3f 17 41 df be 5a 23 c2 be ea 91 e1 3e
       0.508983 -0.43604347 -0.37917596 0.44056636
0000f0 9e 27 f1 3e 0e d2 15 bf 13 97 04 bd f7 a6 0b 3f
       0.47100538 -0.58523643 -0.032370638 0.54551643
000100 d9 0e 11 bf b3 d7 35 3f 0b 97 2c bf b7 9c af be
       -0.5666328 0.71032256 -0.67417973 -0.3429925
000110 a4 d9 45 3f e1 39 7f 3e 8f cf 3c bf 1f 54 f2 bd
       0.7728522 0.24924423 -0.7375421 -0.11832451
000120 8b de a7 3d f0 af 45 3d fa 81 26 be ca 52 0f bd
       0.081967436 0.04826349 -0.1626052 -0.034991063
000130 14 0e 26 be b8 f6 66 3e 67 c8 a5 3d 88 49 02 3e
       -0.16216308 0.22555053 0.08094864 0.12723362
000140 ae 5f 62 3f d5 11 ab bd 86 b7 70 bd 18 3b 28 bd
       0.88427246 -0.083530106 -0.05876877 -0.04107198
000150 68 d6 e5 be f5 5b 45 be 3d 39 29 bd 57 1d 16 3e
       -0.4489014 -0.1927336 -0.041314352 0.1465963
000160 63 91 7d 3e 1f ea 22 be da e9 68 be 6a 9b 86 be
       0.24762492 -0.15909623 -0.22745457 -0.26290447
000170 57 b0 44 bf 9b d7 83 be 94 3d 5d bd 69 e4 0a 3f
       -0.76831573 -0.2575043 -0.054013804 0.54254776
000180 db 9f b9 3e 2f 98 7a be 26 f1 49 be 76 97 db 3e
       0.36254773 -0.24472116 -0.19720897 0.42888993
000190 4a 9b 97 3e 1f a7 41 3e 04 f9 61 3f 8e 68 a8 3e
       0.29610664 0.18911408 0.8827059 0.3289227
0001a0 34 a0 73 be 4a e0 c2 be 78 7e 8b bd c4 34 91 3d
       -0.23791581 -0.38061744 -0.068112314 0.07090142
0001b0 83 d9 b1 3e af 9b 03 3e c9 56 46 3e 6a 16 22 bf
       0.3473626 0.12852357 0.19369043 -0.6331545
0001c0 91 ba af be 10 03 55 be 69 3c 31 bf 65 4d ff 3e
       -0.34322026 -0.2080195 -0.69232804 0.49863735
0001d0 db 1a e6 3b 7d 84 a6 be 12 11 2d bf 2a 77 7e 3e
       0.0070222444 -0.32522956 -0.6760417 0.24850145
0001e0 a4 09 83 be 4e e6 e3 bd c7 4f 00 bf dc fc 6b 3e
       -0.25593293 -0.111279115 -0.5012173 0.23045677
0001f0 94 f1 18 bf ac 4b 11 3d 2f c4 be be 7d 6b 89 3e
       -0.5974362 0.035472557 -0.3725905 0.2683982

gnn.gnn_node.batch_norms.0.running_var f4 [128]
000000 23 bb d6 3f 22 e9 f1 40 f8 fd 6e 40 ad 98 0a 3e
       1.677586 7.5597086 3.734251 0.13534804
000010 d2 68 46 40 8f f3 67 40 87 be 2d 41 8b 6a 58 3f
       3.1001477 3.6242406 10.859015 0.8453757
000020 1a 6e ab 41 a8 57 48 41 25 6e 02 40 70 0c 8a 40
       21.42876 12.5214 2.0379727 4.3140182
000030 75 00 44 40 e8 3e 05 42 37 af e7 41 eb a7 eb 41
       3.062528 33.31143 28.960554 29.456991
000040 ea 2e 3c 40 80 14 fa 41 73 81 26 3e 9a 8a a8 3f
       2.9403634 31.26001 0.16260318 1.3167298
000050 50 b5 ab 41 30 d2 3b 40 3d be 02 41 21 24 f8 41
       21.463531 2.9347038 8.171445 31.017641
000060 0f f8 dd 40 91 f0 27 40 f9 e6 f8 3e c0 09 bd 40
       6.9365306 2.624058 0.48613718 5.90744
000070 c6 1a 84 40 7c bf f4 40 69 e5 d0 40 be ea 9d 3f
       4.1282682 7.6483746 6.528004 1.2337263
000080 99 a0 a3 40 db a2 08 42 01 eb 6c 3f b7 a8 52 41
       5.113354 34.15904 0.9254609 13.16619
000090 e3 c3 3c 3f de f6 78 3f 4a d6 10 42 f2 7a f4 40
       0.737364 0.9725169 36.209267 7.640008
0000a0 26 c7 66 41 4b d4 bb 40 49 69 9e 40 26 ae 79 3f
       14.42362 5.8696647 4.950352 0.97531354
0000b0 c4 fc 42 41 df ab ed 41 59 36 f6 40 02 9d c7 40
       12.18671 29.708921 7.694134 6.237916
0000c0 14 d4 25 40 b8 d5 0d 41 ce b9 66 41 1a 7c 0e 41
       2.5910692 8.864677 14.420362 8.905298
0000d0 88 05 06 41 9f 5b 49 3f a2 3c 01 42 48 a9 9f 40
       8.37635 0.7865543 32.30921 4.989414
0000e0 44 10 83 41 3c 67 5e 41 f7 89 07 41 fb f5 24 41
       16.382942 13.900204 8.471183 10.310054
0000f0 25 ec b1 41 ec 1d a3 41 7e fe 29 3e 36 88 8a 41
       22.240305 20.38961 0.16600987 17.31651
000100 fc 07 a2 41 d6 df f6 41 f3 c1 dc 41 5a 82 04 41
       20.253899 30.859295 27.594702 8.281824
000110 9d 5b 20 42 8c 2e 64 40 32 1a 08 42 0e 1e 19 3f
       40.089466 3.565341 34.02558 0.59811485
000120 f9 98 8c 3f 73 92 6b 3d 84 28 34 40 c6 01 92 3d
       1.0984184 0.05751271 2.8149729 0.071292445
000130 dc 96 a5 3f c4 33 9a 40 8f 17 75 3f 5e 4a 4d 3f
       1.2936664 4.818819 0.9573907 0.801916
000140 73 8b 62 42 d9 32 b8 3e 27 69 80 3e bb 70 b6 3e
       56.63618 0.35976294 0.25080225 0.35632882
000150 cd b2 50 41 00 e0 42 40 18 90 06 40 45 af 8e 3f
       13.043653 3.0449219 2.1025448 1.1147238
000160 07 22 55 40 a0 43 df 3f e4 77 3f 40 c0 5a a4 40
       3.3302019 1.7442513 2.9916925 5.136078
000170 35 06 16 42 06 c9 85 40 5d df 0c 40 64 40 a4 41
       37.50606 4.180789 2.201133 20.53144
000180 be e0 0e 41 1f 19 89 40 02 0f 1c 40 76 12 4b 41
       8.929869 4.2843165 2.438416 12.692007
000190 52 68 01 41 52 e5 9d 40 bc 11 52 42 72 83 d8 40
       8.087969 4.934243 52.51732 6.7660456
0001a0 1b 9e 73 40 b6 fe 1c 41 7f a0 cf 3e f8 d3 be 3f
       3.806525 9.812185 0.40552136 1.4908438
0001b0 e4 0a e3 40 b6 51 4f 40 ee 22 d4 3f 7a 1c d8 41
       7.0950794 3.2393622 1.657316 27.013905
0001c0 a8 d6 2e 41 e0 19 32 40 9e 4c 20 42 d9 24 73 41
       10.927406 2.7828293 40.07482 15.196496
0001d0 4d 68 b1 3e 4e 70 e3 40 24 23 e0 41 8d a4 56 40
       0.34649888 7.107459 28.017159 3.3537934
0001e0 8b 49 ae 40 b4 63 2b 3f 9d 1c 80 41 d7 6c 76 40
       5.4464774 0.6694901 16.013971 3.850393
0001f0 50 e1 b8 41 d1 fb 7c 3f 7d bf 11 41 07 1d 66 40
       23.110016 0.9882174 9.10925 3.5955217

gnn.gnn_node.batch_norms.1.weight f4 [128]
000000 c0 89 7f 3f 8b cb 7e 3f 44 5d 7e 3f 4c 70 7e 3f
       0.99819565 0.9952933 0.9936106 0.993901
000010 ed 09 7f 3f d1 cf 7b 3f 87 6e 80 3f 12 05 7f 3f
       0.9962452 0.9836398 1.003373 0.9961711
000020 a6 b4 7e 3f 56 33 7f 3f e8 3c 7f 3f 7d c6 7e 3f
       0.994944 0.9968771 0.9970231 0.9952162
000030 42 d3 7f 3f 65 6a 7f 3f 65 cd 7d 3f 70 97 7f 3f
       0.9993173 0.9977172 0.9914153 0.9984045
000040 f1 13 80 3f 98 af 7e 3f 86 f9 7d 3f 25 be 7d 3f
       1.0006086 0.99486685 0.9920887 0.9911826
000050 d1 ee 7e 3f ab c1 7e 3f 06 5e 7f 3f b1 08 80 3f
       0.99583155 0.99514264 0.99752843 1.0002652
000060 be 87 7f 3f b6 42 7f 3f 8c 00 7e 3f fc 7e 7f 3f
       0.998165 0.9971117 0.99219584 0.9980314
000070 ab 5d 80 3f b7 83 7e 3f 7c a7 7e 3f 0f 13 7f 3f
       1.0028585 0.9941973 0.9947431 0.99638456
000080 51 db 7d 3f 12 35 81 3f d4 79 7d 3f e9 3e 7e 3f
       0.99162775 1.0094321 0.9901402 0.99314743
000090 c1 ed 7e 3f 77 d3 7f 3f a1 62 80 3f 15 cc 7e 3f
       0.99581534 0.99932045 1.0030099 0.99530154
0000a0 71 28 7f 3f 35 5e 80 3f 27 c5 80 3f 94 f5 7c 3f
       0.99671084 1.002875 1.0060166 0.9881222
0000b0 a3 5b 80 3f 34 0e 7e 3f e1 c1 7d 3f 36 80 7d 3f
       1.0027965 0.9924042 0.9912396 0.9902376
0000c0 30 3f 7f 3f 92 7e 7d 3f 37 86 7e 3f 5a 09 80 3f
       0.9970579 0.99021256 0.99423546 1.0002854
0000d0 91 49 7e 3f f7 41 80 3f 54 4f 80 3f 62 c0 7d 3f
       0.99331003 1.0020131 1.0024209 0.9912168
0000e0 70 49 7e 3f a8 96 7e 3f ae 8e 7f 3f 7f 9d 7d 3f
       0.99330807 0.99448633 0.99827087 0.99068445
0000f0 7a 46 7f 3f fc 68 7f 3f 92 e7 7f 3f 56 9f 7e 3f
       0.99716914 0.9976957 0.99962723 0.9946188
000100 0e f0 7e 3f ec 32 7f 3f d0 67 7b 3f f0 7f 7f 3f
       0.99585044 0.99687076 0.9820528 0.9980459
000110 13 bd 7c 3f a9 82 7e 3f 54 1f 7e 3f 3d 09 7f 3f
       0.98726004 0.9941812 0.9926655 0.9962347
000120 a7 63 7e 3f 14 32 7e 3f 70 3d 7e 3f 92 0b 7f 3f
       0.9937081 0.99295163 0.99312496 0.9962703
000130 b1 14 80 3f 9e 80 7d 3f b5 1f 7e 3f c5 57 7e 3f
       1.0006315 0.9902438 0.9926713 0.99352676
000140 ae 40 7d 3f 6b c7 7f 3f 0a f5 7e 3f 9a 22 80 3f
       0.9892682 0.9991366 0.9959265 1.001056
000150 69 e1 7b 3f ba cd 7c 3f 47 99 80 3f fb 90 7f 3f
       0.98390824 0.98751414 1.0046777 0.998306
000160 d7 7d 7d 3f d2 84 7f 3f c5 34 7f 3f b8 c0 7f 3f
       0.9902014 0.9981204 0.99689895 0.9990344
000170 f2 43 7e 3f da 49 80 3f 72 2a 80 3f 5f d5 7e 3f
       0.99322426 1.0022538 1.0012953 0.9954433
000180 e2 62 7f 3f b2 4c 7d 3f 6d 43 7f 3f f0 db 80 3f
       0.9976026 0.9894515 0.9971226 1.006712
000190 d0 ab 7e 3f a2 3c 81 3f 40 6a 7e 3f 3d c9 7d 3f
       0.99480915 1.0096629 0.99380875 0.9913519
0001a0 f6 ee 7f 3f 2f 58 80 3f ad f1 7b 3f 9f 33 80 3f
       0.99974 1.0026911 0.9841564 1.0015754
0001b0 f0 c1 80 3f 00 33 80 3f 32 ba 7e 3f 13 47 7f 3f
       1.0059185 1.0015564 0.9950286 0.99717826
0001c0 fd 67 80 3f 56 94 7e 3f 6a 19 7e 3f 14 3a 7e 3f
       1.0031735 0.9944509 0.9925753 0.9930737
0001d0 4f 89 7c 3f 4f 19 7d 3f 86 ec 7e 3f 78 54 7e 3f
       0.98647016 0.9886674 0.99579656 0.9934764
0001e0 2b fb 7e 3f 22 b6 7e 3f c8 d5 7d 3f 56 ee 7f 3f
       0.99602 0.9949666 0.9915433 0.99973047
0001f0 47 c4 7e 3f e5 62 7e 3f 36 8c 7d 3f db 2e 7e 3f
       0.99518245 0.9936965 0.9904207 0.99290246

gnn.gnn_node.batch_norms.1.bias f4 [128]
000000 9e 5f 87 b8 44 d7 33 bb 3a d8 9d bb d7 b6 5a 3a
       -6.455112e-05 -0.002744154 -0.004817036 0.00083432853
000010 71 d6 c4 ba 38 ea 91 bc df aa 14 3c fe 99 f9 b9
       -0.0015017522 -0.01781188 0.009073942 -0.00047607714
000020 a8 72 4c 3b 11 e1 96 ba c5 37 dc b9 49 ae ce 3b
       0.003119627 -0.0011511167 -0.00042003221 0.0063073975
000030 25 d7 75 3b 9f 4a 7e bc 7c a6 a4 3a 91 f7 ce b8
       0.003751227 -0.015520721 0.0012561823 -9.868958e-05
000040 69 d8 3c ba 7a a9 d2 3b 6c c9 7e 3b 9e 27 30 bb
       -0.00072038785 0.0064288946 0.003887738 -0.0026879082
000050 00 b3 65 bb 3b d2 82 bb fe 0a 96 b8 f3 a6 3b 3a
       -0.003504932 -0.0039923466 -7.154605e-05 0.0007158361
000060 34 29 87 bb 57 b6 11 bc e2 a4 c5 bb 66 78 03 bc
       -0.004124785 -0.008893571 -0.0060316185 -0.008024311
000070 e6 9b 2a bb 11 16 13 3b f7 01 2c bc ef 57 ba bb
       -0.0026032864 0.0022443573 -0.010498515 -0.005686752
000080 43 48 d2 3b e5 c9 b1 ba aa 9a a1 bb a8 ab 16 bb
       0.0064173057 -0.0013564198 -0.0049317675 -0.0022990499
000090 ea 0c 1a bc 63 8d 64 bb 24 f4 d1 3a c0 37 fa 3b
       -0.009402493 -0.0034874312 0.0016018194 0.0076360404
0000a0 ee ee 1c bb 34 ef 92 3b 21 cd 43 3b db 59 83 ba
       -0.0023946124 0.0044840816 0.0029876905 -0.0010021286
0000b0 71 49 be 3b d4 c6 14 bc b2 84 6b 3c 93 7e d5 bb
       0.0058070947 -0.009080607 0.014374899 -0.006515333
0000c0 69 4e 27 bb 70 f3 3c 3b 0c 50 ef bb d2 80 86 3b
       -0.0025528914 0.0028831623 -0.0073032435 0.004104712
0000d0 94 7c 5b 3c 43 b6 ac 3b b0 3b 68 bb a2 b9 61 bb
       0.013396401 0.0052707507 -0.0035435967 -0.0034442921
0000e0 8b fe e6 3b e4 32 26 bc 9c 5f ae 39 1e 8f 37 bc
       0.007049387 -0.010143969 0.000332591 -0.011203555
0000f0 f0 a7 1e 3b c7 da 8f bc 4a 02 2e bb ef b3 43 bb
       0.0024208985 -0.017560376 -0.0026551657 -0.0029861887
000100 03 12 4a 3b a6 15 7c ba bd 10 8a bc 53 72 ae bb
       0.003083349 -0.0009616263 -0.016853685 -0.005323687
000110 f9 a3 08 bb 52 bc ef bb 94 fb c2 ba a1 01 d7 bb
       -0.0020849688 -0.0073161507 -0.0014876002 -0.0065614735
000120 b7 54 1c bc 03 59 07 bb 53 7c b1 bb f2 3b 1f bb
       -0.009541682 -0.002065242 -0.005416432 -0.0024297205
000130 ef 25 2c 3c 0e 71 03 bc 40 2d 15 bc c4 6b 3f bc
       0.010507091 -0.00802256 -0.009105027 -0.011683408
000140 35 00 6d bc 66 d9 54 3b 31 96 18 3b f1 64 90 ba
       -0.014465381 0.0032478212 0.002328288 -0.0011016411
000150 ab d9 16 bc aa 89 17 bc 77 b7 47 3b e5 89 83 3b
       -0.0092071695 -0.00924913 0.0030474344 0.004014241
000160 b4 95 30 bc e7 a7 e8 3b 22 db 34 bb 72 ac 43 bb
       -0.0107778795 0.0071000936 -0.0027596434 -0.0029857424
000170 de d2 fe bb 63 88 88 3b 89 a3 b0 bb 62 81 51 bb
       -0.007776602 0.004166649 -0.0053905887 -0.0031967987
000180 67 32 8f 3a cc 73 0d bc 3c f3 e1 3a b8 4e c7 bb
       0.0010925055 -0.008633565 0.0017238627 -0.006082382
000190 fc 11 4e bc 39 12 b3 3b b5 00 b4 bb e1 87 7c bc
       -0.01257753 0.005464819 -0.0054932483 -0.015413255
0001a0 b0 cc 14 bb 2e b0 34 ba 76 c9 75 bc 2e ae ed 3b
       -0.002270501 -0.0006892708 -0.015001645 0.00725343
0001b0 ca 6b d7 3b 5a 13 e7 bb ae a2 d0 b9 33 08 1b bc
       0.0065741288 -0.0070518674 -0.00039794057 -0.009462404
0001c0 e8 a4 f4 3b ee 3e 56 bc 85 d0 bc 3b 54 8c 14 bc
       0.0074659474 -0.013076527 0.005762162 -0.00906666
0001d0 fc a7 a0 bb eb 73 aa bc 61 45 9e bb a3 33 8a bb
       -0.004902838 -0.020807227 -0.004830048 -0.0042175814
0001e0 4c 6d cc ba 05 57 89 bb 4d ac 3d bc ce a7 07 bc
       -0.0015596538 -0.0041912817 -0.011576724 -0.008279754
0001f0 cb 20 c1 bb 36 69 25 ba 93 99 f6 3a a2 8a ac 3a
       -0.005893802 -0.0006309928 0.0018814079 0.0013163874

gnn.gnn_node.batch_norms.1.running_mean f4 [128]
000000 6d 77 ac bd ff 23 e0 bd 3c de 39 bd 74 39 dd bd
       -0.08421216 -0.10944366 -0.045377955 -0.10801974
000010 15 33 2e 3d 45 54 4f bb 5f 72 c5 bd a0 24 cd 3c
       0.042529184 -0.0031635922 -0.09640955 0.025041878
000020 8f 71 a6 bd fc e3 6c bd 99 55 70 3d 04 41 31 bd
       -0.08127128 -0.05783461 0.058675382 -0.043274894
000030 6f 4e 46 3d cd 0b 86 3d 80 64 b3 bd e1 b0 00 3e
       0.048414644 0.065452196 -0.08759403 0.12567474
000040 76 f1 0b 3d 2f f5 de bd 62 a4 53 bd 5d 78 4d 3d
       0.034165822 -0.10886609 -0.05167044 0.050163615
000050 76 2d d0 3d bd 10 e9 bc ae f1 4f bd d9 75 59 3b
       0.10164921 -0.028450364 -0.050767593 0.0033181815
000060 0f 43 7d bd b0 4c 3e bd ae dc 23 3d e5 2e 29 3d
       -0.06183153 -0.046459854 0.04000538 0.041304488
000070 7c 3e e1 3c c3 c3 dc bc d0 a9 96 bd 7d 8c 09 3e
       0.027495615 -0.026948815 -0.07356608 0.13432498
000080 66 cd dd bc fb 03 b8 3d ea db ca bd a4 d9 0b be
       -0.02707548 0.08985134 -0.099052265 -0.13657242
000090 aa 39 1a 3c f6 5f 3d bd 76 d4 66 3d 76 80 ea bd
       0.009413162 -0.046234094 0.056354962 -0.11450283
0000a0 f7 d1 98 bc dd 5a 6e 3d 99 a8 08 3e e4 4c 31 bd
       -0.018654807 0.058192123 0.13345565 -0.04328622
0000b0 6e 75 a4 3d f5 34 b8 3c a6 94 9b bd 02 f6 44 bd
       0.080302104 0.02248619 -0.07596712 -0.048086174
0000c0 9b 63 fa bd 95 9e f1 bd 1f 88 76 3d 51 16 df 39
       -0.122260295 -0.11797825 0.06018841 0.00042550502
0000d0 2f 6c 5a bd 29 ad 2f 3d 9c b5 a1 3c e5 9b 47 3d
       -0.05332583 0.042889748 0.019739918 0.048732657
0000e0 d6 75 07 be 27 eb a9 bd bf 4f 04 3d 26 86 45 bd
       -0.13228545 -0.08296805 0.032302614 -0.048223637
0000f0 93 7b 60 bd 5b 21 9e bd c8 90 a5 3d 0e e2 49 bd
       -0.05480535 -0.07721206 0.080842555 -0.04928785
000100 95 3a 56 bd ea a0 20 bd ed 42 cc bd 90 bf a2 3d
       -0.052301962 -0.03921596 -0.099737026 0.07946694
000110 ec d8 81 3d b0 6a 9c 3d e4 52 99 3d f4 df 8a 3d
       0.06340203 0.076375365 0.07486513 0.06780997
000120 7f 2c 63 bd 1d 7e cd bd 42 0f 99 3c b5 c1 6e bd
       -0.055462357 -0.1003382 0.018684033 -0.058290202
000130 72 67 ea bd fa 40 fd bd f9 ab 38 bd 55 1c 3d bd
       -0.11445512 -0.12365909 -0.04508588 -0.046169598
000140 17 65 e5 bd ed 08 29 bd b5 cf 68 bd 6f 36 71 3d
       -0.11200922 -0.041268278 -0.05683871 0.058889803
000150 26 6a f3 bd 27 3f 8e 3d d7 11 0a be 76 9b 84 3c
       -0.118854806 0.06945639 -0.13483368 0.01618741
000160 20 b4 82 bd 53 de 1f bd 06 12 bf 3d d2 bb cd 3c
       -0.06382012 -0.039030384 0.093296096 0.025113974
000170 02 ee b5 bd 03 17 a0 3d a4 0d 53 3d 66 5b 95 3d
       -0.08883287 0.07816889 0.05152668 0.072928235
000180 2c 29 fc 3c 54 ca e5 3d 45 ac ae 3d 53 8e 8f bd
       0.030781351 0.11220232 0.085289516 -0.07009568
000190 9f 1c 3f bd 9e 52 87 3d 1a ec 85 bd 9d 87 a0 bc
       -0.046658155 0.06607555 -0.065391734 -0.019595915
0001a0 ce 3f b1 bc 97 3e 4e 3d ed c9 02 3e 96 91 6d bc
       -0.02163687 0.05035266 0.12772341 -0.014500042
0001b0 93 3d b3 bd 21 b8 b4 3d 97 c8 8e bd 15 b0 7e 3d
       -0.08751979 0.08824182 -0.06971853 0.062179644
0001c0 e7 88 ba 3d fc 11 1b bd 86 77 8b bd 68 b0 90 3d
       0.09108143 -0.037858948 -0.06809907 0.07064897
0001d0 f9 82 4e 3d 56 f6 b2 3d 34 f0 28 3d cc 75 83 bd
       0.050417874 0.08738391 0.0412447 -0.06418952
0001e0 a9 34 ea bc e8 f4 74 3d b2 7e be bd 09 12 23 bd
       -0.028589563 0.059803873 -0.09301509 -0.03981212
0001f0 e8 07 3b 3d f8 6e e4 bd 95 ca 3a 3c ee 9e ec bd
       0.045661837 -0.11153978 0.011400838 -0.11553751

gnn.gnn_node.batch_norms.1.running_var f4 [128]
000000 7a 60 97 3e 3d 40 0e 3f 1c 62 b3 3d 21 03 16 3f
       0.29565793 0.5556677 0.08758947 0.58598524
000010 b7 6f a7 3d d4 75 e4 3d 7a a5 0f 3f 2d 0c 34 3e
       0.08175605 0.111552864 0.5611187 0.1758277
000020 8d d8 aa 3e af 9d 65 3e 0d 77 60 3e 45 88 9e 3d
       0.3336834 0.22423433 0.21920414 0.07740835
000030 fa 2f 8e 3e 7e e3 7c 3e de 69 8c 3e 1a a8 18 3f
       0.27770978 0.24696156 0.2742452 0.596315
000040 d9 55 02 3e 7e 4f ca 3e a5 2b 2d 3e d9 bb 11 3e
       0.12728061 0.39513773 0.1691118 0.14231814
000050 08 d4 22 3f a4 43 10 3e 02 2f e0 3e aa fd 64 3e
       0.63604784 0.14088303 0.43785864 0.2236239
000060 ad c0 69 3e 48 94 56 3e 89 d5 79 3e 01 33 17 3e
       0.22827406 0.20955002 0.24397863 0.1476555
000070 48 90 19 3e 5b a8 93 3d d5 70 d3 3e be 24 83 3f
       0.14996445 0.07209846 0.41297022 1.0245588
000080 64 e3 13 3d 7f 26 bc 3e 8f 28 10 3f 22 e8 66 3f
       0.03610553 0.3674812 0.5631189 0.90197957
000090 0e 70 19 3d 5f ea 83 3e b9 99 1b 3e 66 2e 6c 3f
       0.03746038 0.25764748 0.1519536 0.922583
0000a0 3c eb 0b 3e ea 2c a6 3e cf 72 10 3f cf 89 53 3e
       0.13663954 0.32456142 0.56425184 0.20658039
0000b0 96 bc 76 3e 53 7e 2e 3e 5d a1 9c 3e 5f d3 fb 3d
       0.24095377 0.17040376 0.3059186 0.12296175
0000c0 bf 3e 3a 3f d1 71 1a 3f 9c 80 99 3e 45 82 b0 3c
       0.7275199 0.6032992 0.29980934 0.021546492
0000d0 fd 50 e3 3e e6 f4 df 3d bb 04 35 3e 9a 2b 25 3e
       0.44397727 0.109353825 0.17677586 0.16129914
0000e0 da 7f 4f 3f 23 32 df 3e 39 06 35 3d 65 fb 4b 3e
       0.8105446 0.4359294 0.044195388 0.19920118
0000f0 31 2e b6 3d 48 0c 18 3e 1d 6a 77 3e f3 d0 a7 3d
       0.08895529 0.14848435 0.24161573 0.08194151
000100 43 44 75 3e 3d aa 5f 3e 6f bd 18 3f cc 05 db 3e
       0.23951821 0.21842285 0.5966405 0.4277786
000110 29 ac e2 3e 15 5e a7 3e 8f 34 01 3f f6 87 43 3e
       0.44271973 0.32688966 0.50470823 0.19094834
000120 33 3c f4 3d 67 9b f7 3e 5d f0 e5 3d df 5b b4 3d
       0.119255446 0.4836075 0.11227486 0.088065855
000130 3b 4e c2 3e 81 49 23 3f af 7e 08 3e ad f2 81 3e
       0.3795031 0.63784033 0.13329576 0.2538046
000140 5c 64 4b 3f b9 f9 aa 3d 6a f2 cc 3e fa ec fa 3d
       0.7945001 0.08348412 0.40028697 0.12252231
000150 82 95 4d 3f 22 67 a7 3e bc f3 78 3f db 48 33 3e
       0.80306256 0.32695872 0.9724691 0.17508261
000160 1a 95 05 3f 3e 9c a9 3d 43 4f cf 3e ed a6 d6 3d
       0.52180636 0.08281754 0.4049016 0.10481057
000170 00 f2 62 3e 5a c8 50 3e 98 e1 0e 3e 18 3b e3 3e
       0.22162628 0.20388928 0.13953245 0.44381022
000180 37 b3 aa 3d 44 55 0b 3f 87 6e 9d 3e a9 c3 86 3e
       0.08334964 0.5442698 0.30748388 0.26321152
000190 52 41 03 3d 8e 78 b7 3e ad 26 6b 3e 75 2f 21 3e
       0.032044716 0.35834163 0.22963972 0.1574076
0001a0 1f bf 15 3d f6 01 47 3e d2 a5 16 3f f5 6a ad 3d
       0.03655922 0.19434342 0.5884677 0.08467666
0001b0 37 ac bd 3e f4 9c 3b 3e b7 57 7a 3e 1e 9a d8 3d
       0.37045452 0.18321592 0.24447523 0.105762705
0001c0 0b cb 55 3e 4e e0 47 3e f6 90 a1 3e f7 28 c9 3e
       0.20878236 0.19519159 0.3155591 0.39289066
0001d0 9d 76 4c 3e 92 d6 93 3e f2 8e 4d 3e c7 fa 2c 3e
       0.19967122 0.28874642 0.2007406 0.16892539
0001e0 82 21 f7 3d 68 b6 2a 3f 5d 48 cb 3e 90 2c 26 3e
       0.12066938 0.6668458 0.39703646 0.16227937
0001f0 83 09 65 3e 8a 27 37 3f 65 e7 cb 3d b8 5c a2 3e
       0.2236691 0.71544707 0.099562444 0.31711364

synth_conv1.conv1d.weight f4 [1, 1, 6]
000000 b1 e8 11 be ae d9 8d bd d4 93 bb 3e 91 c6 ed bb
       -0.14248921 -0.06926285 0.3663622 -0.007256337
000010 19 09 c2 3e 17 3b b9 be
       0.37897566 -0.36177894

synth_conv2.conv1d.weight f4 [1, 1, 9]
000000 c3 44 a9 bd 42 6b 13 be 46 a9 e5 bd 77 ec 4d be
       -0.082650684 -0.14396384 -0.11213927 -0.20109735
000010 ce d6 eb bd 8d e2 de bd 2b b3 ca bd 7c b7 74 be
       -0.1151558 -0.10883055 -0.09897455 -0.23898119
000020 2b ee 4a 3e
       0.19817416
