GCN/results/gcn-epoch-1-val_loss-17.410.pt (torch, 309071 bytes, 23 tensors)

node_encoder.node_type_embedding.weight f4 [3, 3]
00000000: bed7 e53e d596 ce3e c4e3 513f d5b1 383e
00000010: fb2f bcbe 20a1 02bf e565 6cbf d71c 513e
00000020: c1c1 69bd
0.4489116 0.4034945 0.8198817 0.18036588 -0.36755356 -0.5102711 -0.9234298 0.20421158
-0.057069544

synth_encoder.synth_emb.weight f4 [7, 3]
00000000: 8a08 97be f6be 3dbf 05ec 363f 514e 7dbe
00000010: 3ce3 21bf ea2b 3a3f a61e 92be e927 27bf
00000020: 69d0 ebbd 8d45 cb3e e341 3a3f bd9c 9d3e
00000030: 821c 91be bcea 02bf 60c6 24bf acb0 8bbd
00000040: 1713 a83e 9365 18bf c053 36bf 21f6 a9be
00000050: a219 44bd
-0.29498702 -0.7411951 0.7145389 -0.24736907 -0.6323736 0.7272326 -0.28539008 -0.65295273
-0.115143605 0.397015 0.72756785 0.30783644 -0.28342062 -0.51139426 -0.64365196 -0.06820807
0.32827064 -0.5952999 -0.7122154 -0.33195594 -0.047876008

gnn.gnn_node.node_encoder.node_type_embedding.weight f4 [3, 3]
00000000: bed7 e53e d596 ce3e c4e3 513f d5b1 383e
00000010: fb2f bcbe 20a1 02bf e565 6cbf d71c 513e
00000020: c1c1 69bd
0.4489116 0.4034945 0.8198817 0.18036588 -0.36755356 -0.5102711 -0.9234298 0.20421158
-0.057069544

gnn.gnn_node.convs.0.linear.weight f4 [128, 4]
00000000: ea58 603e 0489 7fbd 10d7 9a3c 02a2 dfbd
00000010: 5663 dabd 13da 8d3e 5877 0f3d ca61 cbbd
00000020: c7ff d23e efeb adbe 339e 53bb d3f5 47be
00000030: 7593 6fbe 868b 723e ffd2 e63e daa7 55be
00000040: d5d1 623c d889 593e 56d8 093e fe0a bb3e
00000050: 584c 5cbe a02b 07bd 79a2 0a3d 9181 e73d
00000060: b7c0 8e3e b3e0 ac3e df88 e13d df56 953e
00000070: 0e62 973e b210 1dbe 698e fe3e ca5c d7be
00000080: 508e 9b3c 0023 2ebe 2428 683e 0b14 95be
00000090: 70c8 a13e 92ff 29be 336e 973e b9a7 d7bd
000000a0: 9f8a d9be b2d3 ebbe 0657 713d b6f0 98be
000000b0: 82e5 5dbe 27d3 d23e 548b 4d3d 8a32 f73e
000000c0: 1b51 5e3e 1628 733e 2621 b5be 9206 ef3d
000000d0: d5b2 49be 5995 b5bd 1428 cfbe e1cd b73e
000000e0: fa3c 77be b9cc 09be c18f 06be c20a e2be
000000f0: 6b22 c33d 3048 e83c 58d7 d2be 3b82 ddbe
00000100: ba8b b3be 0801 2ebe a055 d3be 24d5 02be
00000110: ef01 eabe c664 38be bd4a f33e 15c4 ab3e
00000120: c3ed f43e 9536 a23d 9ea4 133e 747d 1cbe
00000130: cab7 87be 029c f43e de03 cf3e 1620 953e
00000140: 3e55 cc3e 86da a9be 5974 5bbe ef25 9ebe
00000150: ef6a a93e cc09 c7bd 1025 313e 6048 24bd
00000160: ac36 4bbe 9884 9c3e cad2 a3be 229c cc3e
00000170: 84e9 84be d2cd bebe 8bdf aebe 4988 cfbe
00000180: 2029 1abe b374 dc3d d521 4d3d fb95 f0be
00000190: cbc7 5fbd 05ba 8bbe d63a 8a3e e6d4 bfbe
000001a0: 1805 f33e 97d2 88be e587 1d3e beeb 003e
000001b0: bf97 df3e 104f f83e 5667 723e 2bec f2bd
000001c0: 1dc4 563e 85ac e9be 7d3a a93c 1973 bfbe
000001d0: 688c 9e3d e32c 8e3d 3acf 763e b5f6 e13d
000001e0: 486a aa3c e4e0 253e 1b6c efbc eb28 ab3e
000001f0: 84fd f9bd 07d9 cebd cb94 aabe 648a 08be
00000200: a48e ff3d 2e70 ac3d ce10 dabc 6ffe 62be
00000210: 0c3d 813d 1f08 8bbe 9c0a 9bbe 24c9 34bd
00000220: b28b bcbe b797 ea3e eada 453e f181 3fbe
00000230: d3f2 50be 338b a23e 4a69 3abc 38ce 89be
00000240: 16dd ecbe 9078 abbe 34ab b43d 3109 a5be
00000250: 3a78 d8be 9b78 0abe c3ea 12bc c812 9fbe
00000260: 9146 273e 58d3 41bc 91d5 57be eca7 fbbd
00000270: 215e 65be 35e4 acbd b349 6d3d 0b86 ce3e
00000280: 0d75 d6ba fbb6 f5be 4d65 cfbe 7cb6 0c3e
00000290: 85de 8e3d 1898 0d3e d9ab 723d 2279 9c3e
000002a0: 1c72 e23e a61c a93e bc8b 923e 758d a03e
000002b0: faab 433e 0334 913e 3614 f7be 04d6 00be
000002c0: 7f50 a3bd 1acb 183e bd60 f9be 5b2e df3e
000002d0: 082e 123d 0b6f 9bbd 8f14 853e 90ee d93e
000002e0: ea72 373d f1cb e23c 19ae fd3e ad1d 9ebd
000002f0: 60da 88be ecab 453e 8ce6 04be d3e7 db3e
00000300: f664 62be e34a 9dbe a2b5 3fbe cdb6 c03e
00000310: 9f2b febe 6f84 fbbe 65b1 5a3e 9835 b7be
00000320: 0e29 c1be d29a 813d f2b7 ed3c 71f3 e0be
00000330: cf5c fcbe 92de 50be 3a7b fa3e 993e da3e
00000340: 18c8 283e 8483 e3be 8bc6 883c 0334 f1bd
00000350: 602c e2be 48e1 213e aeb5 f6be 9fa0 adbe
00000360: a45f 8abd d356 433e 55db b8be 0172 d43e
00000370: 14db d73e b792 623c d246 873e 872a 0b3e
00000380: 53d1 283e 2f89 f9be 8048 76be 9461 79be
00000390: 2a90 85bc 9660 d7be d06a a83e a480 093e
000003a0: 86a1 7dbd d8b3 f0be 309e d73e 7586 dcbe
000003b0: c469 df3e 31e3 4a3e 2fde a03e c3ef b53e
000003c0: 4406 b9be 47c7 39be da36 843d 1f62 b5bd
000003d0: fbf1 1fbe 9bd6 dc3e 97e9 9a3e c413 f93d
000003e0: fb9a d6be 211d ad3d daca c53e 35e5 483e
000003f0: 9d32 7cbd 60a5 12be 562b 543e 7fbb e23e
0.21908918 -0.062386528 0.018901378 -0.109195724 -0.10663478 0.2770544 0.035025924 -0.09930761
0.41210768 -0.33969066 -0.003229034 -0.19527368 -0.23396094 0.23686036 0.45082852 -0.20864812
0.013843973 0.2124399 0.13461432 0.36531824 -0.21513498 -0.03300059 0.033846352 0.1130401
0.27881405 0.33765182 0.11012434 0.2916784 0.29566997 -0.153384 0.49718025 -0.4206298
0.018988758 -0.17005539 0.22671562 -0.29116854 0.31598234 -0.16601399 0.29576263 -0.105300374
-0.42488572 -0.46059948 0.058920883 -0.29871148 -0.21669582 0.4117672 0.0501817 0.48280746
0.21710627 0.2374576 -0.35376853 0.11671175 -0.19697125 -0.088663764 -0.40460265 0.3589926
-0.24144354 -0.13457002 -0.13140775 -0.44148833 0.09528049 0.028354734 -0.4117992 -0.4326342
-0.3506754 -0.16992581 -0.41276264 -0.12776619 -0.457046 -0.18007192 0.47517958 0.33548036
0.47837648 0.07920567 0.14418265 -0.15282232 -0.26507407 0.47775275 0.40432638 0.29126042
0.39908785 -0.33174533 -0.21431102 -0.30888316 0.33089396 -0.097186655 0.17299294 -0.040108085
-0.19845074 0.3056991 -0.31996757 0.3996287 -0.25959408 -0.37266403 -0.34154925 -0.40533665
-0.1505475 0.10764446 0.050081093 -0.46989426 -0.054633897 -0.2729036 0.26998013 -0.37467116
0.47464824 -0.26723167 0.15383871 0.12589929 0.4367046 0.4849782 0.23672232 -0.11861452
0.20973249 -0.45639434 0.020657772 -0.373925 0.07741624 0.06942155 0.24102488 0.11033384
0.020802632 0.1619907 -0.029226353 0.33429655 -0.122065574 -0.100999884 -0.33316645 -0.13334042
0.124783784 0.08419834 -0.026619341 -0.22167371 0.06310472 -0.27154633 -0.30281532 -0.044137135
-0.3682533 0.45818874 0.1932179 -0.18701912 -0.2040513 0.31746826 -0.011377642 -0.26915145
-0.46262425 -0.3349042 0.08821717 -0.32233575 -0.42279226 -0.1352257 -0.008967104 -0.31069016
0.16335513 -0.011830173 -0.21077563 -0.12287888 -0.22399189 -0.084419645 0.057931613 0.40336642
-0.0016361788 -0.47991166 -0.40506974 0.13741487 0.06976036 0.1382755 0.059245918 0.30561167
0.44227684 0.3302967 0.28622234 0.31357923 0.19108573 0.28359994 -0.48257607 -0.1258164
-0.07974338 0.14921227 -0.48706618 0.43590054 0.03568843 -0.07589539 0.25992247 0.4256482
0.044787325 0.027685137 0.49546888 -0.07720504 -0.26729107 0.19303864 -0.12978572 0.42950305
-0.22108826 -0.30721197 -0.18721631 0.37639466 -0.49642655 -0.49124476 0.21356733 -0.35783076
-0.37726635 0.06328358 0.029018376 -0.4393573 -0.49289557 -0.20397404 0.4892214 0.42625883
0.1648258 -0.44436276 0.016696235 -0.117774986 -0.4417448 0.15808594 -0.48185486 -0.33911607
-0.06756523 0.1907609 -0.36104837 0.41493228 0.4215933 0.013828925 0.2642122 0.13590442
0.16486101 -0.48737475 -0.24051094 -0.2435363 -0.016304094 -0.42065877 0.3289399 0.13427979
-0.06192162 -0.4701221 0.42112875 -0.43071333 0.4363538 0.19813229 0.31419513 0.35534486
-0.36137593 -0.18142425 0.064557746 -0.08856606 -0.15619652 0.4313248 0.3025634 0.12161973
-0.41915116 0.084528215 0.38631326 0.19618686 -0.061571706 -0.14320898 0.20719656 0.44283673

gnn.gnn_node.convs.0.linear.bias f4 [128]
00000000: 251b eabc 6226 2dbe 82c3 dabe 4588 8c3e
00000010: 8434 c53e 7948 b5be 641b b5be b68d e3be
00000020: 0749 333e 6a94 e2be 64d1 b23e 88a5 ecbe
00000030: a85c be3e d029 ab3e 1461 5abe 57ce a73e
00000040: f8db 613e dae8 77bd 461b cabe f110 6f3c
00000050: 7aa4 aabe 5ee2 f23e 62da 41be 43a1 46bd
00000060: 7ab4 da3e 41cb 83be 8da7 2dbe 0616 a03e
00000070: cdc6 6f3e 1204 41bd 1523 0d3e b120 dcbe
00000080: 186d d13e 9930 5e3c 9950 0e3e dfcc c63e
00000090: ab3d 4ebe 2417 d33e 44f0 c5bc f72f e7bc
000000a0: 81d1 febe 32d9 92bd 6302 dabd a2ca ad3e
000000b0: 0129 793d b804 a9be b675 89be 3b62 46be
000000c0: 5cb4 babe b85e d7be c6af 8e3e e517 d43d
000000d0: 563a 103e 5ecf 1fbe 72cf 823e 40ec 983e
000000e0: ee1b 223e d2e6 9f3e 587d bb3e 79e1 e3bc
000000f0: 937e 013d 9023 74bd d11a 933c 4734 6c3e
00000100: 0990 f9be c315 abbd 472b 15bd 940d 9b3e
00000110: b8c2 a9be 7ee4 ffbe b7ac cbbc d731 a2bd
00000120: 6cfa e3bc 72a7 11be c25b e93e 523b 543d
00000130: 9308 d13e 186c 87be eed6 31be 260c a6be
00000140: a266 d13d 0960 bc3d e87b ed3e 1837 82be
00000150: 8a87 a83e c80d 4dbe 7c88 ae3e 588c 4cbd
00000160: f08a ee3e 841f bb3e 0a68 8f3e a413 463e
00000170: 57ef 543b 7ecf c8be 7a68 db3d f473 e0be
00000180: cfa2 aebe e928 9e3d 0dbc 5d3e 4a85 be3e
00000190: 95e4 0dbc 5967 14be 0755 93be b6bb 89be
000001a0: 9f29 f63e 9dea d5bd 5c0a 223b cc13 4b3e
000001b0: bf05 92be 4526 9abe eb77 f5be cc6a b8be
000001c0: 8229 cebe 3081 b1be e064 c03e 94a3 c9be
000001d0: e9b9 d23d 2efe 573e 2649 b53e 282c 353e
000001e0: a51b 31be 670d 3ebe 711b 86be 1e26 debd
000001f0: 1db3 e33e f650 303c b1bb bbbe 7bd3 abbe
-0.028577397 -0.16909173 -0.42727286 0.27447715 0.3851663 -0.35406855 -0.3537246 -0.44444054
0.17508326 -0.44253856 0.34925377 -0.4622004 0.37180066 0.33430338 -0.21326095 0.32774612
0.22056568 -0.0605248 -0.39473933 0.0145914415 -0.3332861 0.4743833 -0.18930963 -0.048493635
0.42715818 -0.25741008 -0.16958447 0.31266803 0.2341568 -0.047123022 0.13782914 -0.42993692
0.40903544 0.013561391 0.13897933 0.3882818 -0.20140712 0.41228592 -0.02416242 -0.028221114
-0.49769214 -0.07170333 -0.106449865 0.3394366 0.06083012 -0.33011413 -0.2684762 -0.1937341
-0.36465728 -0.42064452 0.2786848 0.1035612 0.14084753 -0.15606448 0.25548893 0.29867744
0.15830967 0.3123079 0.36619067 -0.027817475 0.03161485 -0.059604228 0.017957123 0.23066817
-0.48742703 -0.0835376 -0.036418226 0.30283797 -0.3315637 -0.49979013 -0.02486263 -0.079196624
-0.027829371 -0.14224032 0.45577818 0.051814385 0.40826854 -0.26449656 -0.17367145 -0.32431144
0.10224654 0.09198005 0.46383595 -0.25432658 0.32915908 -0.20024788 0.34088504 -0.04993853
0.46590376 0.36547482 0.28009063 0.1934343 0.003249129 -0.39220804 0.10713287 -0.43838465
-0.34108588 0.07722647 0.21653767 0.37211066 -0.008660455 -0.14492549 -0.28775808 -0.26901025
0.4807863 -0.104451396 0.0024725413 0.1983177 -0.2852001 -0.30107322 -0.47943053 -0.3601898
-0.40266043 -0.34668875 0.37576962 -0.39382613 0.10289366 0.21093056 0.3540737 0.17692626
-0.17295702 -0.185598 -0.2619281 -0.10847114 0.4447259 0.01076149 -0.36666635 -0.33559784

gnn.gnn_node.convs.1.linear.weight f4 [128, 128]
00000000: 9a3c 89bd e924 58bd ae71 aebc d3c6 4abd
00000010: 042d 13bd 914a 13bd 087b 4b3c ffd7 3c3d
00000020: 6aa0 8a3d 3407 73bd f919 17bd b9c4 21bc
00000030: 4628 87bd e530 883d 9257 35bc bf9d 1c3d
00000040: d247 7b3c 1b61 a33c 8fcf d1bc 113f 10bc
00000050: 3305 04bd 35d3 b0bd 711b 57bd e50a 6a3d
00000060: 00f4 70bd 26c9 a53c 1c84 abbd b5e8 963d
00000070: bbfe 883c 8ada 69b9 14f1 ed3c e0ed 5c3b
00000080: a4c7 b53a 1ef3 f53c ddbf 983d d0b7 70bc
00000090: 6817 813d 97c6 ebbc 9ea5 4ebd 7f49 5abd
000000a0: 2f7d 71bd 2803 af3b fb46 8f3c 4a91 6e3d
000000b0: 001d d93c f7fa 89bd 8041 603c f0ed 77bd
000000c0: 0e5e 93bd bfb9 1d3d 5580 1dbd e446 79bd
000000d0: abfb 90bb a8aa 9c3d 5b02 a73b 957a aebd
000000e0: 897b 8f3b 4fe7 a0bb 3020 473d c3a0 ae3d
000000f0: 7e27 5a3d 7068 143c d5e0 61bd 5909 eabb
00000100: 5e1d 95bd 0b38 27bd 6bd3 55bd 153c d6bc
00000110: 7dad 813d fa3b fa3c 3410 2c3d 1b50 453d
00000120: 123b 86bd 09d7 86bc 8742 0c3d 18bc 65bd
00000130: e3c3 8dbd 8aec 90bc c451 3d3c 3da8 af3d
00000140: d0ef 0abc 0913 90bd 3da2 b2bc 9a95 99bc
00000150: 8f15 a8bd 5306 a93c ea4e 943d 5d0d ad3d
00000160: 685f 93bd 0577 833c db60 2abd 1a2d 70bd
00000170: ff9e 5e3d 460e 4abd 9573 943d 6e04 12bc
00000180: 7ded 463d 5d23 b53d dfd1 293c 4afe 89bc
00000190: 6c74 51bd b1e8 abbc 92ac 0fbd 43cb a4bd
000001a0: 8c6f 52bd 0020 a8bd 6a52 a73d 43e6 ce3c
000001b0: 02c1 6bbd 6f89 c93c 14c6 82bd 9ed1 94bd
000001c0: dc4d 913d 9fd1 0f3d 6d7b ae3d 3732 b139
000001d0: e7b1 3cbc 5465 32bd 9607 c03c d966 2cbd
000001e0: 6c3a 573d e948 d93b da23 283c a616 44bd
000001f0: e0ee a03c 3ff4 ad3d 5576 68bd c5cd b8bc
00000200: a9c4 333d 7906 9cbd 2a60 9b3c 811c 743d
00000210: 0053 17bd 57da a4bd 7172 7e3d 9600 afbc
00000220: 1295 3b3d c8f4 8ebc 77d5 313d b15e a73d
00000230: b527 4fbd 5cdf 503d e50e a83d 668f 1abc
00000240: a57e 44bd 7d48 833d 8e20 35bd d044 b73b
00000250: 8b72 b5bd 72ac abbd 47e8 303c 9e82 753d
00000260: 4a5b 84bd 2685 533d 6408 353d 0893 80bd
00000270: 2415 5b3c 719a 5c3d 8d11 373d 4445 e2bc
00000280: 321a 803d adfd a23c 6df4 b3bb f39c 88bd
00000290: 76da 0f3d c6b2 6ebd b155 25bb 321b f6bc
000002a0: be25 393b 5768 a03c c6d2 9cbd 6f7e f4bb
000002b0: a1d9 81bd c71b cb3c ef8d 6b3d 9396 a5bb
000002c0: 7cbf de3c 88cf 1c3d 3a93 dbbc 83f2 9bbc
000002d0: 2ade 1f3b d059 54bd 2d7c 2bbc 3bb7 fdbc
000002e0: 83ef 603d 9dc4 a73c 9263 94bc 149f 053d
000002f0: 0e8a 753d d737 5b3b ca32 32bc 0d4d 42bd
00000300: e872 7ebd 78b6 37bd c004 113d c29a 6e3b
00000310: 124a b7bc 38a3 5dbd e422 97bc bf49 963d
00000320: d85d 19bd 408f 01bd a10d 873d 583d 393c
00000330: 583f 78bb 0582 a63d 36ae cbbc d2c6 183d
00000340: d69a 92bc 4ad6 8bbd 10e2 b2bd 01be a3bd
00000350: 1686 8fba 9541 6b3d 4e26 05bd 7862 393c
00000360: 5d87 9d3d 09e5 953d 5210 9d3d 8c54 783b
00000370: 2376 88bd 6c60 87bd 43e6 c7bc 9a2b 54bd
00000380: 7fed 94bd fc0d abbd a431 f0bc abc2 373d
00000390: d946 643d 03fc f03c 21a3 a23d 970a 263d
000003a0: e173 c0bb 4c1a 2a3d 13af 36bd 0cab 66b9
000003b0: 6c48 a53d 3276 f0bc af51 acbd 2bf8 afbc
000003c0: a92f a63c 3874 4f3d 25db abbd 52ac b4bc
000003d0: 9dca 14bd 5943 663d 7fed e93c 745b 943d
000003e0: e7a8 d33b 39ae 7abc d8af 903d 7a68 973c
000003f0: 6b5a 8f3d 287f 2e3d 654c b83c 41f0 1f3d
-0.06701012 -0.052769575 -0.021294441 -0.04950602 -0.035931602 -0.035959784 0.01241947 0.046104427
0.06768878 -0.05933304 -0.036890004 -0.0098735625 -0.065994784 0.06649951 -0.011068242 0.038236376
0.0153369475 0.019943764 -0.025611667 -0.008804099 -0.03223152 -0.086340345 -0.052516405 0.057139296
-0.058826447 0.020237517 -0.08374807 0.07368604 0.016723027 -0.00022302024 0.02904562 0.003371112
0.0013868702 0.030023154 0.0745847 -0.014692262 0.063032925 -0.028781218 -0.050450914 -0.053292748
-0.058957275 0.0053409524 0.0174899 0.058244027 0.026503086 -0.06737321 0.013687491 -0.06052965
-0.07195674 0.03850722 -0.038452465 -0.060858622 -0.0044245324 0.076497376 0.0050967163 -0.085194744
0.00437874 -0.0049103866 0.04861468 0.085267566 0.05326032 0.009058103 -0.055146057 -0.0071422276
-0.07280992 -0.04082493 -0.052203577 -0.026151696 0.063319184 0.030546177 0.04200764 0.048172098
-0.065542355 -0.016459959 0.034243133 -0.056087583 -0.06922128 -0.017690916 0.011555139 0.08577011
-0.008480027 -0.07034881 -0.021805877 -0.018748093 -0.08207237 0.020632898 0.07241614 0.084498145
-0.07195932 0.016047964 -0.041596275 -0.058636762 0.05435085 -0.04933002 0.07248608 -0.008912189
0.04856633 0.08844636 0.010364979 -0.016844887 -0.05113642 -0.02098498 -0.035076685 -0.080465816
-0.05137591 -0.082092285 0.08170016 0.025256282 -0.057557113 0.024601666 -0.06385437 -0.07266544
0.070949286 0.03511202 0.08519635 0.00033797484 -0.011517025 -0.043553665 0.023441117 -0.04209027
0.05254595 0.006631006 0.010262454 -0.04787316 0.019645154 0.08493852 -0.056753475 -0.022559056
0.04388872 -0.07618422 0.018966753 0.059597496 -0.03694439 -0.080494575 0.06212086 -0.021362584
0.04579646 -0.017450705 0.043416467 0.08172358 -0.050574977 0.050994262 0.08205966 -0.009433603
-0.04797234 0.064103104 -0.0442205 0.00559292 -0.08859738 -0.08382501 0.010797567 0.05993902
-0.064627245 0.051640652 0.044197455 -0.06278044 0.01337174 0.053858224 0.044694472 -0.027620919
0.06254996 0.019896353 -0.0054917843 -0.06670561 0.03512045 -0.05827596 -0.0025228078 -0.030042265
0.0028251256 0.019581003 -0.07657389 -0.007461361 -0.063403375 0.024793519 0.057508405 -0.0050533502
0.027190916 0.038283855 -0.026803602 -0.019036537 0.0024393895 -0.051843464 -0.0104666175 -0.03097116
0.054915916 0.020479495 -0.018113885 0.03262241 0.059946112 0.0033450031 -0.010876367 -0.047436763
-0.062121302 -0.04485175 0.03540492 0.003640816 -0.022374187 -0.054110736 -0.018449254 0.07338285
-0.037443012 -0.031630754 0.065943964 0.011306129 -0.0037879553 0.08130268 -0.024863344 0.037298985
-0.017896097 -0.06827982 -0.08734524 -0.07995225 -0.0010949995 0.05743559 -0.032507233 0.011314981
0.07691834 0.073190756 0.076691285 0.003789219 -0.06663158 -0.06610188 -0.02440179 -0.051799394
-0.07271861 -0.08352277 -0.029320545 0.044863384 0.055731628 0.029417044 0.079412706 0.040537443
-0.005873189 0.041528985 -0.044600558 -0.00021998229 0.08070454 -0.029353235 -0.084140174 -0.02148064
0.020286398 0.050647944 -0.08391408 -0.022054825 -0.03632604 0.05621657 0.02855563 0.07244006
0.0064593437 -0.015300327 0.070647895 0.018482435 0.06999668 0.042601734 0.022497365 0.039047483

gnn.gnn_node.convs.1.linear.bias f4 [128]
00000000: f3f0 0b3d 4c9d 853d e0d5 4dbd 6386 a23c
00000010: 0287 943d 71c3 403c 612f 8a3c 6d52 94bc
00000020: 563c 8dbd 6c18 80bd bda6 943d 3382 b9bc
00000030: 1be2 9d3d e5af 91bd 55f9 99bc 56a6 b6bd
00000040: 06cd fabc c253 cabc 7a13 f0bc dd92 923d
00000050: 06aa 16bc 7f31 af3c 7892 983c 9ca9 c2bc
00000060: 8fbe a13d 3657 dab7 5b58 a73d 42ac 4b3d
00000070: 37db 833d db6c ecb9 4e97 6a3d 26af adbd
00000080: 800a e5bc f5ea b0bd a360 45bd cc0e b63d
00000090: e3da 623d b786 433d cd11 95bd d6c1 943d
000000a0: 9332 8bbc 0dc9 93bb 874f a63d 2a82 993d
000000b0: 3b7b cd3c bb6e f13c 516b f03c 6f6c 083c
000000c0: d77b 9a3d 92a1 8a3d cf8e aebd b10f b53b
000000d0: c5c0 39bd be15 05bd fc89 0ebd 8329 843d
000000e0: b275 f7bc ed0e 85bd ae2f 833d 47a4 d1bc
000000f0: c43a 14bd 7236 27bd 70d2 55bd 526a d83b
00000100: e1a6 133d 4a15 48bd eba5 833d 2412 64bd
00000110: a005 083d 3248 88bd 31f0 993d d31a c73b
00000120: ec57 a5bd 75ca a8bd 484d 5abd 9357 34bd
00000130: 4c12 163d 0f00 babc ac82 43bd e51e 01bd
00000140: af6c 0cbc 3266 a03d 73aa 3f3d 4df0 ad3d
00000150: c29c 1b3d 87e3 b2bd 1557 55bd a41b 693d
00000160: 1940 5b3d 459f ce3c 6aca 463d b670 8b3d
00000170: 611a a0bd 19d0 96ba 0cba 003d 8313 953d
00000180: c407 993d dad9 543d dc94 7c3b c6a9 013d
00000190: 82f4 983d 3edc b93c 7e37 b0bd 67c7 d2bc
000001a0: 2eb4 89bc 1266 aabd b1ea ff3c cb20 ff3b
000001b0: b8c9 9dbd 981b 613d da53 25bd 25b8 97bd
000001c0: a8c3 2cbd cf7c b0bd 7e5e 64bb 9606 69bd
000001d0: 476c 89bc 67df 163d 6646 47bd bf1a aabb
000001e0: 78c1 cfbb 1d6f adbc d53b 2a3d 1e80 443d
000001f0: d5f6 53bd 872d b0bd 4d00 17bd 738d a4bd
0.034165334 0.065241426 -0.050252795 0.019839471 0.07252313 0.011765347 0.016868295 -0.01810571
-0.06896274 -0.06254658 0.07258365 -0.022645092 0.07709142 -0.07113627 -0.018795649 -0.08918445
-0.03061534 -0.024698142 -0.029306162 0.07156918 -0.00919581 0.021385906 0.01862453 -0.023762517
0.07897674 -2.6028236e-05 0.08171149 0.049724825 0.06438296 -0.0004509453 0.0572732 -0.084806725
-0.027959108 -0.086385645 -0.048187863 0.08889541 0.055384528 0.047735896 -0.07278786 0.07263534
-0.01699189 -0.004510051 0.081206374 0.0749553 0.025083175 0.029471746 0.029348047 0.008326634
0.07543152 0.06769098 -0.08523332 0.005525552 -0.045349855 -0.032491438 -0.03479956 0.0645323
-0.030207489 -0.064969875 0.064055786 -0.025591029 -0.036188856 -0.040823407 -0.052202642 0.0066044712
0.03604782 -0.048848428 0.06428131 -0.055681363 0.03320849 -0.06654395 0.07516516 0.0060761957
-0.080734104 -0.082417406 -0.053296357 -0.04402883 0.036638543 -0.022705106 -0.04773204 -0.031523604
-0.008570834 0.07831992 0.046793412 0.08493099 0.037991293 -0.08734804 -0.052085 0.056911126
0.053527925 0.02522243 0.04853288 0.06808607 -0.078175314 -0.001150611 0.031427428 0.07279112
0.07472184 0.051965572 0.0038540876 0.03165605 0.07468511 0.022688027 -0.08604334 -0.025729848
-0.01680955 -0.083202496 0.03123984 0.0077858916 -0.077044904 0.054957956 -0.04036317 -0.0740817
-0.04217878 -0.08617555 -0.003484636 -0.056891046 -0.016775263 0.036834147 -0.04865112 -0.0051911767
-0.006340202 -0.021171147 0.041560967 0.047973745 -0.05174907 -0.08602434 -0.03686552 -0.08034792

gnn.gnn_node.batch_norms.0.weight f4 [128]
00000000: 7932 803f e37f 7f3f eb9b 7f3f f5a6 7f3f
00000010: 79eb 7f3f 9d8a 7f3f db33 803f 2aa9 7f3f
00000020: 557e 7f3f d1a6 7f3f fdad 7f3f 413b 803f
00000030: 073f 803f 6030 803f 898c 7f3f 5f9f 7f3f
00000040: c19d 7f3f 3d29 803f 3daa 7f3f c0b5 7f3f
00000050: 2635 803f 080a 803f e2b1 7f3f 022a 803f
00000060: 7638 803f f42c 803f 3ac8 7f3f 8341 803f
00000070: 87cc 7f3f 671f 803f b620 803f 8424 803f
00000080: 519c 7f3f cd2a 803f 57a3 7f3f e83d 803f
00000090: ea34 803f cea9 7f3f 381f 803f afb7 7f3f
000000a0: 2ea9 7f3f 629c 7f3f 561e 803f 821d 803f
000000b0: b225 803f 5dcc 7f3f ae3b 803f 0827 803f
000000c0: e598 7f3f 7fab 7f3f 2b9d 7f3f 69a5 7f3f
000000d0: ea32 803f c52e 803f 68ad 7f3f e122 803f
000000e0: 1686 7f3f 3f84 7f3f 943c 803f 3ece 7f3f
000000f0: 9241 803f 6537 803f abaf 7f3f 012b 803f
00000100: fd1e 803f a396 7f3f 6e41 803f 761e 803f
00000110: 07b3 7f3f b3a1 7f3f 9f3a 803f f88f 7f3f
00000120: 17b6 7f3f e9af 7f3f 8041 803f c386 7f3f
00000130: cfb3 7f3f 4788 7f3f 4c2b 803f a832 803f
00000140: b635 803f a6bd 7f3f 7a1f 803f 677e 7f3f
00000150: 5733 803f 990f 803f 3528 803f 0d41 803f
00000160: 15ab 7f3f 2d3e 803f 3b31 803f 4128 803f
00000170: d07d 7f3f 4409 803f e00e 803f d7b8 7f3f
00000180: e32a 803f 427d 7f3f 5a2c 803f 5fb1 7f3f
00000190: 9c3c 803f 6c9a 7f3f 7e9c 7f3f d39a 7f3f
000001a0: 287d 7f3f c57d 7f3f 51de 7f3f b78b 7f3f
000001b0: 4b34 803f 5b10 803f b536 803f 2289 7f3f
000001c0: 0eb7 7f3f 0b2a 803f db30 803f 50ba 7f3f
000001d0: 8913 803f 0c3d 803f 3896 7f3f e594 7f3f
000001e0: 6828 803f 3fc2 7f3f 5d41 803f d62e 803f
000001f0: ac9a 7f3f 299e 7f3f c238 803f 21a1 7f3f
1.0015403 0.99804515 0.99847287 0.9986413 0.9996868 0.9982088 1.0015825 0.998675
0.9980214 0.99863917 0.9987486 1.0018083 1.0019234 1.0014763 0.99823815 0.99852556
0.9985009 1.0012585 0.9986914 0.99886703 1.001622 1.0003061 0.998808 1.001282
1.001723 1.0013719 0.99914896 1.0019993 0.9992146 1.0009583 1.0009983 1.0011144
0.99847895 1.0013062 0.9985861 1.0018892 1.0016148 0.99868476 1.0009527 0.99889654
0.9986752 0.99847996 1.0009258 1.0009005 1.0011504 0.9992121 1.0018213 1.0011911
0.99842674 0.9987106 0.99849194 0.9986177 1.0015538 1.0014273 0.9987397 1.0010644
0.99813974 0.99811167 1.0018487 0.99924076 1.002001 1.0016905 0.99877423 1.0013124
1.0009457 0.9983923 1.0019968 1.0009296 0.9988255 0.9985611 1.001789 0.99829054
0.9988722 0.9987779 1.0019989 0.99815005 0.9988374 0.9981732 1.0013213 1.0015459
1.0016391 0.99898756 1.0009606 0.9980225 1.0015668 1.000476 1.001227 1.0019852
0.99870425 1.0018975 1.0015024 1.0012285 0.9980135 1.0002828 1.000454 0.9989142
1.0013088 0.99800503 1.0013535 0.9988002 1.0018497 0.99845004 0.99848163 0.9984562
0.9980035 0.99801284 0.999486 0.9982256 1.0015959 1.0004991 1.0016695 0.99818623
0.99888694 1.001283 1.001491 0.99893665 1.0005962 1.001863 0.9983859 0.9983657
1.0012331 0.9990577 1.0019947 1.0014293 0.99845386 0.9985071 1.0017321 0.9985524

gnn.gnn_node.batch_norms.0.bias f4 [128]
00000000: a906 ca3a da11 c33a 60a2 c6ba 9c73 f9b9
00000010: 8251 dbba 4ae2 02bb 08f2 bc3a 5dfb b2ba
00000020: 9d93 a83a 3573 b1ba 147b 233a a2a4 e13a
00000030: 13ad c23a b1ce f73a 25f1 dbba e3ac a5ba
00000040: e530 ffba e88a 8d3a 4854 afba bbee 8eba
00000050: 7b08 e13a 8a33 e4ba 22a5 c3ba 5d40 a03a
00000060: 13a3 8d3a 5062 ba3a 6f79 36ba afb4 98ba
00000070: 93dc 023b 1734 9439 1fb5 c83a b8af 8f3a
00000080: cf5f dc3a 744c af3a 757f c1ba 547c 9a3a
00000090: cfd9 d03a 769b 64ba 4bd5 823a e45b a4ba
000000a0: 5d9e b7ba 312e aeba c819 983a ca93 ed3a
000000b0: f2ad d63a 2ce4 a0ba ad76 b73a 53c2 ec3a
000000c0: 0b9f bdba d4cc a7ba 85f5 ef3a 9f13 f3ba
000000d0: d923 9a3a fe89 cb3a a4c3 a2ba 3087 8f3a
000000e0: b772 d5ba 1b29 97b9 4c87 313a 0ad7 95ba
000000f0: 1824 b03a 29dc baba d0b9 ccba 7c70 ac3a
00000100: a6d5 813a 7e25 d8ba 7222 013b 89c1 343a
00000110: fe70 9fba 51b2 cbba 3292 b4ba 9893 ddba
00000120: 8e55 b7ba 3dae b7ba b319 033b 7234 3a3a
00000130: 22c7 fc3a edec e8ba d934 ca3a e24a d53a
00000140: 4308 c9ba e102 84ba ef49 0e3a 3bf6 fcba
00000150: 7613 4d3a 9ced 0a3a d837 fcba 8ece 023b
00000160: a448 77ba 51fb bd3a 40eb a33a 337c fdba
00000170: 0f07 fbba 6ae0 dc39 a297 e0ba ec84 98ba
00000180: 956e a73a 5656 f3ba 3181 803a d877 ac3a
00000190: 04a1 ea3a 49b6 ccba c321 c9ba 79a0 ccba
000001a0: b9e4 d83a f69c bc3a f9dc f23a 0ce5 8aba
000001b0: 2fc2 d33a e151 803a df09 b63a cf8f e0ba
000001c0: ff79 8bba 25fa ac3a 65d5 afba 79ca ebba
000001d0: d123 03bb 0d24 033b c1a6 00bb 9843 e8ba
000001e0: b85b b83a 343c baba f80a 033b 4802 b23a
000001f0: 170a fe3a ee72 f73a 0b9a f63a 00fb b4ba
0.0015413362 0.001488264 -0.0015154593 -0.00047579117 -0.0016732665 -0.0019971305 0.0014415393 -0.0013655234
0.0012861375 -0.0013538363 0.00062362966 0.0017215202 0.0014852606 0.0018906203 -0.0016780241 -0.0012640025
-0.0019469528 0.0010798844 -0.0013376558 -0.0010904887 0.0017168665 -0.0017410379 -0.0014926533 0.0012226213
0.0010806046 0.0014219973 -0.0006960844 -0.0011650528 0.0019967898 0.0002826757 0.0015312767 0.0010962402
0.0016813221 0.0013374225 -0.0014762717 0.001178632 0.0015934053 -0.0008720675 0.0009981779 -0.0012539593
-0.0014008988 -0.0013288913 0.0011604363 0.001812571 0.0016378744 -0.0012275032 0.001399716 0.0018063284
-0.0014466954 -0.0012802132 0.0018307423 -0.0018545276 0.0011759951 0.0015528796 -0.0012417925 0.0010950323
-0.0016284798 -0.0002883159 0.0006772175 -0.0011431884 0.0013438491 -0.0014256287 -0.0015619341 0.0013156082
0.0009905591 -0.0016490666 0.001970437 0.0006895294 -0.0012164412 -0.0015540813 -0.001377648 -0.0016904948
-0.0013987289 -0.0014013719 0.0020004332 0.0007103152 0.001928542 -0.0017770805 0.0015427127 0.0016272927
-0.0015337545 -0.0010071659 0.0005427887 -0.0019299457 0.00078230293 0.0005299689 -0.0019242717 0.0019959542
-0.00094331265 0.0014494454 0.0012506023 -0.0019339382 -0.0019151884 0.0004212887 -0.0017135034 -0.0011636293
0.0012774045 -0.0018565159 0.0009804127 0.0013158275 0.001790077 -0.001561829 -0.0015345145 -0.001561179
0.0016547657 0.001439004 0.001852899 -0.0010596826 0.0016155894 0.0009790027 0.001388844 -0.0017132702
-0.0010641216 0.0013197107 -0.0013415037 -0.0017989419 -0.0020010362 0.0020010502 -0.0019630643 -0.001772034
0.001406542 -0.0014208616 0.0019995552 0.0013581002 0.0019381669 0.0018878856 0.0018814219 -0.0013807714

gnn.gnn_node.batch_norms.0.running_mean f4 [128]
00000000: 5956 34bd 22f2 92bc e51f 10be 97fa 2f3d
00000010: 56c8 d83d 6eff 5cbc 661f 11bd c793 20be
00000020: 8c29 a0bc 8eb0 f0bd 4c68 3b3d 703f ff3c
00000030: b45e 543d dd2e ec3d 91bf 82bd 38b8 87bc
00000040: 8f13 513d 8b27 a13d c6e0 02be c48f a33d
00000050: 3c04 0fbe 747d be3c 7de9 623d 7b1c 1ebd
00000060: 8702 a63c c812 b3bd 0d12 8bbd 0a33 01bc
00000070: a035 4bbd 3a51 3cba 7b8c 843d de69 88bd
00000080: adf8 963c 506f 8abc 77b2 433d 929f 513d
00000090: d700 ebbc 665c 7d3d e198 16bd c1b5 903d
000000a0: 3da0 82bd 7254 c73c 123b 87bc e611 a83c
000000b0: 07c9 a33d 395b 4b3a 57eb 60bd 6aaf 803d
000000c0: 1918 5d3c 1d84 84bd 1848 d43c 6b87 ef3d
000000d0: 83d1 d0bc 601f 3bbc 000f d53d b88a 4f3c
000000e0: 529b 1ebd d695 533d 4294 25bc 7940 2ebb
000000f0: 0168 e23c 1a3d 0c3d 92af 993d 4fd3 bc3d
00000100: 4420 2cbd 10eb 7abc 3d3d 1d3c 6156 2b3d
00000110: 7323 d9bd 4755 5ebd 542d 24b9 acc9 8fbc
00000120: 4691 9b3b 0a74 fb3c 1455 083d f395 65bd
00000130: fe75 853d 6268 12bd 1ab1 683a a425 473c
00000140: 1907 9c3d c428 8ebd 0851 c33c 95dc 8c3c
00000150: b61e d43d 3663 b7bd 7879 dd3d 32ae bb3c
00000160: 168a 5c3d 1955 c93d 2990 3fbb cd81 413d
00000170: fa3d 143d d417 b0bd 901c db3c bead fcbd
00000180: 2f7e c5bc 5793 d83c 7058 8a3c c29f af3d
00000190: 107e c83d 2866 1c3d 12ef 97bd 722c 8639
000001a0: 61c9 173e e9ff 1dbc 5d93 7b3d 20bc 013e
000001b0: 2923 5dbd ba94 63bd 66df 313c 7936 46bd
000001c0: 0309 7dbd 938a 863c e848 bc3d 5c70 6c3d
000001d0: 16cd 05bd c6ce 953d 885d 0f3e be7d 00bd
000001e0: 6d28 85bc 4d75 b3bd 8617 08bd 1df4 1c3d
000001f0: d50e 1d3e a85a b53d 7ffc fbbc 480d 76bd
-0.04402766 -0.017937724 -0.14074667 0.04296359 0.10585086 -0.013488634 -0.035430335 -0.15681373
-0.019551061 -0.11752425 0.045753762 0.031158179 0.05184813 0.11532376 -0.06384195 -0.016567335
0.051044043 0.0786887 -0.12781057 0.079864055 -0.13966459 0.02325318 0.055398453 -0.03860138
0.020264877 -0.087438166 -0.06790552 -0.007885704 -0.049611688 -0.00071837346 0.06472107 -0.066608176
0.018429125 -0.016898781 0.04777762 0.05117757 -0.028686924 0.061855696 -0.03676689 0.07065917
-0.06378219 0.024332259 -0.01650766 0.020516347 0.07997327 0.00077574287 -0.054911938 0.062834576
0.013494515 -0.06470511 0.025913283 0.11695751 -0.025490528 -0.011421055 0.10403252 0.0126673505
-0.038722344 0.051656567 -0.010106148 -0.0026588722 0.027637484 0.03423796 0.075041905 0.092199914
-0.04202296 -0.015314832 0.00959712 0.041830424 -0.106024645 -0.054280546 -0.00015657145 -0.01755222
0.0047475426 0.03069498 0.03328426 -0.056051206 0.06516646 -0.03574408 0.0008876488 0.01215497
0.07618541 -0.06941369 0.02384235 0.017195025 0.1035742 -0.0895447 0.10814184 0.022910211
0.053842627 0.09830684 -0.0029230213 0.04724293 0.036191918 -0.08598295 0.026747018 -0.12337826
-0.02410802 0.026437445 0.016887873 0.08575393 0.097896695 0.03818336 -0.07418646 0.00025591586
0.14822914 -0.009643533 0.061419833 0.1266942 -0.05398861 -0.05556176 0.010856485 -0.048391793
-0.061776172 0.0164235 0.09193593 0.05772434 -0.03266629 0.073148295 0.14000523 -0.031369917
-0.016254628 -0.08762608 -0.03322556 0.038318742 0.15337689 0.08855182 -0.030760048 -0.06007126

gnn.gnn_node.batch_norms.0.running_var f4 [128]
00000000: bc6a 5f3f b3dd 503f 8a3e b63f f1b5 643f
00000010: bd01 8d3f 09f2 503f caf2 603f 65a3 c23f
00000020: b173 533f 0aee 9e3f 618f 6a3f 6446 5b3f
00000030: 69c5 5f3f 609c 973f 01ea 663f cadb 543f
00000040: a9e8 6a3f d22c 803f 67bc a93f 4a59 803f
00000050: 72a9 b23f 4f02 523f 9983 683f ea98 583f
00000060: e986 5d3f ab16 813f e401 803f 00df 513f
00000070: dafe 633f 10de 4f3f 12f3 6a3f 6b85 6b3f
00000080: a723 543f 74d4 513f d414 6b3f b07a 6d3f
00000090: 66ad 533f f836 7c3f 3dcc 593f 8b0b 743f
000000a0: cb33 723f 6eeb 533f f103 593f 7b2f 533f
000000b0: f616 7d3f 3ccb 543f ece6 653f 0a35 6f3f
000000c0: 5c9d 543f f008 653f e5b9 613f a964 9b3f
000000d0: d192 553f b3d2 523f 9350 8d3f 3040 503f
000000e0: c4c3 5b3f b70c 603f 09c4 543f c12c 553f
000000f0: 9ef1 583f 6e47 593f d8fa 7d3f 8098 833f
00000100: 7549 573f f94f 533f 2c6f 503f f430 5a3f
00000110: b09d 8c3f 85e0 6b3f b375 533f 9642 593f
00000120: ab38 513f 7ef5 573f 89d8 673f ef84 693f
00000130: ba32 6a3f f689 653f 5325 523f 0a83 523f
00000140: 7b89 813f c5b4 763f 8482 593f 8918 533f
00000150: 3356 903f 4c9a 843f 69dc 943f 3281 533f
00000160: de81 603f f262 8b3f 8784 513f 5416 5d3f
00000170: 844f 5a3f 46b1 7b3f a164 543f a863 993f
00000180: 357d 523f 57f6 573f 93dd 503f 94b2 873f
00000190: 588b 8b3f 2ad3 5a3f 67a1 703f 304b 503f
000001a0: 4abd b73f e517 503f bacd 733f cb79 a13f
000001b0: a068 673f 7216 6d3f ee5f 553f 656e 663f
000001c0: 67e8 663f 8d56 533f 6e08 823f b2bb 6f3f
000001d0: 638f 5b3f 4136 743f 6d47 af3f 3f1a 5a3f
000001e0: c328 533f 869e 803f b4ef 603f 0d84 5a3f
000001f0: dbcf bd3f 3e20 863f c09a 5b3f 9ea5 693f
0.8727224 0.81588286 1.4237835 0.8934012 1.1016155 0.81619316 0.87870467 1.5206114
0.82598406 1.2416394 0.9162503 0.8565428 0.874106 1.1844597 0.9020081 0.8314787
0.9176126 1.0013678 1.3260621 1.0027249 1.3957961 0.8203477 0.908258 0.8460833
0.8653398 1.0085043 1.0000577 0.81980896 0.8906075 0.81198215 0.91777146 0.92000455
0.828669 0.819648 0.91828656 0.9276533 0.8268646 0.98521376 0.8507727 0.95330113
0.9461028 0.8278111 0.8477164 0.82494324 0.9886316 0.8312261 0.89805484 0.93440306
0.8305261 0.8946676 0.8817428 1.2140094 0.8342715 0.8235275 1.1040214 0.8134794
0.8584559 0.875194 0.83111626 0.83271414 0.8474368 0.8487462 0.9921088 1.0280914
0.8409646 0.82543904 0.81419635 0.85230947 1.0985622 0.92139465 0.8260147 0.8486723
0.81727093 0.84358966 0.9056478 0.91218466 0.9148365 0.89663637 0.820882 0.822312
1.0120081 0.9636958 0.84964776 0.8245931 1.1276306 1.0359588 1.1629764 0.8261901
0.8769816 1.0889571 0.81842846 0.86362195 0.8527758 0.9831737 0.8296605 1.1983538
0.822223 0.8436026 0.81588095 1.0601373 1.0901899 0.8547846 0.9399628 0.8136473
1.4354641 0.8128646 0.9523579 1.2615293 0.9039402 0.92612374 0.833495 0.900122
0.9019837 0.8255394 1.0158823 0.93645775 0.85765666 0.95395285 1.3693672 0.851963
0.8248407 1.0048378 0.8786576 0.85357744 1.4829057 1.047859 0.85783005 0.91268337

gnn.gnn_node.batch_norms.1.weight f4 [128]
00000000: a431 803f 24a2 7f3f 192c 803f bf2b 803f
00000010: 0dc7 7f3f 07b1 7f3f 3e19 803f e7a6 7f3f
00000020: 98a1 7f3f e996 7f3f f93f 803f 0b0c 803f
00000030: f2ab 7f3f 9d25 803f 1123 803f 5b7e 7f3f
00000040: 491d 803f e197 7f3f 148b 7f3f f3a4 7f3f
00000050: da7c 7f3f 9d2a 803f 453a 803f 33a8 7f3f
00000060: 021f 803f 3f9b 7f3f 1f9a 7f3f e791 7f3f
00000070: 4d8c 7f3f 7d27 803f 609d 7f3f 02b4 7f3f
00000080: c8bd 7f3f c2b1 7f3f a221 803f a010 803f
00000090: 4741 803f da3f 803f 753b 803f 2088 7f3f
000000a0: fc0e 803f 5232 803f 6884 7f3f f99a 7f3f
000000b0: 7f36 803f 690f 803f fd11 803f 6791 7f3f
000000c0: 4886 7f3f 1f16 803f e492 7f3f 7d88 7f3f
000000d0: 6320 803f b33a 803f cd98 7f3f ae2b 803f
000000e0: fa2d 803f 2fbd 7f3f fb21 803f 5895 7f3f
000000f0: 729f 7f3f 03ad 7f3f 272c 803f 8829 803f
00000100: 5a32 803f f325 803f e31b 803f 3f9b 7f3f
00000110: fdc0 7f3f 7c24 803f 0d1f 803f cc9e 7f3f
00000120: 9da2 7f3f 6989 7f3f db16 803f e083 7f3f
00000130: 9a1e 803f 1b1f 803f bb40 803f e296 7f3f
00000140: d432 803f fa28 803f 2818 803f a924 803f
00000150: 7e1a 803f 8397 7f3f fa84 7f3f fd1f 803f
00000160: fd94 7f3f 901c 803f 8541 803f 652e 803f
00000170: b4a4 7f3f 43a7 7f3f febd 7f3f 5b1d 803f
00000180: 5a2a 803f ec84 7f3f eca5 7f3f 829c 7f3f
00000190: a87d 7f3f a41d 803f 8e19 803f 7e0c 803f
000001a0: 1514 803f d31f 803f 1c8f 7f3f 9a99 7f3f
000001b0: 688a 7f3f fcc7 7f3f d983 7f3f 9780 7f3f
000001c0: a29b 7f3f 2f96 7f3f c226 803f f31f 803f
000001d0: f30c 803f 7e17 803f dc11 803f f215 803f
000001e0: 4721 803f f07e 7f3f 4c9d 7f3f a29d 7f3f
000001f0: 4440 803f 698d 7f3f 7721 803f a032 803f
1.0015149 0.9985678 1.0013458 1.001335 0.999131 0.998795 1.0007703 0.9986405
0.9985595 0.99839646 1.0019523 1.0003675 0.9987174 1.0011479 1.0010701 0.9980218
1.0008937 0.99841124 0.9982159 0.9986107 0.99799883 1.0013005 1.0017782 0.99866027
1.0009463 0.9984626 0.99844545 0.99832004 0.99823457 1.0012051 0.9984951 0.99884045
0.9989896 0.9988061 1.0010264 1.0005074 1.0019921 1.0019486 1.0018145 0.99817085
1.0004573 1.0015357 0.9981141 0.99845845 1.0016631 1.0004703 1.000549 0.9983124
0.9981427 1.0006751 0.9983351 0.9981764 1.0009884 1.0017914 0.9984253 1.001333
1.0014031 0.99898046 1.001037 0.99837255 0.9985267 0.9987337 1.0013474 1.0012674
1.0015366 1.0011581 1.000851 0.9984626 0.9990385 1.0011134 1.0009476 0.9985168
0.99857503 0.99819046 1.0006975 0.998106 1.0009339 1.0009493 1.0019754 0.99839604
1.0015512 1.0012505 1.0007372 1.0011188 1.0008085 0.99840564 0.9981228 1.0009762
0.99836713 1.0008717 1.0019995 1.0014158 0.9986069 0.99864596 0.9989928 1.0008959
1.0012925 0.998122 0.9986255 0.99848187 0.9980111 1.0009046 1.0007799 1.0003812
1.0006129 1.0009712 0.9982774 0.9984375 0.99820566 0.99914527 0.9981056 0.9980559
0.9984685 0.99838537 1.0011828 1.000975 1.0003952 1.0007169 1.000545 1.0006697
1.0010155 0.99803066 0.9984939 0.99849904 1.0019612 0.9982515 1.0010213 1.001545

gnn.gnn_node.batch_norms.1.bias f4 [128]
00000000: 5217 ed3a be88 1e3a 1367 b33a f5c0 02bb
00000010: a8a7 13ba 34ec 00bb fbc0 a63a 6bdd b9ba
00000020: 0bee a13a 22a9 bf3a 5890 f1b9 4c27 803a
00000030: f213 bcba c399 b93a cf0c 8a3a fe31 f1ba
00000040: ff42 c0ba cc09 e5ba 2d79 9fba bbdd 7eba
00000050: 6551 a5ba f733 b33a c5a3 75ba 255d 98ba
00000060: 465e 743a d859 ccba c53c 87ba 980e fcba
00000070: 71bf edba 6a4e 013a 9241 003a ccd0 91ba
00000080: fbf3 2eba ec26 87ba f6c3 2c3a 5255 833a
00000090: 5a59 fb3a a18c be3a 5548 a2ba 7bf2 013a
000000a0: 1d1e 833a e0d3 d23a 58a1 fb39 cade 8d3a
000000b0: 315e 9d3a 2ad1 5d3a e7a3 a13a c3e4 97ba
000000c0: afb6 df39 3e7e 9339 8686 853a 0a3a fbba
000000d0: 9db5 833a 3f66 0eba bdea b4ba 2490 ff3a
000000e0: 8dcf 5cba 16d8 94ba 78fb 543a c786 fbba
000000f0: d3e1 b9ba 571d 86ba 9209 903a d748 7e3a
00000100: bf58 023b 6dfb 89ba 6110 81ba c942 a1ba
00000110: cf00 fb3a 0df2 a23a d3a1 e039 b97f a83a
00000120: 9448 cdba 881f d139 49de c03a 58f1 9e39
00000130: 341a d1ba 3cf5 863a 51ee fb3a 63b2 c1ba
00000140: f512 aaba 2462 ed3a 5b86 8e3a ae01 cd3a
00000150: b9b4 e2ba c1ba baba 2df7 15ba 7c21 d93a
00000160: 6276 5bba 3189 a03a cc3b 94ba f434 c93a
00000170: 33f2 fcba 33bf 9bba 8ad4 90ba 3c67 a63a
00000180: dcc5 d63a c066 02bb ab28 9dba 0d83 a6ba
00000190: d2f3 e8ba b61d 0d3a 8262 b939 5b55 a93a
000001a0: 83e9 f239 0b7a e7ba 4c03 9eba 5ac9 cfba
000001b0: 91ec 883a 27a4 e53a 4d90 843a 4ab1 c9ba
000001c0: c2d1 9fba b8f0 2b3a a84c 6f3a 20f2 5c3a
000001d0: 9fb6 fdba d007 853a 1cae 4d3a ee6d 353a
000001e0: 7284 ebba 9139 b4ba 77c4 a0ba 1858 923a
000001f0: 2e1a f83a cbb1 943a 396f 793a 2a38 a63a
0.0018088615 0.0006047598 0.0013687335 -0.0019951437 -0.00056325877 -0.0019672038 0.0012722308 -0.0014180368
0.0012354268 0.0014622549 -0.00046074647 0.0009777336 -0.0014349206 0.0014160204 0.0010532382 -0.001840174
-0.0014668404 -0.0017474233 -0.001216685 -0.00097223715 -0.0012612758 0.0013672103 -0.0009370412 -0.0011624439
0.0009321909 -0.001559074 -0.0010317793 -0.0019230423 -0.0018138719 0.0004932644 0.0004892583 -0.0011124848
-0.0006673929 -0.0010311282 0.000659048 0.0010019934 0.0019176409 0.001453776 -0.0012381176 0.0004957092
0.0010003481 0.0016084872 0.0004799466 0.0010823843 0.0012006221 0.0008461649 0.0012332172 -0.0011588562
0.00042669984 0.00028132083 0.0010187186 -0.0019167077 0.0010048632 -0.0005432106 -0.0013802868 0.0019497913
-0.00084232615 -0.0011355903 0.000812463 -0.0019189947 -0.0014181681 -0.0010232133 0.001098918 0.0009700185
0.0019889323 -0.0010527201 -0.00098468 -0.0012303229 0.0019150021 0.0012431756 0.00042845178 0.0012855447
-0.0015661889 0.0003988708 0.0014714684 0.00030315924 -0.0015953244 0.0010296474 0.0019220804 -0.0014777895
-0.001297562 0.0018110913 0.0010873781 0.0015640759 -0.0017296291 -0.0014246331 -0.0005720731 0.0016565765
-0.00083718274 0.0012247917 -0.0011309325 0.0015350864 -0.0019298255 -0.0011882543 -0.001104967 0.0012695561
0.0016385871 -0.001989767 -0.0011990269 -0.0012703851 -0.001777286 0.00053831504 0.00035359344 0.0012919115
0.00046331817 -0.0017660273 -0.0012055426 -0.0015852854 0.0010446479 0.0017520235 0.0010113806 -0.0015387919
-0.001219325 0.0006559002 0.0009128549 0.00084284134 -0.0019356793 0.0010149423 0.0007846074 0.0006920983
-0.0017968549 -0.0013750066 -0.0012265582 0.001116517 0.0018928701 0.001134449 0.00095151697 0.0012681533

gnn.gnn_node.batch_norms.1.running_mean f4 [128]
00000000: 6d6d 4dbc f4a9 253c b018 13bc 9c55 083b
00000010: 8a84 b13c 60f6 26bc 2a5d 033c be1a 873c
00000020: ab47 16bc 916e b4bb 634d 673c 2c8c 20bc
00000030: 8c22 6c3c 259b e6bc ca41 f8ba 598f b2bc
00000040: 9d3f 903a 5686 a7bb 7087 16bc 949f 5f3b
00000050: d8dc 533b ad56 09bc 6565 86bb e837 f5bb
00000060: 8230 e639 984d fdba 9946 a7bb 9077 a83c
00000070: b5ea a13c 35b8 ed3c 81a8 283c 3f6d c13a
00000080: 7ceb 963c 08ad b93a 7c07 14ba ce9e fe3b
00000090: 74de 073b 20d5 4c3b ab08 c0bc 303e 053a
000000a0: 4d9f c43b eefb b0ba 918f 773c da53 383c
000000b0: 12db f33c 1102 933c e073 d3bb 6dca 30bc
000000c0: 78f3 1e3d 0968 bbbb 118b f2bc 1b9f 483b
000000d0: fa28 563b 67bb 86bb 46e4 9739 68f7 c03a
000000e0: 8a45 5f3a 3c24 a83b 0d4e e63a f07f 8e3b
000000f0: fe35 24b9 0e52 20bc d06e b4bb 1c8c 023b
00000100: b372 e23c 09e9 99bb e650 ee3b e41d 97bc
00000110: 9d87 c33c 3688 9bbc 6d1a e43c e1e7 02bc
00000120: 21e0 a13b ab19 07bd 2648 b7bc 7d68 dabc
00000130: ed8e 433c 6747 b3bc b93d c2bb 62be 95bc
00000140: 1d35 523a c072 ad3c 978b ce3c 7840 623c
00000150: af12 a53b 8cc7 0abc c3ec d2bb e499 313c
00000160: 0825 1ebc 24bf 51bb 2750 52bc 7daa 283b
00000170: 8f09 4fbc d50f 013c a8cf 1b3c 43bf 3dbc
00000180: 204a 853b bba6 f53b 3ec3 e1ba 4457 dd3b
00000190: 0f95 043c 078e a13c 0c33 dabc 1ae1 70bb
000001a0: 0e3e 28bc 4fa4 06bd bc89 873c a869 d5bb
000001b0: 4b92 23bd 9f29 933b b262 1fb9 aa21 9dbb
000001c0: 754d de3b ea2a b0bc 390c 2b3c f822 fabb
000001d0: dc15 243c 80b7 51bc 3af9 8dbc 3105 683c
000001e0: 93ec 43bc 3bd2 b1bb f367 1cbc 831c 5c3c
000001f0: 657b bfbb c2bc 8ebc ac3f 9c3b 5655 b13b
-0.012538296 0.010111321 -0.008978054 0.002080298 0.021669645 -0.010190576 0.0080178175 0.016492244
-0.00917236 -0.0055063446 0.0141175715 -0.009799045 0.0144125335 -0.02815015 -0.0018940505 -0.02179687
0.0011005286 -0.0051124496 -0.009187564 0.0034122216 0.0032327678 -0.0083824815 -0.0041014426 -0.007483471
0.0004390516 -0.0019325493 -0.0051048514 0.020564824 0.019765237 0.0290185 0.010294081 0.0014757289
0.018422835 0.0014165947 -0.0005646867 0.007770396 0.0020731958 0.0031254962 -0.023441633 0.0005082814
0.0060004354 -0.0013502815 0.0151099125 0.0112504605 0.029767547 0.017945321 -0.0064530224 -0.01079045
0.03880641 -0.005719189 -0.029607328 0.0030612412 0.0032678233 -0.0041116956 0.0002897104 0.001472217
0.0008517137 0.0051312726 0.0017570868 0.0043487474 -0.00015660372 -0.009785188 -0.005506374 0.0019919937
0.027642583 -0.0046969694 0.0072728274 -0.01844687 0.023868376 -0.018985849 0.027844632 -0.007989855
0.0049400483 -0.032983463 -0.02237327 -0.026661152 0.011935932 -0.021884633 -0.005927768 -0.018279258
0.0008018779 0.021172881 0.025213046 0.013809316 0.0050376276 -0.008470427 -0.0064369156 0.010839913
-0.009652384 -0.0032004798 -0.012836493 0.0025736385 -0.012636556 0.00787731 0.009509958 -0.011581245
0.0040676743 0.0074966825 -0.0017224324 0.0067547876 0.008092179 0.019721044 -0.02663567 -0.0036755265
-0.010268701 -0.03287154 0.016545169 -0.0065128393 -0.039934438 0.0044910456 -0.00015200188 -0.004795273
0.006784136 -0.021504838 0.010439926 -0.007633563 0.010014977 -0.012800097 -0.017330755 0.014161394
-0.011958259 -0.0054266728 -0.009546268 0.013434532 -0.005843567 -0.017423991 0.0047683325 0.005411784

gnn.gnn_node.batch_norms.1.running_var f4 [128]
00000000: c8be 533f 0e4b 503f 0be0 523f 41b5 513f
00000010: c110 573f dbb9 523f c77a 503f d559 5c3f
00000020: 098f 533f 3f6b 533f caee 503f 0d7c 553f
00000030: 32ce 533f 7986 5f3f ab4c 513f 075b 573f
00000040: 4d58 523f 7a0c 503f 1072 513f 6d68 503f
00000050: 9810 503f fa09 543f a2b0 573f 879a 543f
00000060: 794a 543f 7af2 4f3f 85aa 533f a1a4 523f
00000070: b33a 523f dd65 563f 8a2f 513f 1aad 513f
00000080: cdbd 533f 9b18 523f 16de 4f3f 9f0e 533f
00000090: 1783 503f 2069 513f 6575 663f 1185 583f
000000a0: 94aa 503f 28eb 4f3f 042d 513f 16c0 523f
000000b0: cdea 6c3f 7e1d 523f 3e5b 5e3f dc3a 533f
000000c0: 4b81 643f 37f0 523f 6a23 5f3f 3ae0 503f
000000d0: 2ac4 4f3f 72af 4f3f 2624 503f af2d 503f
000000e0: 0f63 533f 3f6d 5b3f 7941 503f 159b 4f3f
000000f0: da04 513f 7cbf 503f 1e22 523f b77b 503f
00000100: 5aaa 6b3f 4611 513f 2bc9 503f 07d9 553f
00000110: a76c 563f 7305 523f df58 563f c768 513f
00000120: e983 503f c1a0 643f 122e 573f 8b5c 613f
00000130: 7fd2 503f 7af8 553f 6ba5 513f 34bd 523f
00000140: cc6f 503f d4a8 513f 7cc6 523f c421 553f
00000150: a76f 503f 452b 503f 66f9 513f 79d4 503f
00000160: 9190 503f 9e5d 513f 8d28 543f 3dbe 4f3f
00000170: 70ba 523f 1496 523f a2b0 513f 0082 513f
00000180: 4585 513f 9277 543f bab3 503f 63ce 4f3f
00000190: 5246 503f b6ab 583f 95f0 553f 9e35 503f
000001a0: 9272 533f 3b1b 6d3f ac8b 573f 4ab6 513f
000001b0: 1fa7 6a3f c68b 513f 49b5 513f 3be0 4f3f
000001c0: 5b1a 523f d5b7 533f 7141 523f afee 533f
000001d0: b3a5 503f 9a12 543f 2fc2 523f 5fc6 523f
000001e0: 7b9a 523f c0ce 503f 6b27 503f f8d0 583f
000001f0: 75c3 4f3f 9fa4 533f b823 513f 6051 503f
0.82712984 0.81364524 0.8237311 0.81917197 0.8400994 0.8231484 0.81437343 0.8607457
0.8264013 0.8258552 0.81614363 0.8339241 0.82736504 0.87314564 0.8175761 0.8412327
0.82165986 0.8126904 0.8181467 0.8140934 0.8127532 0.82827723 0.84253895 0.8304829
0.82926136 0.81229365 0.8268207 0.82282454 0.8212082 0.8374918 0.81713164 0.8190476
0.8271149 0.82068795 0.8119825 0.82444185 0.8145003 0.81801033 0.9002288 0.84578043
0.8151028 0.81218195 0.81709313 0.8232435 0.9254578 0.8207625 0.86857975 0.8251169
0.89259785 0.8239779 0.8716341 0.8159214 0.811587 0.81127083 0.8130516 0.8131971
0.82573026 0.8571357 0.81349903 0.8109601 0.8164803 0.8154218 0.8208331 0.81438774
0.9205681 0.8166698 0.8155696 0.8353428 0.8375954 0.82039565 0.83729357 0.818005
0.8145128 0.8930779 0.8405467 0.88031834 0.8157119 0.8358227 0.8189303 0.8231995
0.8142059 0.81898236 0.82334113 0.8325465 0.8142037 0.81316024 0.82021177 0.8157421
0.8147059 0.81783473 0.82874376 0.81149656 0.8231573 0.8226025 0.81910145 0.8183899
0.8184398 0.8299495 0.8152424 0.81174296 0.813573 0.8463701 0.83570224 0.81331813
0.82596695 0.92619675 0.841975 0.81918776 0.91661257 0.818539 0.81917244 0.81201524
0.82071465 0.8270238 0.82131106 0.8278608 0.81502837 0.82840884 0.8232755 0.8233394
0.8226697 0.81565475 0.8131015 0.8469386 0.8115762 0.82673067 0.8169513 0.8137417

synth_conv1.conv1d.weight f4 [1, 1, 6]
00000000: 058b a6bc 48f4 b23e c726 86be 543a 49be
00000010: e558 9ebe 390c a03e
-0.020329962 0.34951997 -0.2620146 -0.19651157 -0.30927196 0.31259325

synth_conv2.conv1d.weight f4 [1, 1, 9]
00000000: 1454 883e 8512 273e 1ab9 68be 3453 f6bd
00000010: aab9 763e 0238 c9bd 745a e63d dabf f93a
00000020: 52f9 3a3e
0.26626647 0.16315658 -0.2272686 -0.120275885 0.24094263 -0.09825136 0.11247721 0.0019054369
0.1825917

synth_conv3.conv1d.weight f4 [1, 1, 12]
00000000: c682 343e 16f0 47be 671f 86be 1962 0abd
00000010: 248a 3ebe 1639 b6bd 4d4a 4a3e add8 5cbe
00000020: 0032 c53d 3db6 013e de7d b23d 63f4 b1bd
0.17628011 -0.1952518 -0.26195833 -0.03378496 -0.18607384 -0.08897607 0.19754906 -0.2156703
0.09628677 0.12667175 0.087154135 -0.08689191
